saved_pretrained/pubmed_2.pt (torch, 904063 bytes, 16 tensors)

fc1.0.weight f4 [64, 500]
0	0xbfa6d957	-1.3035077
1	0xbe2d72d5	-0.16938336
2	0xbb87f979	-0.0041496125
3	0x3e1e460f	0.15456413
4	0x3d61f62b	0.055166405
5	0x3e32afaf	0.1744983
6	0xbee33983	-0.44379815
7	0x3dbdb955	0.09263865
8	0xbf205501	-0.62629706
9	0xbd6b885a	-0.05750308
10	0x3a92728a	0.0011173051
11	0xbd68a79d	-0.056800473
12	0x3dee7b64	0.11644629
13	0xbe5ae9e0	-0.21378279
14	0x3eaeb47c	0.34122074
15	0xbebd6ade	-0.36995596
16	0x3f416f4f	0.7556047
17	0x3d3b58a8	0.045738846
18	0x3e390a3d	0.18070312
19	0x3c8343f7	0.01602362
20	0x3d43045a	0.04761157
21	0xbe37fe45	-0.1796809
22	0xbd7b0735	-0.06128617
23	0x3d4de33a	0.05026553
24	0xbf4e07f8	-0.8048091
25	0xbdc3106b	-0.09524616
26	0x3e17672a	0.14785448
27	0xbf016f9e	-0.5056094
28	0xbda21350	-0.0791384
29	0xbed4f99d	-0.4159669
30	0xbe300958	-0.17191064
31	0xbe14f554	-0.1454671
32	0xbdc5821c	-0.09643957
33	0x3cbce736	0.023059469
34	0xbe80ef98	-0.25182796
35	0x3e32ed65	0.17473371
36	0xbe200f85	-0.1563092
37	0xbecce833	-0.40020904
38	0xbd1ae775	-0.03781839
39	0xbeb01a9a	-0.34395295
40	0xbea13ccf	-0.31491706
41	0xbf014c13	-0.50506705
42	0x3ed3947d	0.41324225
43	0xbe40c8fc	-0.1882667
44	0xbcd8c608	-0.026461616
45	0x3e6d93f6	0.23200974
46	0xbe6058ad	-0.21908827
47	0x3d69245a	0.056919433
48	0xbc05e7e0	-0.008172959
49	0x3dae8297	0.08521002
50	0x3ccc3318	0.024926707
51	0x3d74ac7d	0.05973481
52	0xbc6a7ea1	-0.014312417
53	0xbe836361	-0.25661758
54	0xbf21ac15	-0.631532
55	0xbef8d857	-0.48602554
56	0x3dcdf58b	0.10056599
57	0xbed8d25f	-0.42348
58	0xbe8689ee	-0.26277107
59	0x3d2c23a7	0.04202619
60	0x3daf06e0	0.08546233
61	0x3e14838e	0.14503309
62	0xbe875026	-0.26428336
63	0xbde32717	-0.1109144
64	0x3e0ec983	0.13944058
65	0x3e941a0f	0.2892613
66	0xbe23696e	-0.15958187
67	0x3cf8df08	0.030379787
68	0x3ee9596f	0.45576045
69	0x3c5cc275	0.013474097
70	0x3eeea3a6	0.4660923
71	0x3e0ef409	0.1396028
72	0x3c0233d7	0.00794693
73	0xbe0e36fc	-0.13888162
74	0x3e48b924	0.19601876
75	0xbd161aa9	-0.03664652
76	0x3e47a678	0.19497097
77	0xbe7fd4b0	-0.24983478
78	0xbd8edec0	-0.0697608
79	0xbeb3323f	-0.34999272
80	0x3e6060fa	0.21911994
81	0xbd4a1365	-0.049334902
82	0x3eb86f25	0.36022297
83	0xbdd130ff	-0.102144234
84	0x3ebff109	0.37488583
85	0xbe0a2151	-0.13489272
86	0xbd2632a7	-0.04057565
87	0x3dc0cdc8	0.0941425
88	0x3edde0f0	0.43335676
89	0x3f834931	1.0256711
90	0x3e5ca305	0.21546562
91	0x3d6e2ecf	0.05815011
92	0xbe7cd4fc	-0.24690622
93	0xbd05ab35	-0.03263398
94	0x3d89e5c3	0.06733277
95	0x3dc2dafa	0.09514423
96	0x3eeb08d4	0.45905173
97	0x3d91eed0	0.07125628
98	0xbddea133	-0.1087059
99	0x3b3b58a1	0.0028586762
100	0xbeb92ca9	-0.36166885
101	0xbddea772	-0.108717814
102	0xbe5ca03d	-0.21545501
103	0x3cb69f37	0.022292716
104	0xbeaa7929	-0.33295563
105	0x3e5debbe	0.2167196
106	0xbde474b6	-0.11155073
107	0x3e4e0f20	0.20122957
108	0xbd601128	-0.05470386
109	0xbd597de3	-0.05309857
110	0xbe414b22	-0.18876317
111	0x3e3469b9	0.17618455
112	0xbe265f8b	-0.16247384
113	0xbcb8a58a	-0.022539873
114	0xbe67df30	-0.22643733
115	0x3ddafadb	0.10692378
116	0xbe8c69c7	-0.27424452
117	0xbe25c4f8	-0.16188419
118	0x3e665a46	0.22495374
119	0xbd187641	-0.03722215
120	0x3dbafc16	0.09130113
121	0x3e6e24da	0.23256245
122	0xbd03d336	-0.03218385
123	0xbe17a6fa	-0.1480979
124	0x3e477291	0.19477297
125	0xbd7f36b5	-0.062308032
126	0x3e84adba	0.25913793
127	0xbdb7228c	-0.08942136
128	0x3dbe87b9	0.09303231
129	0xbc6234aa	-0.013806501
130	0x3dd6f3cf	0.104957215
131	0xbd1f3917	-0.038872804
132	0x3ea0e0a4	0.31421387
133	0x3e41e734	0.18935853
134	0xbe755e5f	-0.23961781
135	0x3f0b74c3	0.5447504
136	0xbc8573a9	-0.016290503
137	0x3f049ac8	0.5179868
138	0xbd9feff8	-0.07809442
139	0x3ef1a030	0.47192526
140	0xbe7784cc	-0.24171752
141	0x3e39750b	0.18111055
142	0xbe1bf698	-0.15230787
143	0x3e0ed8d5	0.13949902
144	0x3e7885af	0.24269746
145	0xbd7024c5	-0.058628816
146	0x3ca40b01	0.020024778
147	0xbc9662bd	-0.018357629
148	0x3d864c4a	0.0655752
149	0xbd5995e2	-0.053121455
150	0xbed75450	-0.42056513
151	0xbebd705a	-0.3699978
152	0xbe7e8dd4	-0.2485879
153	0x3ea1cc9b	0.31601414
154	0xbd2bad43	-0.041913282
155	0xbe32441c	-0.17408794
156	0xbf03f97b	-0.5155255
157	0x3d20c9d2	0.03925497
158	0xbe87d7c9	-0.26531819
159	0xbecfd6de	-0.40593618
160	0x3e13a05f	0.14416645
161	0x3d281e82	0.04104472
162	0x3dc6def5	0.097104944
163	0x3eb74401	0.3579407
164	0xbe8513c2	-0.25991637
165	0xbec2c0a7	-0.38037607
166	0x3ed41c2b	0.4142774
167	0x3e9a8064	0.3017608
168	0xbea0f565	-0.3143722
169	0xbe346117	-0.17615162
170	0x3c7d4f1f	0.0154607585
171	0xbe48493f	-0.19559191
172	0x3ce2191e	0.027599867
173	0xbe7901cf	-0.24317096
174	0xbdf65ef6	-0.12029831
175	0xbddb1935	-0.10698167
176	0x3d04bc26	0.032405995
177	0x3d3341ac	0.0437638
178	0xbde3cfcc	-0.111236185
179	0xbe0c7a78	-0.13718593
180	0xbe36d62e	-0.1785514
181	0x3e605462	0.2190719
182	0xbd1052b9	-0.03523514
183	0xbcde627c	-0.02714657
184	0xc0045d29	-2.068186
185	0xbd1e8a4c	-0.03870611
186	0x3dd35fa2	0.10320975
187	0x3e3195ed	0.17342348
188	0x3e83b07a	0.25720578
189	0xbdea4cfc	-0.11440465
190	0xbc5c275e	-0.01343712
191	0x3d65ea4d	0.05613165
192	0xbd9635c3	-0.07334473
193	0xbd88fcc0	-0.06688833
194	0x3e1de969	0.1542107
195	0x3f258438	0.64654875
196	0xbe1cb9c0	-0.15305233
197	0xbe7616f5	-0.24032195
198	0xbe442597	-0.19154964
199	0xbd236ca5	-0.039898533
200	0xbea2f210	-0.31825304
201	0x3e13df2b	0.144406
202	0xbd9ac79e	-0.07557605
203	0xbebfa2a9	-0.37428787
204	0xbe3e9fea	-0.1861569
205	0x3d8b16de	0.06791471
206	0xbdfad037	-0.12246745
207	0xbe33df4b	-0.17565648
208	0xbebdb8af	-0.37054965
209	0xbe050a59	-0.12992229
210	0xbe02e36e	-0.1278207
211	0xbde460aa	-0.1115125
212	0x3e921abd	0.28536025
213	0xbd9d930b	-0.07694062
214	0x3c9217b2	0.017833564
215	0x3e896a0d	0.26838723
216	0x3db74906	0.08949475
217	0x3ea07997	0.31342766
218	0xbea0b782	-0.31390005
219	0xbea04fc6	-0.31310862
220	0x3cf7e682	0.030261282
221	0x3dfd1be8	0.12358838
222	0x3ea4d3a4	0.3219272
223	0x3e99b5a9	0.30021408
224	0x3dcb3fb5	0.099242605
225	0x3edbd595	0.42936388
226	0x3eccef50	0.4002633
227	0x3de2e915	0.11079613
228	0xbf076089	-0.52881676
229	0xbba05e58	-0.004894059
230	0x3ea56ce4	0.3230964
231	0xbe2db795	-0.16964562
232	0x3e9200a3	0.2851611
233	0x3e6f7c30	0.23387218
234	0xbb2f01d2	-0.0026703966
235	0x3ee5f171	0.44910768
236	0xbdb01249	-0.085972376
237	0xbbaa1fe6	-0.005191791
238	0x3e529b2f	0.2056701
239	0x3dd5a586	0.10431962
240	0x3dc87d82	0.09789564
241	0x3e5b3be9	0.21409573
242	0xbc36c7b1	-0.011156009
243	0x3edf51ae	0.43617004
244	0xbe0c764f	-0.13717006
245	0x3ddff044	0.10934499
246	0x3e9a66c0	0.30156517
247	0x3ec488db	0.38385662
248	0xbe899ed4	-0.2687899
249	0xbe2e6f4b	-0.17034642
250	0x3d801e0d	0.06255732
251	0x3efa4f50	0.48888636
252	0x3cbf7ab6	0.023373943
253	0x3e042bd5	0.12907346
254	0x3ce18c28	0.027532652
255	0x3da20edc	0.079129905

fc1.0.bias f4 [64]
0	0x3d3c7fcc	0.046020314
1	0x3cb90daf	0.022589533
2	0x3abe5a4e	0.0014522763
3	0x3c96f7b2	0.018428657
4	0x3cccec33	0.025014972
5	0x3ca3c43f	0.019991038
6	0x3c6ec862	0.014574142
7	0xbb32589a	-0.0027213455
8	0x3c3cac4b	0.011515687
9	0x3cfccdbf	0.030859826
10	0x394c52aa	0.00019485751
11	0xbc691886	-0.014227038
12	0x3cfe8c7c	0.031072848
13	0x3d1dac45	0.038494367
14	0x3949a646	0.00019230795
15	0x3ce0d376	0.027444582
16	0xbb08a2bf	-0.0020848957
17	0x3d100407	0.03516009
18	0x3d41169a	0.047140695
19	0xbaf66f7a	-0.0018801533
20	0x3c64278c	0.013925444
21	0xbabf3475	-0.0014587777
22	0xbba796bd	-0.005114405
23	0x3892cc23	6.999846e-05
24	0x3b40eedb	0.0029439244
25	0xbb224010	-0.0024757423
26	0x3d3a93b9	0.045551036
27	0x3d48c7b8	0.04901859
28	0x3d06427f	0.03277826
29	0x3cd5305c	0.026024036
30	0x3bba6c85	0.005689206
31	0x3cce4877	0.025181038
32	0x3c6c1a7a	0.014410609
33	0x3cb9ede1	0.022696437
34	0xb9dd7406	-0.0004223885
35	0x3d188efd	0.03724574
36	0x3ccf762f	0.025324909
37	0x3ba46179	0.0050165025
38	0xbb31b588	-0.0027116258
39	0x3c9f9c2d	0.01948365
40	0xbbe92f09	-0.0071162027
41	0xbbac1fa3	-0.005252795
42	0x3b2201ca	0.0024720305
43	0x3c399a77	0.011328331
44	0x3d35539e	0.044269197
45	0x3c94c008	0.018157974
46	0x3cea907d	0.02863335
47	0x3ce509a2	0.027958695
48	0x3d367907	0.044549014
49	0x3d0c1337	0.034198012
50	0x3c2f7620	0.010709316
51	0x3cf9e3bb	0.030504098
52	0x3d1c8900	0.03821659
53	0xbb25d72b	-0.0025305252
54	0x3ce46bef	0.027883498
55	0x3d0c59c8	0.03426531
56	0x3cfa35dd	0.030543262
57	0x3cd6632e	0.02617034
58	0x3c0ae121	0.0084765265
59	0x3d43069d	0.04761373
60	0x3c342690	0.010995522
61	0x3c99b360	0.01876229
62	0x39c66ca8	0.00037846458
63	0x3cf07b94	0.029355802

fc1.1.weight f4 [64, 500]
0	0xbeafdd8a	-0.34348708
1	0x341988a3	1.4298944e-07
2	0x3526cec5	6.214071e-07
3	0x3465ce97	2.1402444e-07
4	0x3495aea0	2.788047e-07
5	0x33408073	4.4820307e-08
6	0xb59adadc	-1.1537591e-06
7	0xb4891056	-2.5530125e-07
8	0xbafdd298	-0.001936513
9	0xb54ca64c	-7.6237916e-07
10	0xb596d1a0	-1.123688e-06
11	0x34c65ee1	3.6949407e-07
12	0xb3e86bec	-1.0822973e-07
13	0x332551df	3.8491518e-08
14	0x33b2d40e	8.3273434e-08
15	0xbcc9ae94	-0.024619378
16	0x3a19551e	0.000584917
17	0x34ddf523	4.1342818e-07
18	0xb5245ee8	-6.123287e-07
19	0x34273192	1.557112e-07
20	0xb5147b97	-5.5314143e-07
21	0x36a89d6d	5.025117e-06
22	0xb4ed0fc2	-4.4156155e-07
23	0x35189a35	5.6848813e-07
24	0xb315e980	-3.4904133e-08
25	0x36b36494	5.3463245e-06
26	0x3513cbc5	5.505829e-07
27	0x33a973fe	7.8907746e-08
28	0x35bae714	1.3925332e-06
29	0xb6aa3967	-5.0730773e-06
30	0xb508ff8d	-5.1035823e-07
31	0x3599d485	1.146124e-06
32	0xba79f0cf	-0.00095344795
33	0xb902521b	-0.00012428353
34	0xb5a9dab3	-1.2655131e-06
35	0x352ec732	6.510992e-07
36	0xb50cbf3b	-5.243234e-07
37	0xb484b28f	-2.4716834e-07
38	0xb886b27a	-6.422862e-05
39	0xb6788ccc	-3.7036834e-06
40	0x35155a1e	5.5637963e-07
41	0x3327c8a4	3.90652e-08
42	0xb44c3e26	-1.902159e-07
43	0x35934b23	1.0974221e-06
44	0x33608338	5.2273407e-08
45	0x3228d89f	9.828141e-09
46	0x34b6d824	3.4057405e-07
47	0x35579346	8.030805e-07
48	0x349dc07a	2.9383574e-07
49	0x390bd436	0.00013335128
50	0xb4e4ded1	-4.263043e-07
51	0x351c4644	5.821678e-07
52	0x3623e89e	2.4424294e-06
53	0xb6564b0b	-3.1932166e-06
54	0x358e87e6	1.0619376e-06
55	0x35050f27	4.956841e-07
56	0x34b8dc3b	3.443291e-07
57	0xb461dfab	-2.1036128e-07
58	0xb46c9daf	-2.2036578e-07
59	0x3146a030	2.8903848e-09
60	0x367156e6	3.596238e-06
61	0x35140f95	5.515697e-07
62	0xb539b78c	-6.9184966e-07
63	0x35d8bfd5	1.6149085e-06
64	0x34af66c5	3.2671065e-07
65	0x35775426	9.213712e-07
66	0xb547b091	-7.4390215e-07
67	0x3602c4e5	1.9486117e-06
68	0x34492107	1.8731599e-07
69	0x3506ad3e	5.017099e-07
70	0x3a4f6b53	0.0007912416
71	0x3494bef8	2.7706096e-07
72	0x335346ff	4.9191836e-08
73	0x3536124c	6.782691e-07
74	0x34ce937b	3.8477796e-07
75	0xb4fd0248	-4.7126582e-07
76	0xb482bbd2	-2.4351044e-07
77	0xb59aba36	-1.1528089e-06
78	0xb2c9fd1a	-2.3514577e-08
79	0x3550ec7b	7.783016e-07
80	0x35ab842a	1.2778958e-06
81	0x34b9734a	3.454282e-07
82	0x350437cb	4.925502e-07
83	0x351d7a18	5.866473e-07
84	0xb4f43926	-4.5490123e-07
85	0xb5ad1b70	-1.289749e-06
86	0xb507f6c5	-5.0650516e-07
87	0xb505d59f	-4.985722e-07
88	0xb545aae5	-7.3636903e-07
89	0x3c5d256a	0.01349769
90	0x35f819ae	1.8484914e-06
91	0x35a65322	1.2392159e-06
92	0xb5ccf172	-1.5269454e-06
93	0xb492a279	-2.7312834e-07
94	0xb22ad1c1	-9.942995e-09
95	0x3420f4e1	1.4990248e-07
96	0xb504838b	-4.936525e-07
97	0x33c49294	9.1536236e-08
98	0x350f17e5	5.330642e-07
99	0xb58f1ccc	-1.0662711e-06
100	0x34391aac	1.7239171e-07
101	0x34f3cacb	4.5409828e-07
102	0xb55ebd84	-8.2977226e-07
103	0xb5568333	-7.991213e-07
104	0xb4dcb397	-4.1108862e-07
105	0x34bd3671	3.5243605e-07
106	0xb5011846	-4.809157e-07
107	0xb4a552fb	-3.079402e-07
108	0x346dd177	2.2148548e-07
109	0xb33689c9	-4.2500492e-08
110	0xb52d7804	-6.462217e-07
111	0x349a6dd1	2.8764637e-07
112	0xb3d99fef	-1.0133942e-07
113	0x34ed44ac	4.4194655e-07
114	0x3460ad3e	2.0924651e-07
115	0x345dd0b2	2.0658152e-07
116	0xb3ad4f30	-8.0703444e-08
117	0x3409f4a0	1.2848113e-07
118	0x353f4490	7.1252816e-07
119	0xb6348552	-2.6899693e-06
120	0x35864ee4	1.0006738e-06
121	0xb5482663	-7.4561666e-07
122	0x352f38a2	6.527499e-07
123	0x3873d92a	5.8137965e-05
124	0x34bce905	3.5187273e-07
125	0xb46be8dd	-2.1970796e-07
126	0xb51f7cb3	-5.9413577e-07
127	0xb46c02cb	-2.1980229e-07
128	0x34f189f1	4.4990114e-07
129	0xb34c4693	-4.7561638e-08
130	0x33136f25	3.432719e-08
131	0xb4cb0979	-3.781859e-07
132	0xb581f563	-9.682666e-07
133	0x3531ea77	6.627883e-07
134	0x356da222	8.8525314e-07
135	0x342aa824	1.5893653e-07
136	0x3430a8d4	1.6452697e-07
137	0xb6092d8b	-2.04411e-06
138	0x34039629	1.2254954e-07
139	0x37fcc5c8	3.013284e-05
140	0x34cfbd48	3.8694475e-07
141	0x3424ee61	1.5360412e-07
142	0xb580aa37	-9.586282e-07
143	0xb4a33a48	-3.040352e-07
144	0x34e16518	4.198307e-07
145	0x34ec9cfb	4.4072644e-07
146	0x35865e1f	1.0011171e-06
147	0x34a24449	3.0224535e-07
148	0x353d61aa	7.0550107e-07
149	0x3b9dfb9b	0.0048212535
150	0x339dc56d	7.346794e-08
151	0xb53c5b60	-7.0168426e-07
152	0xb5421657	-7.230314e-07
153	0x33edf28c	1.10802915e-07
154	0x34896b8a	2.5596484e-07
155	0xb4540cd7	-1.974871e-07
156	0xb4c453ee	-3.6568912e-07
157	0x35a9a72b	1.2640133e-06
158	0xb58b8d88	-1.0397498e-06
159	0xb62d586c	-2.5830477e-06
160	0x34c251b6	3.6194768e-07
161	0x34221179	1.5093782e-07
162	0x3b3bfbc5	0.0028684002
163	0x346d7df9	2.2118174e-07
164	0xb2a52403	-1.9224904e-08
165	0xb476f1dd	-2.2998525e-07
166	0xb5091985	-5.1073613e-07
167	0x340020bd	1.1932839e-07
168	0x34962d46	2.7972618e-07
169	0x35cf068d	1.5424608e-06
170	0xb5156b7d	-5.566324e-07
171	0x34296142	1.5774734e-07
172	0xb5040e7a	-4.91949e-07
173	0x3515eb58	5.5849296e-07
174	0xb4d0b23d	-3.8872705e-07
175	0xb5dc382b	-1.6407624e-06
176	0x339e2785	7.364637e-08
177	0xb5a9f761	-1.2663478e-06
178	0xb5213040	-6.0047387e-07
179	0x35d034de	1.5512594e-06
180	0xb59c38b7	-1.1639412e-06
181	0x3461ef93	2.1041915e-07
182	0x33738fcd	5.6708632e-08
183	0x35e9f5fa	1.7431441e-06
184	0x35dbfbbd	1.6390037e-06
185	0xb41bf21b	-1.4523577e-07
186	0x33f77eab	1.15248746e-07
187	0x35179313	5.6465905e-07
188	0x33ee24e9	1.10894526e-07
189	0xb4801824	-2.3859423e-07
190	0xb5092753	-5.10937e-07
191	0xb35fb844	-5.2088822e-08
192	0x348f5adc	2.6701935e-07
193	0xb32db20d	-4.0441638e-08
194	0x34a57c55	3.0824108e-07
195	0x34a1f381	3.016576e-07
196	0xbb553ff9	-0.0032539351
197	0x31dbb934	6.394794e-09
198	0xb52b14e9	-6.373289e-07
199	0x34932612	2.7408583e-07
200	0x35bf388a	1.4247064e-06
201	0x376a7fd1	1.3977246e-05
202	0xba94bc8b	-0.0011347694
203	0x3321c4a1	3.7664567e-08
204	0xb75e34e3	-1.3244545e-05
205	0x351887b4	5.6821887e-07
206	0xb5855f80	-9.937066e-07
207	0xb39a334d	-7.1805154e-08
208	0xb51d81e7	-5.867609e-07
209	0x34462351	1.8453035e-07
210	0xb42c6ba8	-1.6057913e-07
211	0x35215d83	6.011325e-07
212	0xb5cea664	-1.5396622e-06
213	0x35e89fb8	1.7331831e-06
214	0xb4a42bee	-3.0579344e-07
215	0x34869cfb	2.5073663e-07
216	0x348de2a8	2.642821e-07
217	0x358c8e25	1.0472182e-06
218	0xb6054e62	-1.986417e-06
219	0x3531d012	6.624042e-07
220	0x338201a1	6.053893e-08
221	0x3690fecb	4.3211962e-06
222	0x348d8978	2.6363318e-07
223	0xb56b0db0	-8.756424e-07
224	0xb5ef91b3	-1.7849292e-06
225	0xb5631889	-8.4599793e-07
226	0x347b3bc7	2.3397943e-07
227	0xb5452f87	-7.345738e-07
228	0x32fd644c	2.9498686e-08
229	0xb48e2f60	-2.648403e-07
230	0x3503513a	4.8919503e-07
231	0x33888e27	6.358851e-08
232	0xb6405ef3	-2.8665497e-06
233	0x34dbbef9	4.093088e-07
234	0x35655054	8.542604e-07
235	0x363d67c6	2.8223599e-06
236	0x34c2ed6d	3.6308066e-07
237	0x34733320	2.2649738e-07
238	0x34f6d2c1	4.5974414e-07
239	0xb55d2715	-8.238579e-07
240	0xb4295555	-1.5770395e-07
241	0x348ff19c	2.681162e-07
242	0x35694d25	8.6911524e-07
243	0xb4fde7d7	-4.7293608e-07
244	0x35340843	6.706725e-07
245	0xb4f514ff	-4.5650083e-07
246	0xb50643ad	-5.001737e-07
247	0xb6e5d9af	-6.8500735e-06
248	0xb5811118	-9.616224e-07
249	0xb4b15df2	-3.3037173e-07
250	0xb445fbba	-1.8438632e-07
251	0x3850de9c	4.9798386e-05
252	0x35eb0ec5	1.7513163e-06
253	0x35941210	1.1032116e-06
254	0xb3a93d52	-7.88083e-08
255	0x33b4b8fe	8.415553e-08

fc1.1.bias f4 [64]
0	0x3e464b91	0.19364764
1	0xbfbc973e	-1.4733655
2	0xbf94c31c	-1.1622043
3	0x3e385960	0.18002844
4	0x3ea22513	0.3166891
5	0x3e4466f0	0.19179893
6	0x3ea44ae9	0.32088402
7	0x3ea4d430	0.32193136
8	0x3d9dc29a	0.07703133
9	0x3e4b8f9a	0.19878998
10	0x3ee76e9f	0.45201585
11	0x3f1fd776	0.6243814
12	0x3e35fd7e	0.17772481
13	0x3ea22233	0.31666717
14	0xbfb2575d	-1.3932911
15	0x3ed0669c	0.40703285
16	0x3e8a2f37	0.26989147
17	0x3dcc7945	0.09984068
18	0x3e59686e	0.21231243
19	0x3e9438a3	0.2894946
20	0xbef41731	-0.47673944
21	0xbf893c1e	-1.0721471
22	0x3f1c6952	0.61098206
23	0x3e1726bb	0.14760868
24	0xbf73180b	-0.9495856
25	0xbf8c75a4	-1.0973401
26	0x3e82747a	0.2547949
27	0x3eb7c432	0.35891873
28	0x3e4ce6ec	0.20009965
29	0x3e6fbea9	0.23412575
30	0x3e3d802b	0.18505923
31	0x3e53a101	0.20666887
32	0x3dcfbbe0	0.10143256
33	0x3e4043e7	0.18775903
34	0x3e48d5d6	0.19612822
35	0x3e6f9ff7	0.23400865
36	0x3e6aa170	0.22913146
37	0x3e80e1a2	0.25172144
38	0x3da4a312	0.08038916
39	0xbfcd7106	-1.6050117
40	0x3ef128fb	0.47101578
41	0xbefac6a6	-0.48979682
42	0xbf87925f	-1.0591544
43	0x3e5413db	0.207107
44	0xbf1e33f6	-0.61798036
45	0x3da6b34e	0.081396684
46	0xbf7353da	-0.9504982
47	0x3e04c233	0.12964706
48	0x3e63b002	0.2223511
49	0x3edf0f83	0.43566522
50	0xbfcb1da8	-1.5868425
51	0x3e2745ea	0.16335264
52	0x3e8c34e2	0.27384096
53	0xbf033f35	-0.5126832
54	0x3e9f7892	0.31146675
55	0xbf6c6dc4	-0.9235499
56	0x3ea5585d	0.32293978
57	0x3dc39703	0.095502876
58	0xbee3de27	-0.44505426
59	0x3e7df83c	0.24801725
60	0xbe970bd9	-0.29501227
61	0x3e011e35	0.1260918
62	0x3ee603a2	0.44924647
63	0x3e0fe448	0.14051926

fc1.2.weight f4 [64, 500]
0	0xbfac242c	-1.3448539
1	0x3781efdc	1.5489692e-05
2	0x3bad6f02	0.005292774
3	0xb77c38b9	-1.5033577e-05
4	0xb6b242d5	-5.3125937e-06
5	0x3abbbe73	0.0014323726
6	0xbb5d7f04	-0.003379763
7	0x3b1e4c62	0.0024154414
8	0xbe1b117d	-0.1514339
9	0xbba7a46f	-0.0051160376
10	0x3ace03bb	0.0015717665
11	0x398fcb26	0.00027426443
12	0x37d833f6	2.5773403e-05
13	0xb84a8e9f	-4.829338e-05
14	0x373d2a06	1.1275062e-05
15	0xbeebf724	-0.4608699
16	0x3db636ea	0.08897193
17	0x390d0ae2	0.00013450862
18	0x3adb4e79	0.0016731761
19	0x370ee774	8.517749e-06
20	0x37d9442b	2.5900159e-05
21	0xbc8e4a7e	-0.017369505
22	0x3a17913a	0.00057818333
23	0xbac896e5	-0.0015303759
24	0xbb2c3cd5	-0.0026281376
25	0x3a8d2282	0.001076773
26	0xb823d1c3	-3.9057584e-05
27	0xb733ee3a	-1.0724698e-05
28	0xba91ed3b	-0.0011133322
29	0x3b132ddb	0.0022457752
30	0x38b48d4f	8.6093896e-05
31	0xbc024ef7	-0.007953397
32	0xbcf817a1	-0.030284705
33	0xbcc4a56c	-0.02400466
34	0x3712c13d	8.74727e-06
35	0xb92a8657	-0.00016262509
36	0x3ad4678d	0.0016205177
37	0x3a46903a	0.0007574592
38	0xbd3e6d65	-0.046491046
39	0xbaa36267	-0.0012465239
40	0x39784955	0.00023678441
41	0x3a84a169	0.0010118905
42	0x3807ebc5	3.2406086e-05
43	0xba745a7a	-0.00093213434
44	0xb7fe2768	-3.029751e-05
45	0xb6fd6c05	-7.5525627e-06
46	0xb6348e4f	-2.6904925e-06
47	0x3aa3f841	0.0012509899
48	0x39bb971c	0.00035780005
49	0x3d33533a	0.043780543
50	0xb6e223e5	-6.7395035e-06
51	0xb79f1b7e	-1.8967079e-05
52	0xbba8c7dc	-0.005150778
53	0xbac4ebf6	-0.0015023935
54	0xbc02b46a	-0.007977584
55	0x3a41d0aa	0.0007393459
56	0x3984bde1	0.00025318473
57	0x398271b7	0.00024880256
58	0x37044bbf	7.885449e-06
59	0x3953bba6	0.00020192433
60	0xbbde4951	-0.0067836423
61	0x39af5476	0.0003344153
62	0xba0a331c	-0.0005271898
63	0xba147253	-0.00056627876
64	0x375b7583	1.30807775e-05
65	0x393903aa	0.0001764434
66	0x3756b326	1.2797105e-05
67	0x3cfd070c	0.03088715
68	0x378950fb	1.6369382e-05
69	0xb8389821	-4.40107e-05
70	0x3dd8c013	0.1058351
71	0x3c415f4a	0.011802504
72	0x3b14cbef	0.0022704562
73	0xb7d4a1b9	-2.5347677e-05
74	0x39e2b269	0.00043239005
75	0x37141cca	8.82819e-06
76	0xb7897302	-1.6385227e-05
77	0xba62635f	-0.0008636023
78	0x37adb9d9	2.070975e-05
79	0x37a2ff44	1.9430772e-05
80	0xb80782b3	-3.230823e-05
81	0xb827584d	-3.989814e-05
82	0xb6410879	-2.8764173e-06
83	0x3970be3b	0.0002295905
84	0xb79881ba	-1.818022e-05
85	0xb81c3d74	-3.725053e-05
86	0x3b145612	0.002263431
87	0xb70a20c9	-8.233074e-06
88	0xb61048dc	-2.1500082e-06
89	0x3ee1dbb6	0.4411294
90	0x3b2b0650	0.0026096292
91	0xb7e3b2ff	-2.714386e-05
92	0xbab629d7	-0.0013897967
93	0xbc91168f	-0.017710952
94	0xb5ed640a	-1.7686991e-06
95	0x3c1800ee	0.009277565
96	0xb7b68e66	-2.17624e-05
97	0xb7800ce5	-1.5264794e-05
98	0x39327487	0.00017018813
99	0xb6591bbe	-3.2351668e-06
100	0x382829ef	4.0093375e-05
101	0xb7e2dc58	-2.7043905e-05
102	0x3995ceb5	0.00028573503
103	0xb769bc6c	-1.3931753e-05
104	0x373899e9	1.100309e-05
105	0x394f2f67	0.00019758717
106	0x3a649e8e	0.0008721136
107	0x36b75b29	5.4644374e-06
108	0xb7fdc79d	-3.0252902e-05
109	0x3a65d649	0.0008767588
110	0xbca0f69a	-0.019648839
111	0x39172db4	0.00014417508
112	0x39785eb8	0.00023686409
113	0x3685b607	3.9848996e-06
114	0xb7e1b05a	-2.690421e-05
115	0xb7b5bf04	-2.166583e-05
116	0x38a17f7e	7.7008255e-05
117	0xb7982624	-1.8137573e-05
118	0x38197699	3.6588495e-05
119	0xbbbfbf60	-0.005851671
120	0x37aacae4	2.0360058e-05
121	0x3aa94338	0.001291371
122	0x3bd2d465	0.006434011
123	0xbcbc4a51	-0.022984656
124	0xb5980ec8	-1.1329184e-06
125	0xb781968e	-1.5448106e-05
126	0xb770a60a	-1.4343774e-05
127	0xb70912ff	-8.170259e-06
128	0xb74f9415	-1.23726395e-05
129	0x3784678a	1.578384e-05
130	0xb782b03b	-1.5579271e-05
131	0x3a469cf0	0.0007576486
132	0xb6ccf190	-6.1077953e-06
133	0x37bf00e4	2.2769389e-05
134	0x379b0c5e	1.8483199e-05
135	0xb73dde72	-1.131707e-05
136	0x378ddb1f	1.6910546e-05
137	0xb7538f34	-1.2609922e-05
138	0xbb09b60b	-0.0021013047
139	0x3cda8bb0	0.026677936
140	0x37296300	1.0096235e-05
141	0x3703683f	7.83248e-06
142	0x399cd16b	0.00029910667
143	0x3728a061	1.0050921e-05
144	0xb622914a	-2.422445e-06
145	0xb695fb8a	-4.469829e-06
146	0x3b831b9e	0.004001095
147	0x398cfe3b	0.00026892297
148	0xb6ee07ce	-7.0938613e-06
149	0x3d8abac4	0.06773904
150	0x3623bde8	2.4399433e-06
151	0x36055af1	1.987148e-06
152	0x35234e9c	6.0836624e-07
153	0xb5aaf9b3	-1.2738659e-06
154	0x3789c2e1	1.642242e-05
155	0x3a36fc6e	0.0006980364
156	0x357fb435	9.525714e-07
157	0xb8f8d78e	-0.00011865712
158	0x37b6f524	2.1810243e-05
159	0xbc81020f	-0.015748052
160	0x3a8b5109	0.0010629009
161	0xb7213f73	-9.611121e-06
162	0x3dcb332d	0.099218704
163	0x376aefa0	1.4003279e-05
164	0x37e4fb0d	2.7296623e-05
165	0xb754996b	-1.2671905e-05
166	0x3b405f5c	0.0029353714
167	0xb58d0aae	-1.0508427e-06
168	0x3a57685b	0.00082171493
169	0xbc10acc3	-0.008830252
170	0x372407f3	9.777013e-06
171	0x352522a6	6.151771e-07
172	0xb5fa4311	-1.864597e-06
173	0xbad5cc25	-0.001631145
174	0xb7d266e7	-2.5081868e-05
175	0x3bd9f062	0.0066509703
176	0x372685d8	9.925534e-06
177	0x3718758b	9.087274e-06
178	0x330ed56d	3.325606e-08
179	0xbaa9490d	-0.0012915448
180	0x39dc467e	0.0004201419
181	0x37262a06	9.904155e-06
182	0xb6fd436e	-7.5478374e-06
183	0xbb9ece81	-0.0048463945
184	0xbd51b22a	-0.0511953
185	0x389fd5d1	7.621537e-05
186	0x37890514	1.6334037e-05
187	0xb77ac501	-1.494703e-05
188	0x3750a08b	1.2435145e-05
189	0xb7b0adeb	-2.1061822e-05
190	0x398093e0	0.00024524238
191	0x3b22b5ac	0.0024827523
192	0xbbe1fc12	-0.006896504
193	0x370cd4e5	8.394219e-06
194	0xb43c22b6	-1.7521492e-07
195	0xb6ce8f16	-6.155936e-06
196	0xbcf6d1b5	-0.030129293
197	0xb6f182b5	-7.197576e-06
198	0xb66c273f	-3.5189585e-06
199	0xb6cc30e1	-6.085364e-06
200	0xb9c8122a	-0.00038160506
201	0x3c552eba	0.013011629
202	0xbd1a51aa	-0.037675537
203	0xb82b55da	-4.0849533e-05
204	0xbab1b0e8	-0.001355675
205	0x3b2b6cb5	0.0026157324
206	0x36c3016b	5.811618e-06
207	0xb6ca6c44	-6.032673e-06
208	0xb5f06f26	-1.7913742e-06
209	0x36e83b77	6.9210614e-06
210	0x36779dcd	3.689772e-06
211	0x35d29464	1.5689407e-06
212	0x370bcd64	8.332867e-06
213	0xb5a0666a	-1.1950735e-06
214	0x36e6a364	6.8735553e-06
215	0xb728de53	-1.0065344e-05
216	0x37a5cf1a	1.9765972e-05
217	0xb64f14e3	-3.0857561e-06
218	0x3768f934	1.38863e-05
219	0x3b132525	0.002245256
220	0xb5d7dfb2	-1.6083852e-06
221	0xb83a4962	-4.44142e-05
222	0x39b8007c	0.00035095576
223	0x38f2a530	0.00011570228
224	0xb81ef337	-3.7896647e-05
225	0xb780678f	-1.5307012e-05
226	0x379321d8	1.7539525e-05
227	0x36a5899a	4.933402e-06
228	0x3922dcd2	0.00015531786
229	0xb65280ee	-3.1367485e-06
230	0x3687045b	4.0238206e-06
231	0x3bd9b9ee	0.006644479
232	0x3c972f9c	0.01845532
233	0xb75c0f04	-1.3116518e-05
234	0x3b909441	0.0044122045
235	0x39d88e90	0.00041304948
236	0xbba4405f	-0.0050125564
237	0x3a394e01	0.00070688134
238	0x394d1209	0.00019557042
239	0x37eb277e	2.8032573e-05
240	0x3b6d107b	0.0036173153
241	0x370f2bc7	8.533657e-06
242	0x3647765b	2.9722203e-06
243	0x3791778b	1.7341014e-05
244	0x36ad445b	5.1637594e-06
245	0xb7616ad5	-1.3435919e-05
246	0xb7471e3f	-1.18683665e-05
247	0x3c4064e1	0.011742801
248	0xbc811a56	-0.015759628
249	0x37060754	7.988729e-06
250	0xb77a61be	-1.4923919e-05
251	0x3da06afe	0.07832907
252	0xb8806c99	-6.1237435e-05
253	0xb7885798	-1.6253252e-05
254	0x373e83fb	1.1355612e-05
255	0xb748407b	-1.1935942e-05

fc1.2.bias f4 [64]
0	0x3e2d941d	0.16951032
1	0xbd02c193	-0.031922888
2	0xbd73e07e	-0.059540264
3	0x3e0e18d3	0.13876657
4	0xbc5c4949	-0.013445207
5	0xbd38093b	-0.044930678
6	0xbda714de	-0.08158277
7	0x3e1b5ff2	0.15173319
8	0x3e047670	0.12935805
9	0x3ce874a3	0.02837593
10	0x3dfb3d6a	0.12267573
11	0x3c4dbb5d	0.012556878
12	0x3d92a6c6	0.07160716
13	0x3e5ad8a7	0.21371709
14	0xbc45a65c	-0.012063589
15	0xbde20280	-0.11035633
16	0xbdb636dc	-0.08897182
17	0xbe4ef700	-0.2021141
18	0x3e4c4846	0.19949445
19	0x3e0b99dd	0.13632913
20	0x3a264419	0.0006342545
21	0xba822df5	-0.0009931909
22	0x3d167885	0.03673603
23	0x3b153cbb	0.0022771794
24	0xbba8ef4a	-0.0051554786
25	0xbd078c9b	-0.033093076
26	0x3e447e43	0.1918879
27	0x3d2a9c4f	0.041652974
28	0x3c24df9c	0.010063078
29	0x3d86b9e8	0.065784276
30	0xbd761b81	-0.060084824
31	0x3caa3364	0.020776458
32	0x3e08970c	0.1333887
33	0x3d28b2a9	0.04118601
34	0x3d15abfd	0.036540974
35	0x3e361f38	0.17785347
36	0x3d488740	0.04895711
37	0xbc91813d	-0.01776182
38	0x3d092cc0	0.033489943
39	0xb8ef1798	-0.00011400803
40	0x3d8dac1e	0.069175944
41	0xbc22915f	-0.0099223545
42	0xbc8d4c82	-0.017248396
43	0x3e0955a8	0.13411582
44	0xbd7a23e9	-0.061069403
45	0x3dec319b	0.11532899
46	0xbcb34c02	-0.02188683
47	0x3e08c384	0.13355833
48	0x3e4fd548	0.20296204
49	0x3e5fe06b	0.21862952
50	0xbc95327c	-0.01821255
51	0x3c0f5cc8	0.008750148
52	0x3e230c38	0.1592263
53	0xbce694c9	-0.028147118
54	0x3e0adea9	0.135615
55	0x3b173399	0.0023071526
56	0x3e55945a	0.20857373
57	0x3c413f4a	0.011794874
58	0xbd046432	-0.032322116
59	0x3df8638f	0.12128364
60	0x3d4ae771	0.049537126
61	0x3e23f191	0.16010119
62	0x3e19f32d	0.1503417
63	0x3dba656f	0.09101378

fc1.3.weight f4 [64, 500]
0	0xbfc1ce03	-1.5140995
1	0x3dd008e7	0.10157948
2	0xbdbcbd3e	-0.092157826
3	0x3d6ef1b6	0.058335982
4	0xbdfd71f6	-0.12375252
5	0x3d52885e	0.05139958
6	0xbddec496	-0.108773395
7	0xbd48903a	-0.04896567
8	0xbea54bbf	-0.32284352
9	0xbcb3881a	-0.021915484
10	0x3e0f238c	0.13978404
11	0xbde8f1a8	-0.11374217
12	0x3e160213	0.14649229
13	0xbe34a5b8	-0.17641342
14	0xbc29428e	-0.010330809
15	0xbf00bfca	-0.50292647
16	0x3eb18388	0.34670663
17	0xbe8419cf	-0.2580094
18	0x3d72d967	0.059289362
19	0xbdaf8b94	-0.08571544
20	0xbc2a16f3	-0.010381448
21	0xbd842081	-0.06451512
22	0xbc03949d	-0.008031038
23	0xbd9b2814	-0.07576004
24	0xbdb7cb43	-0.08974316
25	0xbe0de4e3	-0.13856845
26	0xbefdda02	-0.4958039
27	0xbdee982a	-0.11650117
28	0x3e2aa16d	0.16663142
29	0x3dfd4fb1	0.123687156
30	0x3db05c7a	0.086113885
31	0x3f02d5b6	0.51107347
32	0xbdc7f40d	-0.09763346
33	0xbd900ef8	-0.07034105
34	0xbdefe3b4	-0.11713353
35	0x3da458b5	0.08024732
36	0x3e305ee4	0.17223698
37	0x3d446c00	0.04795456
38	0xbe078dc9	-0.1323768
39	0xbeaa61bd	-0.33277693
40	0x3ef90f97	0.48644707
41	0x3db02cdd	0.08602307
42	0xbd1bd4c0	-0.03804469
43	0x3d518e76	0.051161252
44	0x3d8cd37b	0.06876274
45	0x3d8daa8b	0.06917294
46	0x3dbb0c9c	0.091332644
47	0xbe360bd1	-0.17777945
48	0xbda2c559	-0.07947797
49	0x3ec772af	0.38954684
50	0x3e9569bb	0.29182228
51	0x3e5e63d9	0.21717776
52	0xbe99f3df	-0.3006887
53	0x3dc85046	0.09780936
54	0xbdab3dcd	-0.08361397
55	0xbea4accb	-0.3216308
56	0x3e491526	0.19636974
57	0x3d0e097f	0.034677025
58	0xbd98d612	-0.07462706
59	0x3de11b31	0.109915145
60	0x3ca97987	0.020687832
61	0xbc4cb6cb	-0.012494753
62	0xbe0bceae	-0.13653061
63	0x3e049548	0.12947571
64	0xbe36b3e9	-0.17842068
65	0x3df96e1c	0.12179205
66	0x3b7cfe34	0.0038603665
67	0xbd705410	-0.05867392
68	0xbcedf714	-0.02904848
69	0xbdf01114	-0.117220074
70	0x3f01943a	0.506168
71	0x3cb57eeb	0.022155246
72	0xbdc676f0	-0.09690654
73	0x3d9885e7	0.07447415
74	0xbe297cc6	-0.16551504
75	0xbe988f02	-0.29796606
76	0xbe972142	-0.2951756
77	0xbdf6c28e	-0.12048827
78	0x3d5f8919	0.054574106
79	0x3e83378f	0.25628325
80	0xbd4ffe6c	-0.050779745
81	0xbe07f5e4	-0.13277394
82	0xbe6849e0	-0.22684431
83	0xbed474b1	-0.41495278
84	0x3d12f9b8	0.03588268
85	0x3dd88989	0.10573108
86	0xbcea7f3f	-0.028625129
87	0x3e4b3db1	0.19847752
88	0x3e8662e7	0.26247332
89	0x3f4c53f9	0.7981563
90	0x3db39f1b	0.08770581
91	0xbe888f9b	-0.26672062
92	0xbe4e2748	-0.20132172
93	0xbd13f452	-0.036121674
94	0xbe5d4a55	-0.21610387
95	0x3df4e2f1	0.11957348
96	0xbce63e0d	-0.02810576
97	0xbe9ad6f7	-0.3024213
98	0x3d210b93	0.03931768
99	0x3eaca78f	0.33721587
100	0xbebb9035	-0.3663346
101	0x3d1d30e2	0.038376696
102	0x3dcbc729	0.09950096
103	0xbdafea47	-0.08589607
104	0xbd71d3cf	-0.059039887
105	0x3d8630d3	0.06552281
106	0x3d9075f5	0.070537485
107	0x3dd66219	0.104679294
108	0x3daa610f	0.08319294
109	0x3a33f094	0.0006864157
110	0xbea6bd23	-0.32566175
111	0xbdd4e20e	-0.10394679
112	0xbe8134f3	-0.2523571
113	0x3e12f225	0.14350183
114	0xbe473d5c	-0.19457
115	0xbe91b02d	-0.28454724
116	0xbdddaf60	-0.10824466
117	0x3e0d1445	0.13777263
118	0x3dc9f8f1	0.09861935
119	0xbe52f4ea	-0.2060124
120	0x3ca2cda2	0.019873444
121	0x3e1b66da	0.15175954
122	0x3d3f6db8	0.046735495
123	0xbda98832	-0.0827793
124	0x3e091abd	0.13389106
125	0x3e8a1960	0.26972485
126	0x3e1c367f	0.15255164
127	0xbe28bd59	-0.1647848
128	0xbe4004d8	-0.18751848
129	0x3e23ead4	0.16007549
130	0x3e711339	0.23542489
131	0xbca48125	-0.020081112
132	0xbc7d9931	-0.015478418
133	0x3ce16976	0.027516108
134	0x3d5ae760	0.053443313
135	0xbd84029e	-0.06445812
136	0xbca6d545	-0.020365367
137	0xbe31208b	-0.1729757
138	0x3f047582	0.517418
139	0x3e7d3ef1	0.24731041
140	0xbe4ea3e0	-0.20179701
141	0xbec1d0c5	-0.3785459
142	0xbea9f2fb	-0.33193192
143	0x3ea6a268	0.3254578
144	0x3db4dfe6	0.08831768
145	0xbd116877	-0.035500016
146	0x3e1389d6	0.14408049
147	0x3e12a1af	0.1431949
148	0x3e93c54f	0.28861472
149	0x3ed7340b	0.42031893
150	0xbdaf7506	-0.08567242
151	0xbe256697	-0.16152416
152	0xbc83073b	-0.015994659
153	0x3aea1159	0.0017857953
154	0x3d68b944	0.056817308
155	0x3dbd1f0a	0.09234436
156	0xbe57b83a	-0.2106637
157	0x3e389cbb	0.18028538
158	0x3dcfeecb	0.10152968
159	0x3ce7c792	0.028293405
160	0x3e571d57	0.21007286
161	0xbe054827	-0.13015805
162	0x3d96e4b4	0.073678404
163	0xbe20dcb5	-0.15709193
164	0xbe888bfb	-0.26669297
165	0xbe59fc16	-0.2128757
166	0xbea18663	-0.3154784
167	0x3a051799	0.00050770637
168	0x3d166f9c	0.036727533
169	0x3c114bb0	0.008868143
170	0xb88d5bce	-6.740504e-05
171	0xbea7e577	-0.32792255
172	0x3cba650a	0.022753257
173	0x3e5ba711	0.2145045
174	0xbe4cf82d	-0.20016547
175	0xbda471a2	-0.08029486
176	0x3db35ffe	0.087585434
177	0x3c97f8fa	0.018551338
178	0x3dd0ce93	0.10195651
179	0x3e49539b	0.19660799
180	0xbd92a901	-0.07161141
181	0x3d3d40ab	0.04620425
182	0xbe0fdad9	-0.14048328
183	0xbc7ff9c6	-0.0156235155
184	0xbe63d310	-0.22248483
185	0xbe4bc189	-0.19898047
186	0x3bb5dd04	0.0055500288
187	0xbe376ddd	-0.17913003
188	0x3d7b6085	0.061371345
189	0xbdc225a4	-0.09479836
190	0x3e0123fb	0.12611382
191	0xbcb14af2	-0.021642182
192	0x3d4b4a42	0.049631365
193	0x3ca86721	0.020556988
194	0xbd9e8635	-0.07740442
195	0x3c67ef4a	0.014156172
196	0xbf08048e	-0.5313195
197	0xbc121d88	-0.008918174
198	0xbd78490f	-0.06061655
199	0x3e1a8ee5	0.15093572
200	0xbea3d064	-0.31994927
201	0xbd4f384d	-0.050590802
202	0xbcc17057	-0.023613138
203	0xbcc7bb91	-0.02438143
204	0x3d89e099	0.06732292
205	0x3e003f66	0.12524185
206	0x3c5c0fb1	0.0134314755
207	0xbe4fc5d4	-0.20290309
208	0xbe5b6975	-0.21426947
209	0xbe648077	-0.2231463
210	0xbea741bd	-0.32667342
211	0x3d3c4650	0.045965493
212	0x3e05e7c0	0.13076687
213	0xbe1b0570	-0.15138793
214	0x3c880f51	0.016608866
215	0xbb96e6ae	-0.004605136
216	0xbe319938	-0.17343605
217	0xbe6b724a	-0.22992817
218	0x3d3338ae	0.043755226
219	0x3e590cdf	0.21196316
220	0x3db4f842	0.08836414
221	0x3de4af73	0.11166277
222	0xbbc8baa4	-0.006125765
223	0x3e605a26	0.21909389
224	0x3dd72906	0.105058715
225	0x3d6142ed	0.054995466
226	0x3e3562a7	0.17713414
227	0xbcd83de7	-0.026396705
228	0xbd9b99a0	-0.07597661
229	0xbe2c9496	-0.16853556
230	0x3d6e3294	0.058153704
231	0x3f07043d	0.5274084
232	0x3e1c2fb4	0.15252572
233	0xbe5cba39	-0.21555413
234	0xbeac47cb	-0.33648524
235	0x3db2df30	0.08733976
236	0x3e43e87b	0.19131653
237	0x3dbe2d33	0.09285965
238	0x3e25c9ce	0.16190264
239	0x3eb4c883	0.35309228
240	0x3e3e8a36	0.18607411
241	0x3e1cef26	0.15325603
242	0xbe5164ec	-0.20448655
243	0xbd93030b	-0.07178315
244	0x3eb571fc	0.35438526
245	0x3e073789	0.13204779
246	0x3e5cd4f9	0.21565618
247	0xbe505936	-0.20346531
248	0x3d9cf91b	0.076647006
249	0x3dc31e04	0.095272094
250	0xbe560177	-0.20898996
251	0x3eeca69c	0.46220863
252	0xbd37ad3c	-0.044842944
253	0x3da57afa	0.080800965
254	0x3df1da90	0.118092656
255	0xbdebdee0	-0.115171194

fc1.3.bias f4 [64]
0	0x3dd50242	0.10400821
1	0x3d339e4a	0.043852128
2	0x3cec8c65	0.02887554
3	0x3d12541f	0.035724755
4	0x3cd11245	0.025521407
5	0x3cb320c0	0.021866202
6	0x3d036af6	0.032084428
7	0x3ce48195	0.02789382
8	0x3d33c6d5	0.043890793
9	0x3cf25df3	0.029585814
10	0x3cc17cf9	0.023619162
11	0x3cb3fa08	0.02196981
12	0x3cad9433	0.021188831
13	0x3dc25da0	0.09490514
14	0xbc7ff2f3	-0.015621888
15	0x3dc010cb	0.09378203
16	0x3aebd873	0.0017993584
17	0x3dd9da29	0.10637314
18	0x3dda501d	0.10659812
19	0x3ce2600d	0.027633691
20	0x3d2efdf6	0.042722665
21	0x3b255f9f	0.0025233997
22	0x3d2350ae	0.039871864
23	0x399f9e4f	0.00030444792
24	0x3d722a43	0.059122335
25	0x3c62507f	0.013813137
26	0x3dd6232a	0.10455926
27	0x3dcf54ef	0.10123622
28	0x3cc1ea42	0.023671273
29	0x3c10d9dd	0.008841005
30	0x3c27eb57	0.0102489805
31	0x3cff8a03	0.031193739
32	0x3d20ae78	0.039228886
33	0x3c2d0a8c	0.010561597
34	0x3cad4b47	0.02115406
35	0x3dc8f5ac	0.09812483
36	0x3cc22e3d	0.023703689
37	0x3cd46379	0.025926339
38	0x3c8d286e	0.017231192
39	0x3d0ba08c	0.034088656
40	0x3cba9767	0.022777272
41	0x3d91cbfd	0.07118986
42	0x3d18b56d	0.037282396
43	0x3d018d22	0.031628735
44	0x3d400133	0.046876144
45	0x3d37f518	0.044911474
46	0x3db7e628	0.08979446
47	0x3d355c93	0.04427774
48	0x3dc89074	0.09793177
49	0x3dc21b95	0.09477917
50	0x3d180deb	0.03712265
51	0x3c8599e2	0.016308729
52	0x3dc847af	0.097792976
53	0x3cb55b8a	0.022138376
54	0x3cd109d4	0.025517382
55	0x3d3c225f	0.045931216
56	0x3dc90fe6	0.098174855
57	0x3d7482c1	0.05969501
58	0x3d01544b	0.03157453
59	0x3ddbc190	0.107302785
60	0x3da71141	0.08157588
61	0x3d31ada0	0.043378472
62	0x3c80a42a	0.01570328
63	0x3c8a83bc	0.016908519

fc1.4.weight f4 [64, 500]
0	0xbf651e5c	-0.8949945
1	0x3d9fc9ce	0.07802163
2	0x3ed6195f	0.41816232
3	0xbd89177c	-0.066939324
4	0x3c6911b2	0.01422541
5	0xbe40a63d	-0.18813415
6	0xbe958ac8	-0.29207444
7	0xbd4ee04a	-0.050506867
8	0xbf02f343	-0.5115244
9	0xbdda594b	-0.106615625
10	0xbeea6cce	-0.45786136
11	0x3f2e9210	0.68191624
12	0xbd0a100d	-0.033706713
13	0x3ca151a1	0.019692244
14	0xbd42b997	-0.047540274
15	0xbec72ec1	-0.38902858
16	0x3eb4c14a	0.35303718
17	0xbdb9dd49	-0.0907541
18	0xbdcf7a0f	-0.10130703
19	0x3d93c51b	0.07215329
20	0xbd61a983	-0.0550933
21	0xbe01306f	-0.12616132
22	0xbe86ea7a	-0.26350766
23	0xbea9d372	-0.33169132
24	0xbdde9ff0	-0.108703494
25	0x3ea0485d	0.3130521
26	0x3f0fcade	0.56168926
27	0x3c44dcbe	0.01201552
28	0x3e206184	0.156622
29	0x3e2456f4	0.16048795
30	0x3ebf6095	0.37378374
31	0xbe94f432	-0.29092556
32	0xbe0421bc	-0.12903494
33	0xbe0e4260	-0.13892508
34	0x3d3ec8f0	0.046578348
35	0x3cb90e61	0.022589864
36	0xbd3855ef	-0.045003828
37	0x3ce2e1f6	0.027695637
38	0xbe9ddd26	-0.30832785
39	0xbe0ba5ca	-0.13637462
40	0x3f048542	0.51765835
41	0x3e6321ae	0.22180817
42	0x3e4dffc7	0.20117103
43	0xbe23c08f	-0.15991424
44	0xbd5d2f35	-0.0540001
45	0xbd8d69c1	-0.069049366
46	0x3e3ca0f2	0.18420771
47	0x3d411bda	0.047145702
48	0x3d7eda77	0.062220063
49	0x3e441f38	0.19152534
50	0x3d21131c	0.039324865
51	0x3e3e547f	0.1858692
52	0x3e99630d	0.29958382
53	0x3dafc2ae	0.08582054
54	0x3dc547ce	0.09632836
55	0xbe52765b	-0.20552962
56	0x3da5b8c2	0.080918804
57	0x3e599869	0.21249546
58	0xbf004a9b	-0.5011384
59	0x3d6429a0	0.05570376
60	0x3d9de918	0.07710475
61	0xbdf59c81	-0.119927414
62	0xbdb46483	-0.088082336
63	0xbd185ecb	-0.037199777
64	0xbc37663d	-0.011193809
65	0xbe028d0b	-0.12749116
66	0xbe46b19f	-0.19403695
67	0x3edeec7e	0.43539804
68	0xbc0ad7fa	-0.008474344
69	0x3da904fa	0.08252902
70	0x3f795ebd	0.97410184
71	0x3e6eb0b9	0.23309602
72	0xbd42ded1	-0.047575776
73	0xbe1e90f2	-0.1548498
74	0x3d051d98	0.032498926
75	0xbf23a64e	-0.63925636
76	0x3ddf98cc	0.109178156
77	0xbde71eb4	-0.11285153
78	0x3d4ec9bf	0.05048537
79	0x3e00815f	0.12549351
80	0xbde0fdac	-0.10985884
81	0xbe803fdc	-0.2504872
82	0xbe298382	-0.16554072
83	0xbec7094c	-0.3887428
84	0x3e223f0b	0.15844361
85	0x3eabb135	0.33533636
86	0x3eab661e	0.33476347
87	0x3efb98c6	0.49139994
88	0x3dde03f1	0.108405955
89	0x3f5b2e78	0.8561778
90	0x3e2f7b62	0.1713691
91	0xbd07853e	-0.033086054
92	0xbf1face4	-0.62373185
93	0xbe5e6d8d	-0.21721478
94	0xbcba9dfd	-0.022780413
95	0x3e002b3c	0.12516493
96	0x3eaa14e0	0.3321905
97	0xbd32b7e5	-0.043632407
98	0xbe1cb33a	-0.15302745
99	0xbe27ccf5	-0.16386779
100	0x3e6a0620	0.22853899
101	0x3e9c8b71	0.30575135
102	0x3dc01e37	0.09380763
103	0xba90fda8	-0.0011061924
104	0xbbcdd0eb	-0.0062810085
105	0x3e3e98b9	0.18612947
106	0xbe2cca4a	-0.16874042
107	0x3e91a664	0.28447258
108	0x3bd57bd7	0.006515007
109	0xbd626a66	-0.05527725
110	0xbeacd2b2	-0.33754498
111	0x3e98a58e	0.29813808
112	0xbc88d818	-0.016704604
113	0x3e4743f2	0.19459513
114	0x3d5d42ff	0.05401897
115	0x3dc70912	0.09718527
116	0x3e0e6168	0.13904345
117	0xbd1c7e88	-0.038206607
118	0x3baad785	0.00521368
119	0xbf0dcfda	-0.5539528
120	0x3e1874b1	0.14888264
121	0x3f0ce0a7	0.5503029
122	0xbdaec6db	-0.085340224
123	0xbe26106c	-0.16217202
124	0x3e5728c1	0.2101164
125	0xbc256a4e	-0.010096146
126	0xbd539545	-0.051656026
127	0x3ed422f3	0.41432914
128	0x3e2d1da1	0.16905834
129	0x3d659d85	0.056058425
130	0x3e86db38	0.26339126
131	0x3dda0890	0.106461644
132	0xbb46710f	-0.003027979
133	0xbcc13b11	-0.023587735
134	0x3e39656c	0.18105096
135	0xbcd0afb8	-0.025474414
136	0x3e8e1cbf	0.27756307
137	0xbe258809	-0.16165175
138	0xbee3ed00	-0.44516754
139	0xbd850491	-0.064950116
140	0xbd5462ad	-0.051851917
141	0x3e76999c	0.24082035
142	0xbe016d86	-0.12639436
143	0xbe637e11	-0.2221606
144	0xbe16e2c3	-0.1473494
145	0xbd46c58f	-0.04852825
146	0xbce2fe6a	-0.027709205
147	0xbdd238a7	-0.10264712
148	0x3f0d2f97	0.5515074
149	0xbddc8c0c	-0.10768899
150	0xbc9de5ba	-0.019274581
151	0xbd32de72	-0.04366917
152	0x3c54ad36	0.01298075
153	0x3d1a55f2	0.03767962
154	0x3d4ef3eb	0.050525587
155	0x3efe5ca4	0.49680054
156	0xbeee087f	-0.46490857
157	0xbefaac51	-0.48959592
158	0x3dd37067	0.103241734
159	0xbc9ee2ef	-0.01939532
160	0xbe4eef1b	-0.20208399
161	0xbee832f7	-0.45351383
162	0x3e03bad9	0.12864245
163	0xbe6114ca	-0.21980587
164	0xbd89e1fa	-0.06732555
165	0x3e6137f4	0.21994
166	0xbc6f961d	-0.014623192
167	0x3e8461ca	0.25855857
168	0x3e5d2b9c	0.21598667
169	0xbebdaeac	-0.37047327
170	0x3e3425cf	0.17592548
171	0x3e26c622	0.16286519
172	0xbda1e346	-0.07904677
173	0x3e1c2f4e	0.1525242
174	0x3cc5473d	0.02408182
175	0x3e87af31	0.26500848
176	0x3ee03716	0.43792027
177	0x3e1d5798	0.15365446
178	0xbe9eac28	-0.3099072
179	0xbdae51d8	-0.08511704
180	0x3e4719da	0.19443455
181	0x3db0b5f5	0.086284555
182	0xbe2789ec	-0.16361207
183	0xbd91adcf	-0.071132295
184	0xbf86f05f	-1.0542105
185	0xbe2be1fc	-0.16785425
186	0x3db44d22	0.088037744
187	0x3e998170	0.29981565
188	0x3e9dbbe4	0.30807412
189	0xbe5bf6c4	-0.21480852
190	0x3eabbf1d	0.33544245
191	0x3d5e8bb2	0.054332443
192	0xbe659778	-0.22421062
193	0xbdebcf33	-0.115141295
194	0x3ed95a45	0.42451683
195	0x3e988b5f	0.29793832
196	0xbdb2ead8	-0.08736199
197	0x3eaa26e8	0.33232808
198	0xbe73e5fc	-0.23818201
199	0xbdad2da0	-0.08455968
200	0xbe874c04	-0.26425183
201	0xbad2aeaf	-0.0016073788
202	0xbda3d70c	-0.08000001
203	0x3f089840	0.53357315
204	0xbe23851c	-0.15968746
205	0x3ecacb01	0.39608005
206	0x3e2367c1	0.15957548
207	0xbe95a6c7	-0.29228804
208	0xbe7e1cc4	-0.2481566
209	0x3ad7ea77	0.0016473074
210	0x3d46c359	0.04852614
211	0x3eb4a41a	0.3528145
212	0xbdc32266	-0.09528045
213	0x3e2f91b4	0.17145425
214	0xbd9a98a3	-0.075486444
215	0x3e9c00de	0.30469412
216	0xbe677894	-0.2260459
217	0xbcda76fe	-0.026668068
218	0x3e7baefa	0.24578467
219	0x3eb89785	0.360531
220	0xbec88ab2	-0.39168316
221	0xbdefd195	-0.117098965
222	0x3e05ffbf	0.1308584
223	0x3da4354e	0.080179796
224	0xbe3a8775	-0.18215735
225	0x3dcf987a	0.101365045
226	0x3d89df1e	0.06732009
227	0xbec18e3d	-0.37803832
228	0x3dd4e5cf	0.10395395
229	0xbd103bc3	-0.035213243
230	0x3e8f281f	0.27960297
231	0x3d9fde6f	0.07806098
232	0x3e3787fb	0.17922966
233	0xbd4b0afb	-0.04957102
234	0xbd4b2553	-0.049596142
235	0x3df1a83c	0.11799666
236	0xbd4ae6dc	-0.04953657
237	0x3e0adc95	0.13560708
238	0x3e773b89	0.24143805
239	0x3f11bfe7	0.56933445
240	0x3deede21	0.116634615
241	0x3ebf4f80	0.3736534
242	0xbe1e0021	-0.15429737
243	0x3ee34eac	0.4439596
244	0x3ece7083	0.40320215
245	0x3eab9965	0.33515468
246	0xbb2addc8	-0.0026072133
247	0x3df26ef4	0.11837569
248	0xbeeb6c61	-0.45981124
249	0x3c4049e2	0.011736365
250	0x3dc6ee1c	0.097133845
251	0x3f8871cd	1.0659729
252	0x3e2aff8a	0.16699043
253	0x3e504308	0.2033807
254	0xbc8e34fc	-0.01735925
255	0x3e6ebcc0	0.2331419

fc1.4.bias f4 [64]
0	0xbb9b7a7d	-0.0047448264
1	0x3c11b9c3	0.008894387
2	0xbc44542b	-0.011982958
3	0xbc15f437	-0.009152464
4	0x3b5bfb08	0.0033566374
5	0xbc5c8c2b	-0.013461153
6	0x3b223d25	0.0024755683
7	0x3bd3fa52	0.0064690495
8	0x3bad3032	0.0052852863
9	0x3c357616	0.011075517
10	0x3c87169a	0.01649027
11	0xbc4fba31	-0.012678669
12	0x3b9a1982	0.004702748
13	0xbbcb15cd	-0.006197667
14	0x39add816	0.00033158128
15	0xbacaad07	-0.0015462943
16	0xbb0baa73	-0.0021311312
17	0x3baa8a31	0.005204462
18	0x3c229680	0.009923577
19	0x3c26f443	0.0101900725
20	0xbbe0a772	-0.0068558985
21	0xb95c3dbe	-0.00021003836
22	0x3c934a36	0.017979722
23	0x391be630	0.00014867703
24	0xbc4b6a6f	-0.012415512
25	0xba3bac22	-0.00071591337
26	0xbbb833e5	-0.0056214207
27	0x3c3f3c90	0.011672154
28	0x3afc6c0e	0.0019258277
29	0xbc2f881e	-0.010713605
30	0x3a8f86a5	0.0010950161
31	0x3c09c986	0.008409863
32	0xbb92a59a	-0.0044753077
33	0xbb43e1b9	-0.002988918
34	0xbcbd9035	-0.023140052
35	0xbc08dc78	-0.008353345
36	0xbb86086a	-0.0040903585
37	0xbc3cbb64	-0.011519287
38	0xbc88b12d	-0.016686046
39	0xbbaf190f	-0.0053435634
40	0x3c063073	0.008190262
41	0x3acc671a	0.0015594692
42	0x3b08ad4f	0.0020855253
43	0xbb9e1e33	-0.0048253774
44	0xbc1a364c	-0.009412359
45	0x3b632f8e	0.0034665796
46	0x3cc957d0	0.024578005
47	0xbab8f1a3	-0.0014110099
48	0xbb23b44d	-0.0024979294
49	0xbba0972d	-0.004900834
50	0xbba8ecad	-0.005155167
51	0xba9ee2f6	-0.0012122083
52	0xbc79002e	-0.015197797
53	0x39e6adee	0.00043998606
54	0xbb0a049a	-0.0021059872
55	0x3caf758a	0.021418352
56	0xbc296903	-0.010339978
57	0x3b877b4b	0.0041345707
58	0x3b16e467	0.0023024322
59	0x3b3f836d	0.0029222623
60	0x39c7dcfd	0.00038120887
61	0xbaed04fc	-0.001808315
62	0x3c844f4c	0.016151093
63	0x3ba643fc	0.0050740223
