saved_pretrained/pubmed_9.pt (torch, 904063 bytes, 16 tensors)

fc1.0.weight f4 [64, 500]
0	0xbe8e2612	-0.2776342
1	0x3e9589d9	0.29206732
2	0x3e469140	0.19391346
3	0xbdf129fb	-0.11775585
4	0x3eb21796	0.3478362
5	0x3ef63957	0.48090622
6	0x3d5f47e5	0.054511923
7	0xbc8bc0a0	-0.017059624
8	0xbf096cec	-0.53681827
9	0xbe6cc890	-0.23123384
10	0x3e1bfdba	0.15233508
11	0xbedf518c	-0.43616903
12	0x3eb0d17b	0.3453482
13	0xbeb07609	-0.34465054
14	0xbd7e9f53	-0.062163662
15	0xbec24fba	-0.37951452
16	0x404a86d8	3.1644802
17	0x3e938738	0.288141
18	0x3dc45cf9	0.095880456
19	0xbb76bfc8	-0.0037650932
20	0x3ddbf989	0.107409544
21	0x3e10faf6	0.14158234
22	0xbda9f5ba	-0.08298822
23	0xbedfbfff	-0.4370117
24	0x3d9c7c98	0.07640952
25	0xbdaac470	-0.08338249
26	0x3e6b921f	0.2300496
27	0xbed64ac4	-0.41853917
28	0x3e20005e	0.1562514
29	0x3d801d02	0.06255533
30	0xba8829da	-0.0010388449
31	0x3e2fe4ce	0.17177126
32	0xbc18362c	-0.009290259
33	0x3c197503	0.009366277
34	0x3dbcbde1	0.09215904
35	0xbdb40543	-0.08790066
36	0x3e79866a	0.24367681
37	0xbe6bc0ff	-0.23022841
38	0x3d720da1	0.05909503
39	0xbead56e4	-0.33855355
40	0xbefb6817	-0.49102852
41	0xbe8eb540	-0.27872658
42	0xbe299023	-0.1655889
43	0xbe2ab7fb	-0.16671745
44	0x3f10976a	0.5648104
45	0x3e8e38ef	0.27777812
46	0xbe6b1e16	-0.22960696
47	0x3e487b37	0.19578253
48	0xbf84e972	-1.0383742
49	0x3e9bbc99	0.30417326
50	0x3d994d9e	0.074855074
51	0xbe8e01e1	-0.27735808
52	0xbd7fd999	-0.062463377
53	0xbe4a9e55	-0.19786961
54	0xbde5cd09	-0.11220748
55	0xbe130d48	-0.14360535
56	0x3e83f92b	0.25776038
57	0xbd9d921e	-0.07693885
58	0xbebbc427	-0.3667309
59	0x3eb70ce3	0.3575202
60	0xbdfb09d1	-0.12257732
61	0xbdaf1836	-0.0854954
62	0x3db04fca	0.086089686
63	0xbccf3f14	-0.025298633
64	0x3da1014c	0.078615755
65	0xbe50e79a	-0.20400849
66	0x3e05bdfe	0.13060758
67	0xbe4718b5	-0.19443019
68	0x3ed3b8db	0.4135197
69	0x3e7971e0	0.24359846
70	0xbf884069	-1.0644656
71	0xbb0d5499	-0.0021565317
72	0xbec5f5fe	-0.3866424
73	0xbd25342a	-0.04033295
74	0xbec1eda9	-0.37876633
75	0xbe85bcc2	-0.26120573
76	0xbe6987f9	-0.22805776
77	0xbee16fb9	-0.4403055
78	0x3ea3965c	0.31950653
79	0x3d5ec4b3	0.054386806
80	0xbd916b00	-0.07100487
81	0x3eb55b9d	0.35421458
82	0x3d466c55	0.048443157
83	0xbcf24c50	-0.029577404
84	0xbe322de3	-0.17400317
85	0x3de9b28c	0.11411008
86	0x3d4a52a8	0.049395233
87	0x3f6839e1	0.90713316
88	0xbd92cd9b	-0.071681224
89	0x3ec92c77	0.39291736
90	0xbe49471c	-0.19656032
91	0x3dbae1fc	0.09125134
92	0xbe551235	-0.20807727
93	0x3b5bc3e4	0.0033533508
94	0xbe653816	-0.22384676
95	0xbcdc8c30	-0.026922315
96	0x3ec58d87	0.3858454
97	0x3da47e83	0.08031943
98	0xbe93cd1b	-0.2886742
99	0x3dd6dafc	0.10490987
100	0x3e6f7764	0.23385388
101	0x3dcfbbfd	0.10143278
102	0x3ee96e19	0.4559181
103	0xbe326e09	-0.17424788
104	0xbf0bc386	-0.5459522
105	0x3f0babd5	0.5455907
106	0xbe53865b	-0.20656721
107	0xbdfa1e2c	-0.12212786
108	0xbeb12fea	-0.34606868
109	0x3df3259e	0.11872409
110	0x3e8d92b0	0.27650976
111	0x3eb7c690	0.3589368
112	0xbe2ed822	-0.17074636
113	0x3dceffae	0.10107361
114	0x3ea012a5	0.31264225
115	0x3d3b2112	0.045685835
116	0x3e154a73	0.14579181
117	0x3db78e5a	0.08962698
118	0x3ce35b04	0.02775336
119	0xbd707ad0	-0.058710873
120	0xbda9ba7b	-0.082875215
121	0xbe33b309	-0.17548765
122	0xbe7f1418	-0.24910009
123	0x3d978784	0.073988944
124	0xbe90330c	-0.28163946
125	0xbdcaa052	-0.0989386
126	0x3ea16d89	0.3152888
127	0xb6afaa22	-5.2352125e-06
128	0x3ef1963c	0.47184932
129	0xbd79537c	-0.060870633
130	0x3ee9dc85	0.45676056
131	0x3e9f7576	0.31144303
132	0x3eafcea5	0.34337345
133	0x3e07b63c	0.1325311
134	0xbd7b34da	-0.0613297
135	0xbdd83571	-0.10557068
136	0x3e816815	0.2527472
137	0x3f115a08	0.56778
138	0xbe743993	-0.23850088
139	0xbfe9fbef	-1.8280009
140	0xbe40b281	-0.18818094
141	0xbd92ab5c	-0.071615905
142	0x3e2d09fe	0.16898343
143	0x3dd86763	0.105665945
144	0xbc0bee07	-0.008540637
145	0x3dcf3a9f	0.10118603
146	0x3f00588e	0.50135124
147	0x3ea773f8	0.32705665
148	0x3d9e73e6	0.077369496
149	0xbd9ab78f	-0.07554542
150	0xbdaa5d89	-0.08318622
151	0xbe23ee1c	-0.160088
152	0x3ecfc5de	0.40580648
153	0xbcfd65fc	-0.030932419
154	0xbed4c413	-0.41555843
155	0xbbfd72c3	-0.007734628
156	0xbe4a2006	-0.19738778
157	0x3c2d569d	0.010579732
158	0x3dc63b96	0.09679334
159	0xbf275adb	-0.6537301
160	0x3e7db27f	0.24775122
161	0x3e2bcc81	0.16777231
162	0xbf038bdc	-0.51385283
163	0xbe5f2c1f	-0.21794175
164	0xbe17f2a6	-0.14838657
165	0xbe424afe	-0.1897392
166	0xbdab9804	-0.08378604
167	0x3eb3bbd4	0.3510424
168	0x3d2aa0ef	0.041657384
169	0xbe86be3d	-0.26317015
170	0xbeff21cd	-0.49830475
171	0xbcbee9c7	-0.023304833
172	0x3f2c430a	0.67289793
173	0xbd4158e3	-0.04720391
174	0x3d81f0e4	0.06344774
175	0xbd2ea63d	-0.042639006
176	0xbf3f45cd	-0.7471588
177	0x3dd8e945	0.10591368
178	0x3c363e0d	0.0111231925
179	0x3d1e623e	0.03866791
180	0x3cde312c	0.027123056
181	0x3eb3d1b9	0.35120943
182	0x3e348995	0.17630608
183	0x3d955ca6	0.07293062
184	0xbf8d18fb	-1.1023248
185	0xbeab03ef	-0.3340144
186	0x3f20fbbc	0.62884116
187	0xbde6299a	-0.112384036
188	0xbe8576c5	-0.26067176
189	0xbdee3bd4	-0.11632505
190	0x3ea4f477	0.32217762
191	0xbeaf2b69	-0.34212807
192	0xbe5c11d0	-0.2149117
193	0xbc0c0f73	-0.008548605
194	0xbcb77451	-0.022394331
195	0xbc873d30	-0.016508669
196	0x3dadb07c	0.08480927
197	0x3c885680	0.016642809
198	0x3eca683b	0.39532647
199	0xbe8e06dc	-0.27739608
200	0xbe5b14f7	-0.21394716
201	0x3e9807a8	0.2969334
202	0xbe2219b4	-0.15830117
203	0x3e3bcc16	0.18339571
204	0xbc8600d2	-0.016357813
205	0xbe1a9750	-0.15096784
206	0xbe9ae259	-0.30250815
207	0x3f04b7ac	0.5184276
208	0xbdcc1182	-0.09964277
209	0xbee4877a	-0.4463461
210	0xbea524e4	-0.32254708
211	0xbdb4904d	-0.08816586
212	0x3edb8b71	0.42879823
213	0x3eb203e9	0.34768608
214	0xbe836d45	-0.25669304
215	0x3e02c6e6	0.12771186
216	0x3e8534c1	0.2601681
217	0x3ddda4c1	0.1082244
218	0xbe3598a0	-0.17734003
219	0xbdcc2f0d	-0.09969912
220	0x3d1bd837	0.038047995
221	0xbc3133aa	-0.01081554
222	0xbd3ed9c4	-0.046594396
223	0x3c96d19e	0.0184105
224	0xbc24c608	-0.01005698
225	0x3e60281e	0.21890303
226	0x3ea11b00	0.31465912
227	0xbcd4fa92	-0.025998387
228	0xbe06e6e6	-0.13174018
229	0x3f1a01e4	0.60159135
230	0xbe059357	-0.13044487
231	0x3e3ab37e	0.18232533
232	0x3dad76fc	0.0846996
233	0xbd47c10a	-0.04876808
234	0xbd92f990	-0.071765065
235	0x3ef5d88a	0.4801677
236	0xbb206a99	-0.00244776
237	0x3e9a27d9	0.30108526
238	0xbe22c017	-0.15893589
239	0x3f9c4de9	1.2211276
240	0xbdeaf221	-0.11471964
241	0xbe91983f	-0.28436467
242	0xbe00d184	-0.12579924
243	0x3eebf62a	0.46086246
244	0x3e891d23	0.26780042
245	0xbd8ebfdc	-0.06970188
246	0x3dfd7be9	0.123771496
247	0x3db34535	0.087534346
248	0xbb464a32	-0.0030256626
249	0x3d5364e7	0.0516099
250	0x3eddc7fb	0.43316635
251	0x3e872856	0.2639796
252	0xbbedc5f9	-0.007256266
253	0x3e6538a9	0.22384895
254	0x3e16e027	0.14733945
255	0xbe994c3a	-0.2994097

fc1.0.bias f4 [64]
0	0x3cb6196d	0.02222892
1	0x3c42c96d	0.011888844
2	0x3cca5155	0.024696985
3	0xbb6da583	-0.0036261983
4	0x3cd76fdb	0.026298454
5	0x3ba36274	0.0049861018
6	0x3d18aee1	0.037276153
7	0x3cb4cee0	0.022071302
8	0x3cbd512e	0.023109999
9	0x3b182791	0.0023216943
10	0x3c93384e	0.017971184
11	0x3ca439dd	0.020047123
12	0x3cc125af	0.02357754
13	0xba852714	-0.0010158741
14	0xbac748c9	-0.0015204187
15	0x3bc455ac	0.005991658
16	0x3d269283	0.04066707
17	0x3ce6981e	0.028148707
18	0x3d074460	0.03302419
19	0x3b90ed28	0.0044228025
20	0x3d99aa5a	0.07503195
21	0x3bff6409	0.0077939075
22	0x3c72edf8	0.014827244
23	0x3d976336	0.0739197
24	0xbbd2c7e9	-0.0064325226
25	0xbb6d5494	-0.0036213743
26	0x3da35463	0.0797508
27	0x3d2ab37e	0.041675083
28	0x3ce83355	0.02834479
29	0x3ce34e56	0.027747314
30	0x3cc4ecfa	0.02403878
31	0x3c9240a3	0.017853087
32	0xbc24f945	-0.010069196
33	0x3ba0068f	0.0048835943
34	0xbb8b1d5a	-0.0042454423
35	0x3d1f403e	0.038879625
36	0x3c4e0371	0.012574063
37	0xb8a3b924	-7.806931e-05
38	0xbbe3204c	-0.0069313403
39	0x3cae2a8b	0.02126052
40	0x3cb8e1db	0.022568634
41	0x3d9e84f2	0.07740201
42	0x3d42f0c2	0.047592886
43	0x3da5fabd	0.08104465
44	0x3d2f3452	0.042774506
45	0x3d61dbe2	0.055141337
46	0x3ce5a1f7	0.028031332
47	0x3b0c6570	0.0021422766
48	0xb9b964a3	-0.0003536093
49	0x3d94bc14	0.072624356
50	0x3c83dc63	0.0160963
51	0x3c51b4d4	0.01279946
52	0x3cfb1e5a	0.030654121
53	0x3cda6618	0.02666001
54	0x3da0524b	0.07828196
55	0x3d9c6521	0.07636476
56	0x3cca754b	0.024714133
57	0x3ce0b506	0.027430069
58	0x3ccda3a8	0.025102451
59	0x3cc60cf1	0.024176093
60	0x3d05bbee	0.032649927
61	0x3ced4cd0	0.028967291
62	0xbc0a86f9	-0.008455032
63	0x3a336006	0.0006842617

fc1.1.weight f4 [64, 500]
0	0xbecaefd3	-0.39636096
1	0xb7bd6636	-2.2578151e-05
2	0x3b976911	0.004620679
3	0xb78f79ea	-1.7103699e-05
4	0x37081c2a	8.112789e-06
5	0xbbe3df49	-0.006954108
6	0xb75fe516	-1.3345174e-05
7	0x3ad36310	0.0016127545
8	0xbc9bbcef	-0.019010989
9	0x3acb5d99	0.0015515565
10	0x3a9cc8be	0.0011961681
11	0xb80d0f9e	-3.3631564e-05
12	0xb6e6d656	-6.879486e-06
13	0xba1e9e2e	-0.0006050792
14	0xb6c044c2	-5.7300504e-06
15	0xbe310dc6	-0.1729041
16	0x3e3271bd	0.174262
17	0xb7b4396b	-2.148441e-05
18	0x37add115	2.0720569e-05
19	0xb64fa5e5	-3.0941967e-06
20	0x39b84427	0.00035145992
21	0xbb92822a	-0.004471083
22	0xb9d6fd0a	-0.0004100579
23	0x37fa78e1	2.9858611e-05
24	0xb6b0d28f	-5.269721e-06
25	0xbb510fc7	-0.0031900273
26	0xb88e82d0	-6.7954534e-05
27	0x3735c2fb	1.0833838e-05
28	0xb5f7ab0a	-1.8452713e-06
29	0x3b8ec0d1	0.0043564816
30	0x3737b37b	1.0949439e-05
31	0xbaa098f5	-0.0012252616
32	0xbc4b9890	-0.01242651
33	0xbc4bfb82	-0.012450101
34	0xb6abcc5f	-5.119989e-06
35	0xb708e573	-8.1596545e-06
36	0x398f9c0c	0.0002739135
37	0x3a0fad43	0.0005480835
38	0xbbe5e156	-0.0070153875
39	0x379eddd1	1.8938359e-05
40	0xb73b32ed	-1.1157926e-05
41	0x3ad89e64	0.0016526696
42	0xb49c5b89	-2.9123865e-07
43	0xb896d325	-7.191886e-05
44	0x38b415f2	8.5871565e-05
45	0xb6f6b962	-7.3529527e-06
46	0xb887a06e	-6.467184e-05
47	0x38efb6e1	0.00011430472
48	0x3712994e	8.737972e-06
49	0x3d1c2b2b	0.038127106
50	0xb6434bbe	-2.9101352e-06
51	0x367ac1de	3.7365749e-06
52	0x3bd9566b	0.0066326163
53	0xbc6de7e5	-0.01452062
54	0xbaa73a6e	-0.0012758502
55	0xbb1ba2d1	-0.002374817
56	0x37717cb7	1.4393757e-05
57	0x391f5e69	0.00015198592
58	0x38539fa0	5.0454983e-05
59	0x37a8ed43	2.0137644e-05
60	0xbb3463fc	-0.0027525416
61	0xb5a24903	-1.209119e-06
62	0xba19ba64	-0.0005864261
63	0x37406890	1.1468437e-05
64	0xb6ddbc16	-6.6082093e-06
65	0x35e82ec2	1.7298955e-06
66	0x343ade81	1.7403546e-07
67	0x3c99a567	0.018755628
68	0x3986f693	0.00025742184
69	0xb81501df	-3.552611e-05
70	0x3d652143	0.055939924
71	0x3a5aa7df	0.0008341055
72	0x3a5b6c64	0.00083703385
73	0xb8890917	-6.534362e-05
74	0xba0833cb	-0.0005195706
75	0x36538357	3.15179e-06
76	0xb6bde904	-5.6597655e-06
77	0x37760c6b	1.4665634e-05
78	0xb75bc56e	-1.3099385e-05
79	0x3501cb47	4.835205e-07
80	0x3823c449	3.9045033e-05
81	0x38494c60	4.7993264e-05
82	0xb60cf688	-2.1005126e-06
83	0xba96151a	-0.001145038
84	0x36a5e33a	4.943836e-06
85	0x39e89207	0.00044359287
86	0xbb133198	-0.002245998
87	0x38475333	4.7522783e-05
88	0x37191cbe	9.126203e-06
89	0x3daa687d	0.08320711
90	0x3b5fcf80	0.003415078
91	0xb95411d5	-0.00020224538
92	0x384d42fb	4.893819e-05
93	0xb938fdac	-0.00017642108
94	0x36c1c833	5.7751545e-06
95	0xb9ff5e4c	-0.00048707647
96	0xb755a4d4	-1.2734166e-05
97	0x376b013d	1.400738e-05
98	0x373bfe3c	1.1205262e-05
99	0x36031544	1.95329e-06
100	0x35c11204	1.4384864e-06
101	0xb72b98a1	-1.0227931e-05
102	0x3a15fcb2	0.00057215535
103	0xb74c3b95	-1.217322e-05
104	0xb60aeb7e	-2.0700677e-06
105	0xb783c7c1	-1.5709435e-05
106	0x3998ecbc	0.0002916808
107	0x37b30f69	2.1345639e-05
108	0x3818b986	3.6412406e-05
109	0x38cf0bf7	9.872758e-05
110	0x37f18bc6	2.8794526e-05
111	0x37e0693e	2.6751888e-05
112	0x3a0c61ad	0.0005355131
113	0x362eace8	2.6028665e-06
114	0xb7139adb	-8.797938e-06
115	0x38b44bea	8.597209e-05
116	0xb7fe210e	-3.0294552e-05
117	0xb7de5d7c	-2.6507994e-05
118	0xb86b0aa1	-5.6038265e-05
119	0x37f5a2fc	2.9282171e-05
120	0xb72d126c	-1.0315893e-05
121	0xb9ae4b22	-0.00033243845
122	0xbabdd03b	-0.0014481613
123	0x3d9cb457	0.076515846
124	0xb75c1933	-1.3118889e-05
125	0xb6c21616	-5.7842217e-06
126	0xb726eb58	-9.949166e-06
127	0xb70b1cb3	-8.291728e-06
128	0xb783212d	-1.5631866e-05
129	0x37d2d952	2.5135148e-05
130	0xb7d48a85	-2.5336873e-05
131	0x39319c68	0.00016938301
132	0xb8a11990	-7.6818396e-05
133	0x3762ca6e	1.3517782e-05
134	0xb7486056	-1.1943359e-05
135	0xb5386112	-6.86866e-07
136	0x36c27da4	5.796277e-06
137	0x3b550f45	0.0032510322
138	0x39898129	0.00026226908
139	0xbd932c96	-0.071862385
140	0x35ea67b2	1.7464538e-06
141	0xb7f45d71	-2.9130579e-05
142	0x37c24c1b	2.3162042e-05
143	0x38216855	3.8482558e-05
144	0x37ffcea9	3.0494602e-05
145	0xb6d02b7f	-6.2039467e-06
146	0xbb14298c	-0.0022607772
147	0x392504ff	0.00015737487
148	0xb8b22959	-8.495403e-05
149	0x3dbf6cc7	0.093469195
150	0x36579c95	3.212864e-06
151	0x365a34e9	3.251533e-06
152	0x375fcaad	1.3339025e-05
153	0x376882e8	1.3858757e-05
154	0x36901841	4.294358e-06
155	0xb6eefe0a	-7.1225268e-06
156	0xb61edd81	-2.3672767e-06
157	0xb63ab08e	-2.7818928e-06
158	0xb8d3551d	-0.000100771176
159	0xba1f3307	-0.00060729723
160	0xb8a20833	-7.726289e-05
161	0x37981851	1.8131135e-05
162	0x3d17f296	0.037096582
163	0x360c6fcb	2.0926698e-06
164	0x3654aba3	3.1690367e-06
165	0x3755cec5	1.2743932e-05
166	0xbb1c1a79	-0.002381949
167	0xb77fe1fe	-1.5251802e-05
168	0xb793cacc	-1.76182e-05
169	0x3c137d95	0.009002109
170	0x37102846	8.592446e-06
171	0xb6c0ef85	-5.7499296e-06
172	0x35d58d8e	1.5910935e-06
173	0x373412a6	1.0733178e-05
174	0xb72c8af4	-1.0284351e-05
175	0x3b3e066d	0.002899553
176	0x379d5a27	1.8757839e-05
177	0xb7ac9ca4	-2.057694e-05
178	0x372c9dae	1.0288712e-05
179	0xb7389c41	-1.1003635e-05
180	0x39acba36	0.00032945134
181	0xb73c07d6	-1.1207498e-05
182	0x3787120b	1.6101656e-05
183	0x396898bd	0.00022182144
184	0xb9b8be80	-0.00035237148
185	0x36a6cda0	4.9711234e-06
186	0x371d3d09	9.37214e-06
187	0xb6c38125	-5.8264873e-06
188	0xb6fd80c9	-7.55498e-06
189	0x368084b6	3.830147e-06
190	0x378e43d5	1.6959306e-05
191	0xb9878810	-0.0002585058
192	0x3af85783	0.0018946979
193	0x36eec3dc	7.1157538e-06
194	0x362e7233	2.5994493e-06
195	0xb73d924a	-1.1299338e-05
196	0xbe012cb0	-0.12614703
197	0x363ee184	2.8443474e-06
198	0x371994fb	9.154198e-06
199	0xb6fdc46d	-7.5628545e-06
200	0x33a2c734	7.579948e-08
201	0x3d0b8ac8	0.0340679
202	0xbcf0d88f	-0.029400138
203	0xb8519479	-4.996776e-05
204	0xbc78a1d8	-0.015175305
205	0x3a887a8f	0.0010412502
206	0x358e7931	1.0615096e-06
207	0x3727cf53	1.0002247e-05
208	0xb7093830	-8.1789185e-06
209	0x378d2e5f	1.6830103e-05
210	0x379fe182	1.9059287e-05
211	0x389367b9	7.028826e-05
212	0xb91da535	-0.00015034231
213	0xb8ae7408	-8.318579e-05
214	0x364d879d	3.0626318e-06
215	0xb6d81797	-6.440048e-06
216	0x39543722	0.00020238434
217	0xb76676c9	-1.3736725e-05
218	0x3a640608	0.00086984085
219	0x3bfa7c8b	0.007644241
220	0x368ef3e1	4.260321e-06
221	0x3c1a3707	0.009412534
222	0x37200113	9.536993e-06
223	0xb7373cfe	-1.0921851e-05
224	0x3a6bde1e	0.00089976366
225	0x3700db73	7.680489e-06
226	0xb89f0517	-7.582659e-05
227	0xb71a2c67	-9.1894535e-06
228	0xb6924901	-4.359638e-06
229	0x360a6049	2.0619648e-06
230	0x37e219ca	2.6953308e-05
231	0x3c2deadd	0.010615078
232	0x3c2507c9	0.010072657
233	0xb62a4386	-2.5371278e-06
234	0xbae964d8	-0.0017806543
235	0x3c9218ec	0.01783415
236	0x399fbfed	0.0003046984
237	0x3b1de410	0.0024092235
238	0xb68f1e63	-4.2652696e-06
239	0x38850f96	6.344837e-05
240	0x3a50b723	0.000796186
241	0xb68cf0f3	-4.2003753e-06
242	0xb5d74a8b	-1.6040443e-06
243	0x382684e5	3.970125e-05
244	0xb8741c87	-5.82007e-05
245	0x380176c3	3.0866602e-05
246	0xb6dd88c3	-6.6022344e-06
247	0xbb5289d7	-0.0032125616
248	0x38e1ffa2	0.000107764514
249	0xb6d2c0b4	-6.2809213e-06
250	0xb59cf9ab	-1.1695569e-06
251	0x3cef9ac1	0.029248597
252	0xb7ab7b78	-2.0442283e-05
253	0x379ab9eb	1.8444805e-05
254	0x36540191	3.1591373e-06
255	0xb6a8d639	-5.031729e-06

fc1.1.bias f4 [64]
0	0x3d1ef514	0.038807943
1	0x3e194f10	0.14971566
2	0xbeef2ec5	-0.4671537
3	0x3e9ecf40	0.31017494
4	0xbebd3b53	-0.36959323
5	0xbdaf9190	-0.08572686
6	0x3ccd3fa7	0.025054766
7	0xbedd04e1	-0.43167785
8	0xbd94f053	-0.07272401
9	0x3e23d0e2	0.15997651
10	0xbe9eda58	-0.31025958
11	0x3d3bcc47	0.04584911
12	0xbd32bcb3	-0.04363699
13	0xbe80c1bc	-0.25147808
14	0xbf162c93	-0.58661765
15	0xbf531e1b	-0.8246781
16	0xbca73ba0	-0.020414174
17	0x3e69ce57	0.22832619
18	0xbf1d9e2e	-0.6156949
19	0x3df5e68c	0.12006864
20	0x3dbaae75	0.09115306
21	0xbead0a31	-0.33796838
22	0xbf4bd017	-0.79614395
23	0x3d968908	0.073503554
24	0x3e00ae7c	0.1256656
25	0x3e196214	0.1497882
26	0x3d7cbc30	0.061702907
27	0xbc83cefa	-0.016089905
28	0x3d8b6cd0	0.06807864
29	0x3dfeb396	0.12436597
30	0x3dab450d	0.0836278
31	0xbce9ba09	-0.028531091
32	0x3e0be59a	0.13661805
33	0xbf48022b	-0.7812831
34	0x3dfb17a4	0.122603685
35	0x3ee41d7b	0.44553742
36	0xbd6972f3	-0.05699439
37	0x3e19831c	0.1499142
38	0xbf133d6d	-0.57515603
39	0xbf35341c	-0.7078264
40	0x3d47468f	0.048651274
41	0x3d65d90d	0.0561152
42	0x3eb6533a	0.35610372
43	0x3d87f53e	0.06638573
44	0x3d99469b	0.0748417
45	0x3db84abe	0.08998631
46	0x3d73c95e	0.05951821
47	0x3e251098	0.16119611
48	0xbf10f5bb	-0.56624955
49	0x3e33d736	0.17562565
50	0x3e039a3b	0.12851803
51	0xbf66c74b	-0.90147847
52	0xbed19058	-0.40930438
53	0x3e23c6b0	0.15993762
54	0x3d87e94b	0.06636294
55	0x3d9c6c00	0.07637787
56	0x3d818bd0	0.06325495
57	0x3d8bab03	0.06819727
58	0x3dabd933	0.08391037
59	0xbf4beb5b	-0.79656
60	0x3dac6db4	0.08419362
61	0xbc896c39	-0.016775237
62	0x3ded3375	0.1158208
63	0xbf47936e	-0.77959335

fc1.2.weight f4 [64, 500]
0	0xbef76be9	-0.48324516
1	0x3c78be29	0.015182056
2	0x3ccc41e6	0.024933767
3	0xbc9789fa	-0.01849841
4	0x39fc87be	0.0004816632
5	0xbd557dff	-0.052122112
6	0xba05c09e	-0.00051022496
7	0x3cc434c9	0.023950951
8	0xbddbbaa1	-0.10728956
9	0x3d2d837e	0.04236173
10	0x3d95c6dc	0.0731332
11	0xbd39175c	-0.045188293
12	0x3c2ba5d5	0.010476549
13	0xbc7a132b	-0.015263359
14	0xba88af74	-0.0010428266
15	0xbe9daa2f	-0.30793902
16	0x3fb69fca	1.4267514
17	0xbcd9f875	-0.026607731
18	0x3c43714c	0.011928868
19	0xba579ae7	-0.00082246814
20	0x3d3deb83	0.04636718
21	0xbd179ff3	-0.037017774
22	0xbce309c5	-0.02771462
23	0xbd09d049	-0.0336459
24	0xba277902	-0.0006388576
25	0xbe0178e7	-0.12643777
26	0x3cb39b86	0.021924745
27	0x3c445163	0.011982295
28	0x3c3e120a	0.011600981
29	0x3dbef8bf	0.09324788
30	0x3c931eef	0.017959086
31	0x3c210642	0.009828152
32	0xbb019b5e	-0.0019776444
33	0x3b5c46c8	0.0033611525
34	0x3a9a2a6d	0.0011761911
35	0xbcb6be1f	-0.022307454
36	0x3b67ed95	0.0035389413
37	0x3b983b27	0.0046457234
38	0x3cbef7de	0.023311552
39	0xbb12c0fa	-0.0022392855
40	0xbc633dc7	-0.013869709
41	0x3d3fa9f0	0.046792924
42	0xbb6aa090	-0.003580127
43	0xbc474589	-0.012162575
44	0x3d025b37	0.03182527
45	0x3a9d4a4b	0.001200029
46	0x3bef9c56	0.007312338
47	0x3cc39391	0.023874076
48	0xbd14866c	-0.036261007
49	0x3d8288fc	0.06373784
50	0xba819c65	-0.0009888528
51	0x3c4ea324	0.012612138
52	0x3cbd574f	0.023112921
53	0xbe8863fa	-0.26638776
54	0xbd944353	-0.072394036
55	0xbdf49fd5	-0.11944548
56	0xbc419485	-0.011815195
57	0x3c84e978	0.016224608
58	0x3c5e62e4	0.013573382
59	0xbcd5525f	-0.026040254
60	0x3d118ab8	0.035532683
61	0xbceed6d7	-0.029155178
62	0xbd9fa8ee	-0.07795893
63	0xbb17690e	-0.002310339
64	0x3c013f7a	0.007888669
65	0xbcb6c677	-0.022311432
66	0x3981f28a	0.00024785503
67	0x3e4452f0	0.19172263
68	0x3db36341	0.087591656
69	0x3e2af47c	0.16694826
70	0x3e276bc6	0.16349706
71	0x3d316da2	0.043317445
72	0xbc6684e8	-0.014069773
73	0x3d213901	0.039361004
74	0xbc8d9561	-0.017283143
75	0xbb01e29b	-0.0019818905
76	0xbbb13b30	-0.005408667
77	0xbaa46597	-0.0012542483
78	0xb605d81b	-1.9944334e-06
79	0x3cc334c7	0.023828877
80	0x3bbbc2a5	0.0057299905
81	0x3cb33808	0.021877304
82	0xbc1e782f	-0.009672209
83	0xbd12ed3c	-0.035870776
84	0xbc3b52e4	-0.011433337
85	0x3d7be4ef	0.061497625
86	0xbdf4c66f	-0.11951911
87	0x3c8e8a80	0.017400026
88	0x3b1ea577	0.0024207511
89	0x3ed3d3d9	0.41372564
90	0x3d398432	0.045292087
91	0xbcb9a72c	-0.022662722
92	0xbc68164a	-0.01416547
93	0x3a5dbed0	0.0008458914
94	0xbb75886d	-0.003746535
95	0x3d8541a8	0.065066636
96	0x3c174987	0.009233839
97	0xbb1b0a40	-0.0023657233
98	0xbc8aa0b3	-0.01692233
99	0xb9e7ed0c	-0.00044236367
100	0xbad0aa13	-0.0015919827
101	0x3ce58274	0.028016306
102	0x3d087b73	0.033320855
103	0x3abf8e39	0.0014614529
104	0xbcfbfa68	-0.030759051
105	0x3cbe0ebe	0.023200389
106	0x3cc4ad13	0.02400831
107	0x3ba7c6e0	0.0051201433
108	0xbda80585	-0.08204178
109	0x3d6f0f15	0.058363993
110	0x3d8c4776	0.068495676
111	0xbb4b2d16	-0.0031002215
112	0xbcabdc7c	-0.020979159
113	0x39e6d3bb	0.0004402677
114	0x3ac19f91	0.0014772286
115	0xbb7c4587	-0.003849359
116	0x3cc4c04e	0.02401748
117	0x3b0e4623	0.0021709285
118	0x3cf89c3d	0.030347938
119	0x3bc896b0	0.006121479
120	0x3ba94c67	0.0051665786
121	0xbd734b6f	-0.05939811
122	0xbdd5fd64	-0.10448721
123	0x3ed85dd1	0.42259076
124	0xb9fe9d1c	-0.0004856371
125	0xbb93b719	-0.004507911
126	0xba511544	-0.0007975886
127	0xbc360633	-0.011109876
128	0xba86f45f	-0.0010296217
129	0x3c084077	0.008316151
130	0x3b0aa7bc	0.0021157106
131	0xbc6c0793	-0.014406103
132	0xbc9e30fc	-0.019310467
133	0xbcd8f136	-0.026482206
134	0xbba7dadb	-0.005122525
135	0x39b91ac7	0.000353059
136	0x3badd8a5	0.005305367
137	0x3db5c969	0.088763066
138	0xbd8231b9	-0.0635714
139	0xbf7231ee	-0.94607437
140	0x3ab9a05a	0.0014162168
141	0xbc30c083	-0.010788086
142	0x3b36efd8	0.0027913954
143	0xba618821	-0.00086033536
144	0x3ba1acf6	0.0049339486
145	0x390d02e1	0.0001344788
146	0xbbcb0592	-0.0061957324
147	0xbb41ed38	-0.0029590856
148	0x3d3f3982	0.046685703
149	0x3d4aa2dc	0.04947172
150	0xb7e76825	-2.7585842e-05
151	0x3a872d07	0.0010313102
152	0x3b1387ec	0.0022511436
153	0xbc0596a6	-0.008153593
154	0xba38aabf	-0.0007044486
155	0xbc571f22	-0.013129981
156	0x399bb9b5	0.00029702266
157	0xbaa5830f	-0.001262756
158	0x3ba11552	0.0049158717
159	0xbd4ee0d5	-0.050507385
160	0x3da4d53e	0.08048485
161	0x3b207505	0.0024483812
162	0xbd933eae	-0.071896896
163	0xbba79fa9	-0.0051154685
164	0xbcc5c658	-0.02414243
165	0xb99c9ca8	-0.00029871357
166	0xbdc1e804	-0.094680816
167	0x3c4529df	0.012033909
168	0xbcdf4e5c	-0.027259044
169	0x3d978a5b	0.07399436
170	0xb9bffe6d	-0.0003661992
171	0x3b0adb10	0.00211877
172	0x3900d83f	0.00012287589
173	0xbc81c8d4	-0.015842833
174	0x38470184	4.744671e-05
175	0x3daafa05	0.08348469
176	0x3b00ae43	0.0019635118
177	0xbb5a101f	-0.003327377
178	0xbb99bbef	-0.004691593
179	0xbb82c115	-0.0039903023
180	0xb9a9e910	-0.00032407837
181	0x39f8469b	0.0004735485
182	0x3b1afa6a	0.0023647794
183	0x3b910262	0.004425333
184	0xbce98159	-0.02850406
185	0xbba52eea	-0.005040993
186	0x3c06a5f0	0.0082182735
187	0x3cd9fc23	0.026609486
188	0x3ae4107e	0.0017399935
189	0xbc37a06e	-0.011207683
190	0xbbcf99bd	-0.0063354657
191	0xbc956cbe	-0.018240329
192	0x3c3a1f5d	0.011360017
193	0xbbfc18ca	-0.007693385
194	0x3abc451b	0.0014363857
195	0x3b7caec9	0.0038556329
196	0xbd9cd735	-0.07658235
197	0x36fda2bf	7.5589337e-06
198	0x3b902486	0.004398885
199	0xbb7e4c30	-0.0038802736
200	0xbb02f23c	-0.0019980809
201	0x3e3fba80	0.18723488
202	0xbd5e84b9	-0.054325793
203	0xbd1b9fd6	-0.03799423
204	0xbd1b43b0	-0.03790635
205	0x3d805354	0.062658936
206	0x3c845cb0	0.016157478
207	0xbc591d19	-0.013251566
208	0xb9e7c4ce	-0.00044206384
209	0x3a988c7a	0.0011638545
210	0x3b806295	0.003918002
211	0x3cf5d800	0.030010223
212	0x3d852da9	0.065028496
213	0x3d704661	0.05866087
214	0xbb00c326	-0.0019647568
215	0x3ad648b5	0.0016348573
216	0x3d4c07f2	0.049812265
217	0x3d43868b	0.047735732
218	0x3d90c746	0.070692584
219	0x3d9ca927	0.07649451
220	0x3a5469b3	0.00081029086
221	0x3d39d3d4	0.04536803
222	0xbc948e7f	-0.018134354
223	0xbc961f52	-0.018325482
224	0x3d759c59	0.059963558
225	0x3b793190	0.0038023926
226	0x3d7b8585	0.06140663
227	0x3c2c1e30	0.010505244
228	0xbb182382	-0.0023214524
229	0x3bf3f114	0.0074445102
230	0x3bce5bca	0.006297563
231	0x3e5c5736	0.21517643
232	0x3d340349	0.043948445
233	0xb9c77a73	-0.0003804747
234	0x3c8e7d63	0.017393773
235	0x3e994d18	0.2994163
236	0x3c4a7500	0.012356997
237	0x3e2b0798	0.16702116
238	0x3a41b6eb	0.00073896226
239	0x3d331a08	0.043725997
240	0xbc999f1c	-0.018752627
241	0x38a08e5f	7.655913e-05
242	0x3a9ce590	0.001197027
243	0x3c8833cd	0.016626263
244	0x3d3cdcc2	0.04610897
245	0xb90607d2	-0.00012782149
246	0x3ac38761	0.0014917665
247	0xbd3c4d12	-0.045971937
248	0x3d87d3a7	0.06632166
249	0x3bb90d00	0.0056473017
250	0x3a758646	0.00093660166
251	0x3eb209d1	0.34773114
252	0xbb82623b	-0.003978995
253	0x3d4b1cab	0.049587887
254	0xbc3888e5	-0.011263107
255	0x399f945f	0.00030437388

fc1.2.bias f4 [64]
0	0x3cabe794	0.020984448
1	0x3a9ad1bf	0.0011811777
2	0xbbeb3a0b	-0.00717855
3	0xbdaa4529	-0.083139725
4	0x3d1e9f80	0.03872633
5	0x3c02d2f7	0.007984868
6	0x3d3b66be	0.04575228
7	0x3c9344ce	0.017977145
8	0x3da65466	0.081215665
9	0x3cb36243	0.02189744
10	0x3bd03621	0.006354109
11	0x3cc36e6d	0.023856366
12	0x3d3a5bd0	0.045497715
13	0xb994cd8f	-0.00028381913
14	0x3e2d72e9	0.16938366
15	0xbdaabb85	-0.08336548
16	0x3db34ff1	0.08755482
17	0x3d9db9d5	0.0770146
18	0x3e120654	0.14260226
19	0x3d98eac2	0.074666515
20	0xbdfae2aa	-0.12250264
21	0x3e02e1fa	0.12781516
22	0xb9027f63	-0.00012445221
23	0xbdd1aac3	-0.10237648
24	0xbc2a441b	-0.010392214
25	0x3db069b8	0.08613914
26	0xbdd5bac8	-0.10436016
27	0xbd0f6e8f	-0.035017546
28	0x3c0261aa	0.007957855
29	0x3cf0a46d	0.02937528
30	0x3c0da191	0.008644477
31	0x3c64b6bf	0.013959586
32	0x3d8c1ea9	0.068417855
33	0x3ba59ae8	0.0050538667
34	0x3d5329ba	0.051553465
35	0xbd93c607	-0.07215505
36	0x3c8b1335	0.016976932
37	0x3d8a7812	0.06761183
38	0x3e42cc7e	0.1902332
39	0x3dc0070f	0.09376346
40	0xbce00be6	-0.027349424
41	0xba43b2ee	-0.0007465322
42	0xbe506c62	-0.20353845
43	0xbd0adb85	-0.033900756
44	0x3d957c34	0.072990805
45	0xbd7c9564	-0.061665908
46	0x3d16c435	0.03680821
47	0x3dd68d6b	0.10476192
48	0x3d72491c	0.059151754
49	0xbda3b0a7	-0.07992678
50	0x3c8b9077	0.01703666
51	0x3e0ce99c	0.1376099
52	0x3beaa2d1	0.0071605225
53	0x3d36b730	0.044608295
54	0xbd2356e9	-0.039877806
55	0x3cc2f6fa	0.023799408
56	0x3b3fab92	0.002924655
57	0x3cc9c44e	0.024629738
58	0x3d09c54b	0.03363542
59	0x3d1870f1	0.037217084
60	0x3ca77645	0.020442137
61	0x3d9814fc	0.074258775
62	0x3c951b1c	0.018201403
63	0x3d6ec959	0.05829749

fc1.3.weight f4 [64, 500]
0	0xbf2be6c2	-0.67148983
1	0x3b205fac	0.0024471087
2	0x3c84ef91	0.016227515
3	0xbaea8313	-0.0017891846
4	0xb6d63d85	-6.384859e-06
5	0xbdb3d866	-0.08781509
6	0x38a4802e	7.844005e-05
7	0x3c951015	0.018196145
8	0xbdbfb6b1	-0.093610175
9	0x3c982a81	0.018574955
10	0x3ce68064	0.028137393
11	0xbb9c3cc5	-0.0047679865
12	0x3ae54f84	0.0017495011
13	0xbbf9577e	-0.007609307
14	0x3a2aeec9	0.0006520567
15	0xbe59a789	-0.21255316
16	0x3f2a3c6b	0.6649844
17	0xbcad2560	-0.021135986
18	0xbc845a1c	-0.016156249
19	0x383daecb	4.52239e-05
20	0x3c0c664f	0.008569314
21	0xbc88a4b9	-0.016680108
22	0xba825e6a	-0.000994635
23	0xbcf37862	-0.029720489
24	0xb8bbc3c6	-8.9533205e-05
25	0xbdc2e701	-0.09516717
26	0x3b6dd1a4	0.0036288286
27	0x3ae71ae7	0.0017631919
28	0xba78f6ae	-0.00094972074
29	0xbc901781	-0.017589333
30	0x3b14898d	0.0022664994
31	0xba3d1908	-0.0007213508
32	0xbd6131cb	-0.054979127
33	0xbd42b7cf	-0.047538575
34	0xb8bd8ceb	-9.03847e-05
35	0xbb4d977d	-0.0031370812
36	0x3ba6b155	0.0050870576
37	0x3ab3afa4	0.0013708961
38	0xbc9b365b	-0.018946817
39	0xbaf0afc1	-0.0018362926
40	0xb9f18114	-0.00046063273
41	0x3bba8a1f	0.005692735
42	0xbbd7fd21	-0.0065914546
43	0xbc18e247	-0.0093312925
44	0x3be0efc7	0.006864521
45	0xb8b258de	-8.504254e-05
46	0x3b330844	0.002731816
47	0x3bba5de6	0.005687463
48	0xbc44f360	-0.012020916
49	0x3dbde9f3	0.09273138
50	0xb8122513	-3.484364e-05
51	0x3b378690	0.002800379
52	0x3cc25f58	0.023727104
53	0xbe192c36	-0.14958271
54	0xbc5cad65	-0.013469075
55	0xbd636549	-0.055516515
56	0xbc075dc0	-0.008262098
57	0xbb9c88f1	-0.004777067
58	0x3be0b8e8	0.00685798
59	0xbbc3ce2e	-0.0059755063
60	0xbc841ae8	-0.016126111
61	0xbac9ddb6	-0.0015401158
62	0xbcfc523e	-0.030800935
63	0xba09ba29	-0.0005253875
64	0xbb502fd5	-0.0031766791
65	0x3a255a39	0.0006307695
66	0xb5ee4f5a	-1.7755476e-06
67	0x3d251149	0.040299688
68	0x3c33e43e	0.01097971
69	0x3d9ddafe	0.07707785
70	0x3e37d16b	0.1795098
71	0xbcd0238f	-0.02540758
72	0xbc4e866a	-0.012605289
73	0x3c134c2f	0.008990332
74	0xbc6c383d	-0.014417705
75	0x37b57388	2.163068e-05
76	0xbb195fa7	-0.002340296
77	0xb858fca9	-5.173372e-05
78	0x3b2a7aa8	0.002601305
79	0x3b1e8dd0	0.0024193414
80	0x3b729a37	0.0037018189
81	0x3b652860	0.0034966692
82	0xba044683	-0.00050459075
83	0xbd004edd	-0.03132521
84	0xba5e8051	-0.00084877486
85	0x3d332322	0.043734677
86	0xbd4e2d75	-0.05033632
87	0x3a75ae0b	0.0009371943
88	0x391463bb	0.00014151532
89	0x3e318a91	0.17338015
90	0xbbc8ae48	-0.0061242916
91	0xbc00b8bb	-0.007856543
92	0xbac680da	-0.0015144602
93	0xbc6c2259	-0.014412486
94	0xba5dc546	-0.0008459877
95	0x3ba6b25d	0.0050871805
96	0x3b43b385	0.002986164
97	0xb9883e69	-0.0002598644
98	0xbb8decf0	-0.0043312237
99	0x38e4227c	0.000108783104
100	0xbb73f798	-0.0037226435
101	0x3c39cb11	0.011339919
102	0x3cfa6e54	0.030570187
103	0xba427f10	-0.00074194465
104	0xbc6f8f17	-0.014621518
105	0x390c11e2	0.00013358102
106	0x3ae36ffa	0.0017352097
107	0x3922ea6c	0.00015536853
108	0xbcefbaa4	-0.029263802
109	0x3a60f10a	0.00085808395
110	0x3bd951de	0.006632074
111	0xbc76707b	-0.015041466
112	0xbb92fe6c	-0.004485896
113	0xb83c3e8b	-4.488094e-05
114	0xbba01ab4	-0.0048859958
115	0x3ad0ae3d	0.0015921068
116	0x3b7940cb	0.0038033004
117	0x3a4a3071	0.0007712907
118	0x3c56b9de	0.013105838
119	0xbc801dd1	-0.015639218
120	0x3ac5bc20	0.0015085973
121	0xbceadc85	-0.028669605
122	0xbd4ec53d	-0.05048107
123	0x3ec2e24d	0.3806328
124	0xb8a5c29d	-7.904063e-05
125	0x39de212c	0.00042367855
126	0x3ae8456c	0.0017720885
127	0x37167f77	8.970374e-06
128	0x3854db64	5.0749062e-05
129	0x3a9b9c47	0.0011872136
130	0x3c18c850	0.009325102
131	0xbb1ac9f7	-0.0023618916
132	0x3b85137b	0.00406116
133	0x396239af	0.00021574528
134	0x3a198afc	0.0005857197
135	0x3801d2d2	3.095234e-05
136	0x3a719785	0.00092159986
137	0x3c55ff63	0.013061377
138	0x3b417fce	0.002952564
139	0xbea3823a	-0.31935292
140	0x372aafe2	1.01737405e-05
141	0xbb288ce6	-0.0025718748
142	0xbc160505	-0.00915647
143	0xb957a9ee	-0.00020567302
144	0x3a43c4a6	0.00074679626
145	0x37ff5737	3.0438981e-05
146	0x3bba778f	0.005690522
147	0x3c48e503	0.012261632
148	0x3c705895	0.014669557
149	0x3e3aeceb	0.1825444
150	0x37834ac5	1.5651234e-05
151	0x371fba84	9.520565e-06
152	0xb7f32fb0	-2.8990064e-05
153	0x38e3022e	0.000108246095
154	0xba10583e	-0.0005506313
155	0xbbbce7fd	-0.00576496
156	0xb987153a	-0.00025765022
157	0xba1eb74a	-0.0006054534
158	0x3aa19b4a	0.0012329605
159	0xbd565faf	-0.052337345
160	0x3d2b7ecd	0.041868974
161	0x3ac7bc42	0.00152386
162	0x3ce3cbc0	0.027807117
163	0xb9cc97a1	-0.00039022884
164	0xbb4dcf84	-0.0031404207
165	0x3a00ebae	0.00049179315
166	0xbd4a1c7c	-0.04934357
167	0x3830852c	4.2085696e-05
168	0xbc643371	-0.01392828
169	0x3a8c1337	0.0010686879
170	0x38d49f4f	0.00010138621
171	0x39125676	0.00013955854
172	0x379dfdfb	1.8834127e-05
173	0xba99ab65	-0.0011724053
174	0x388e0465	6.771906e-05
175	0x3d660f00	0.05616665
176	0xb6285598	-2.5083773e-06
177	0xb97060a6	-0.00022924188
178	0x395e08e9	0.00021174889
179	0x3b8bbd3f	0.0042645033
180	0x3c4b3b97	0.012404344
181	0xb88fba77	-6.853503e-05
182	0x378bb083	1.6652286e-05
183	0xbb8e523a	-0.0043432983
184	0xbcc79165	-0.024361322
185	0xbb23fd2f	-0.0025022735
186	0x39eefe35	0.00045584296
187	0x3a366e9e	0.0006959232
188	0x39717ddf	0.00023030442
189	0x3b73d25e	0.0037204246
190	0x3b66cd59	0.0035217612
191	0x399cae88	0.00029884675
192	0x3c446b7d	0.011988518
193	0xbb074496	-0.0020640246
194	0x386f949c	5.7120444e-05
195	0xb98c3252	-0.00026740372
196	0xbe8c6f6b	-0.27428755
197	0xb715ead1	-8.9357645e-06
198	0x3886d5d9	6.42945e-05
199	0x36424b37	2.8952034e-06
200	0x39247b48	0.00015686185
201	0x3ded2d60	0.1158092
202	0xbcdf1af0	-0.027234524
203	0xbbbc5ec9	-0.005748604
204	0xbda5efbb	-0.081023656
205	0xbb2533be	-0.0025207843
206	0x3b98d86e	0.0046644723
207	0xb770f044	-1.4361056e-05
208	0x37195165	9.138462e-06
209	0xb86c2d28	-5.630884e-05
210	0x39ec1287	0.00045027232
211	0x3aed56ee	0.0018107572
212	0x3daef903	0.08543589
213	0x3bcc7480	0.006239474
214	0x37c0480c	2.2921733e-05
215	0xb7b06f20	-2.1032582e-05
216	0x3bc82084	0.006107392
217	0x3c733da6	0.014846241
218	0x3cbf001c	0.023315482
219	0x3d691067	0.056900408
220	0x36f53b04	7.3084393e-06
221	0x3d2823b4	0.041049674
222	0xba7966fc	-0.0009513942
223	0xbac582dc	-0.0015068906
224	0x3d194690	0.03742081
225	0x391de765	0.00015058888
226	0x3cf2ad8d	0.029623771
227	0x3966a79b	0.00021996947
228	0x3b046b90	0.0020205714
229	0x38343fa5	4.2974618e-05
230	0x3841335d	4.606262e-05
231	0x3db1e8c1	0.086869724
232	0x3cf62216	0.03004555
233	0x381327c5	3.508457e-05
234	0xbd0606d6	-0.032721363
235	0x3e72e2e6	0.23719367
236	0xbb6b45ae	-0.0035899687
237	0x3d2e731d	0.04259025
238	0xbbb0c30e	-0.005394346
239	0x3c7b11a4	0.01532403
240	0x3ba0aaaa	0.0049031572
241	0xb82e9a05	-4.1628275e-05
242	0xb7aa49a7	-2.0299876e-05
243	0x3b81446d	0.0039449246
244	0x3c31ce78	0.010852449
245	0x328e73a0	1.6583556e-08
246	0x3acb040a	0.0015488875
247	0xbd81748e	-0.06321059
248	0x3cb78885	0.022403965
249	0xb8e18ff2	-0.00010755648
250	0xb9e04935	-0.00042779153
251	0x3e792e59	0.24334086
252	0xbb11ac89	-0.0022228083
253	0x3c48256e	0.012215955
254	0xb8589c5f	-5.1644045e-05
255	0x37ec48bb	2.816726e-05

fc1.3.bias f4 [64]
0	0x3a770d48	0.00094242813
1	0xbdb91074	-0.09036341
2	0x3dd1ddd0	0.102473855
3	0x3e2b990d	0.16757603
4	0x3c6c1814	0.014410038
5	0x3d9deb00	0.07710838
6	0x3da6ab22	0.0813811
7	0xbeb81287	-0.35951635
8	0x3e26749d	0.16255422
9	0x3e5344a7	0.20631658
10	0x3e200435	0.15626605
11	0x3da414bc	0.08011767
12	0x3db9098c	0.09035024
13	0xbb9f6c6d	-0.0048652203
14	0x3e0c1f70	0.13683867
15	0xbe92522f	-0.28578326
16	0x3acbbbf8	0.001554369
17	0x3d5f3077	0.05448958
18	0x3dcc84f2	0.09986295
19	0x3e4a792b	0.19772784
20	0x3e1330a8	0.1437403
21	0x3e944d87	0.289654
22	0xbe11e0ff	-0.14245985
23	0x3e25bbb8	0.1618489
24	0x3e234d78	0.1594752
25	0x3e61bbfd	0.22044368
26	0x3e2b08b6	0.16702542
27	0x3e1df29d	0.15424581
28	0xbc6521a2	-0.0139850695
29	0x3bcb3563	0.0062014326
30	0xbc9162f6	-0.017747384
31	0x3d8b8074	0.0681161
32	0x3e5acd3c	0.21367353
33	0xbd148bb2	-0.036266036
34	0x3e08f9aa	0.1337649
35	0xbdce4b27	-0.10072928
36	0x3db1c2b4	0.08679715
37	0x3e1c7532	0.15279081
38	0x3d9e6dc1	0.07735778
39	0x3dd5d45f	0.10440897
40	0x3da1dd35	0.0790352
41	0x3d8b88da	0.06813212
42	0xbe7816f0	-0.242275
43	0x3dfa3913	0.12217917
44	0x3c8e6925	0.017384121
45	0x3e1cb2bc	0.15302557
46	0xbc774a64	-0.01509342
47	0x3e8f08c8	0.27936387
48	0x3df7f3aa	0.12107022
49	0x3e002c66	0.12516937
50	0x3c8f47c3	0.017490273
51	0x3e037f76	0.12841591
52	0xbed67b34	-0.41890872
53	0x3dfda0b3	0.123841666
54	0x3e26be3c	0.16283506
55	0x3def3a5b	0.11681052
56	0xbb8b7ff2	-0.0042571956
57	0xbc0b28c0	-0.008493602
58	0xbc344713	-0.011003274
59	0xbe7623db	-0.24037115
60	0x3b1713b6	0.002305252
61	0x3d54dc21	0.051967744
62	0x3e3e21b7	0.18567549
63	0x3f05530d	0.5207985

fc1.4.weight f4 [64, 500]
0	0x3e0dcecd	0.1384842
1	0xbc9c21f9	-0.019059168
2	0xbde2e436	-0.11078684
3	0xbeda786f	-0.4267001
4	0xbee72888	-0.4514811
5	0xbe6d8ff7	-0.2319945
6	0xbe8c3eb6	-0.27391595
7	0x3da86b94	0.08223644
8	0xbeaeafcf	-0.34118506
9	0x3f1da89e	0.61585414
10	0xbe5cf269	-0.21576847
11	0xbe9d94f1	-0.30777696
12	0x3dc4866a	0.0959595
13	0x3e7217c3	0.23641877
14	0x3b2cacd2	0.0026348126
15	0xbeba2b09	-0.36360958
16	0x40127ad5	2.288747
17	0x3d1768f1	0.036965314
18	0x3cfc4068	0.03079243
19	0xbefb8a1c	-0.49128807
20	0x3f298100	0.66212463
21	0xbe94ed11	-0.29087117
22	0xbe1f9cd6	-0.15587172
23	0xbe7d3b42	-0.24729636
24	0xbdb0654d	-0.086130716
25	0xbe953347	-0.29140684
26	0xbdf86be9	-0.12129957
27	0x3e423c8c	0.1896841
28	0xbd8e113d	-0.06936882
29	0xbd7186eb	-0.05896656
30	0xbe487944	-0.19577509
31	0x3d9e5e6a	0.07732852
32	0xbe8321aa	-0.2561162
33	0xbdec0054	-0.115235
34	0xbda0fa3d	-0.07860229
35	0xbec5ddd4	-0.38645804
36	0xbd36979a	-0.044578172
37	0x3b8a206c	0.004215291
38	0x3d1c1f33	0.03811569
39	0xbeb91488	-0.36148477
40	0x3edb8098	0.42871547
41	0x3e031f56	0.12804922
42	0xbdb43501	-0.08799172
43	0x3d1d981b	0.038475137
44	0x3e84a0f6	0.25904053
45	0x3e5d9854	0.2164014
46	0x3e60513b	0.21905987
47	0xbcdc46f9	-0.026889311
48	0xbee7660d	-0.45195046
49	0x3d554afb	0.05207346
50	0x3e10ecc5	0.1415282
51	0xbe5bc504	-0.21461874
52	0x3e48e8a6	0.19619998
53	0xbf09de7f	-0.5385513
54	0x3e729d03	0.23692708
55	0xbe219c39	-0.1578225
56	0xbcd756da	-0.026286531
57	0xbe26cd67	-0.16289292
58	0x3f42d8b1	0.76111895
59	0xbe2fb2b3	-0.17158012
60	0x3e0cc148	0.13745606
61	0xbe1b7653	-0.15181856
62	0xbf9298a4	-1.1452832
63	0xbe75dd44	-0.24010187
64	0xbd9ce0f1	-0.07660092
65	0xbe70b8ad	-0.23507948
66	0xbe9ad011	-0.30236867
67	0x3ed6a24f	0.41920707
68	0x3f135351	0.57549006
69	0x3fa9e99d	1.3274418
70	0x3e4aa332	0.19788817
71	0x3de65c3e	0.112480626
72	0x3ed82b6c	0.42220628
73	0x3ecdd639	0.402025
74	0xbe37842d	-0.17921515
75	0xbeaa8b2b	-0.33309302
76	0xbe473c3e	-0.19456574
77	0xbe732500	-0.23744583
78	0xbea959cd	-0.33076325
79	0x3edd2973	0.43195686
80	0x3ee78184	0.45216
81	0x3eaaea7e	0.33382028
82	0xbe9ed463	-0.31021413
83	0xbec966a2	-0.39336115
84	0x3e585e15	0.2112964
85	0x3da81586	0.0820723
86	0xbedf46b3	-0.43608627
87	0x3e861687	0.26189062
88	0x3f0022ac	0.50052905
89	0x3e9d0211	0.3066564
90	0x3ead5391	0.3385282
91	0xbebf1918	-0.37323833
92	0xbed799b3	-0.4210945
93	0xbecc5091	-0.39905217
94	0xbea016c0	-0.31267357
95	0x3e814748	0.25249696
96	0x39f4b7a8	0.0004667614
97	0xbe0b7367	-0.13618241
98	0xbdd4dc52	-0.10393585
99	0xbd799a4f	-0.060938176
100	0x3c953bdf	0.018217025
101	0x3f0f687f	0.56018823
102	0xbe423059	-0.18963756
103	0xbf07b723	-0.5301382
104	0xbe351f83	-0.17687802
105	0x3e85d11f	0.2613611
106	0xbf0208fd	-0.50794965
107	0xbd385a0a	-0.045007743
108	0xbebde29c	-0.37086952
109	0x3e1f808c	0.1557638
110	0x3ded29a4	0.11580208
111	0x3e2c3668	0.1681763
112	0xbd22085b	-0.03955875
113	0x3ef7f98f	0.48432586
114	0xbe0c26f4	-0.13686734
115	0xbe4f6a3f	-0.20255373
116	0x3ed2761e	0.4110574
117	0x3e818349	0.25295475
118	0x3e661060	0.22467184
119	0xbe55b9dd	-0.20871682
120	0xbdffd9f2	-0.12492742
121	0xbf194944	-0.5987742
122	0xbf12e6b5	-0.5738328
123	0x3f518ba3	0.81853694
124	0x3cf183cd	0.029481793
125	0xbed129f3	-0.40852317
126	0xbe369072	-0.17828539
127	0x3e2a7cf6	0.16649231
128	0x3dd2607b	0.102723084
129	0x3ea7773d	0.3270816
130	0x3d56b9f0	0.052423418
131	0xbd1ab54c	-0.037770554
132	0xbf0daf92	-0.55346024
133	0xbc25cbb9	-0.010119372
134	0xbdb68a97	-0.08913153
135	0x3dfa92fa	0.12235065
136	0xbeb490ff	-0.35266873
137	0x3f04fc96	0.51947916
138	0xbdea7516	-0.114481136
139	0xc00a1f7e	-2.1581721
140	0x3e145293	0.14484625
141	0xbed71ab0	-0.42012548
142	0xbe36454d	-0.17799874
143	0xbe39dfe5	-0.18151815
144	0x3e0b2ca0	0.13591242
145	0x3e8810e2	0.2657538
146	0xbea278ba	-0.31732732
147	0xbda84a99	-0.082173534
148	0x3eb87740	0.3602848
149	0xbd0c35be	-0.03423094
150	0xbdba7482	-0.09104253
151	0x3e8d9871	0.27655366
152	0x3df6d918	0.12053126
153	0xbf556d4e	-0.8336991
154	0xbdd01fdf	-0.10162329
155	0x3e3987aa	0.18118158
156	0xbd7e28cb	-0.062050622
157	0xbeb335ed	-0.3500208
158	0xbde48fb3	-0.11160221
159	0xbe46ef58	-0.1942724
160	0x3ba10518	0.0049139373
161	0xbe35908e	-0.17730924
162	0xbe67d60e	-0.22640249
163	0x3df40efc	0.119169205
164	0xbe8bea8c	-0.27327383
165	0xbf0f0cab	-0.55878705
166	0xbdcbce02	-0.09951402
167	0x3f6e25a3	0.9302618
168	0xbe12213e	-0.14270493
169	0x3d579515	0.05263241
170	0xbf186432	-0.59527886
171	0xbe047ea0	-0.12938929
172	0x3f3764a6	0.7163795
173	0xbca7a8b2	-0.020466182
174	0x3ed899ed	0.42304936
175	0x3e7483b3	0.23878364
176	0xbe7c5d47	-0.24644957
177	0xbf19941f	-0.5999164
178	0x3c7adb5b	0.0153110875
179	0x3cccab00	0.024983883
180	0x3e4ca5ed	0.1998517
181	0x3f35b344	0.7097666
182	0x3ea57a8a	0.32320052
183	0xbc83f345	-0.01610721
184	0xbf29e9d2	-0.66372406
185	0xbc4da36d	-0.012551171
186	0x3e04f077	0.12982355
187	0xbd964a58	-0.07338399
188	0xbd3cdcb9	-0.046108935
189	0x3e3fc8a9	0.1872889
190	0xbe089085	-0.1333638
191	0x3e3e20eb	0.18567245
192	0xbeb6473c	-0.35601223
193	0x3e57d278	0.21076381
194	0x3f1a2786	0.6021656
195	0xbe42eab5	-0.19034846
196	0x3ec07674	0.37590373
197	0x3e439c31	0.19102551
198	0x3e216947	0.15762816
199	0xbf58de39	-0.84714085
200	0xbf857799	-1.0427123
201	0x3e70c65c	0.23513168
202	0xbebb7b26	-0.36617392
203	0xbe5e68eb	-0.2171971
204	0x3ca42354	0.020036377
205	0xbcb93fe3	-0.022613471
206	0x3e8473ab	0.25869498
207	0xbde126ef	-0.10993754
208	0xbe5a8a56	-0.21341833
209	0x3e82b638	0.25529647
210	0x3e8a96d7	0.27068207
211	0x3f61e452	0.88239014
212	0x3ea1bd16	0.31589574
213	0x3ed940e5	0.42432323
214	0xbe182196	-0.14856562
215	0xbdca4ecc	-0.098783106
216	0x3e060a95	0.13089974
217	0x3e754ace	0.23954317
218	0x3f0eb0d7	0.55738586
219	0x3e87bd82	0.2651177
220	0xbdfc911d	-0.12332366
221	0x3de20de9	0.110378094
222	0x3dd3c15b	0.10339614
223	0xbb0990a6	-0.0020990758
224	0x3d2e6ec7	0.042586114
225	0x3f007dfc	0.50192237
226	0x3ebbc0aa	0.3667043
227	0xbcc927a6	-0.024555039
228	0xbd42a504	-0.047520652
229	0x3d9de8d2	0.077104226
230	0x3e948f21	0.2901545
231	0x3e73c6a7	0.23806249
232	0x3e0cacae	0.13737747
233	0x3e53adf4	0.20671827
234	0x3ec36471	0.38162568
235	0x3f9525b5	1.1652132
236	0x3e0400c7	0.12890922
237	0x3f4c6f05	0.798569
238	0xbe21254c	-0.15736884
239	0x3fa87bc9	1.3162776
240	0x3d798f8f	0.060927924
241	0x3e9c7ac7	0.30562422
242	0xbc597a0f	-0.01327373
243	0x3ec8cc0d	0.39218178
244	0x3ec39e71	0.3820682
245	0x3d826eff	0.06368827
246	0xbd538044	-0.051635996
247	0x3e15b8b1	0.14621235
248	0x3e9f70bf	0.31140706
249	0x3e74a2a9	0.23890175
250	0x3ddcf217	0.107883625
251	0x3f774285	0.96585876
252	0xbf04fd5c	-0.51949096
253	0x3f29b414	0.662904
254	0xbe7623ab	-0.24037044
255	0xbe3b41b9	-0.1828679

fc1.4.bias f4 [64]
0	0xbbfda969	-0.0077411425
1	0xbc1d67c2	-0.009607257
2	0x3bbed1f5	0.0058233687
3	0xbbe15972	-0.006877118
4	0x3cb6efd1	0.02233115
5	0xbb220aea	-0.0024725744
6	0x3c2f0e18	0.010684513
7	0x3c25b73d	0.010114488
8	0xbb0c65fd	-0.0021423094
9	0x3c120acf	0.00891371
10	0xbb9d0189	-0.004791443
11	0xbc517fa1	-0.012786777
12	0xbbbc11af	-0.0057394127
13	0xbabb981d	-0.0014312301
14	0x3cdb5c24	0.026777335
15	0x3aa4c4ad	0.0012570821
16	0x3bfa23ba	0.0076336535
17	0x3c81fccc	0.015867613
18	0x3c85f01e	0.016349848
19	0x3c84098a	0.01611783
20	0x3d065a17	0.03280076
21	0x3bfa5907	0.0076400074
22	0x3c96ee22	0.018424097
23	0x3cf6b8dd	0.030117447
24	0x3ce74e1d	0.02823549
25	0x3c3ba919	0.01145389
26	0x3cfdf49d	0.03100043
27	0x3c0019b1	0.007818625
28	0xbbbffb60	-0.0058588237
29	0xbbb66ea3	-0.005567388
30	0xbb702f31	-0.0036649222
31	0x3bbcbd24	0.005759852
32	0x3cf73d42	0.030180577
33	0x3c5dccda	0.01353761
34	0x3ca2b366	0.019860934
35	0x3c4b1c65	0.0123969065
36	0xbba614a5	-0.005068379
37	0x3c16283c	0.009164866
38	0x3cb59c29	0.02216919
39	0x3c923e5e	0.017852005
40	0x3b891db9	0.0041844514
41	0x3cbd1b4f	0.02308431
42	0x3d090d69	0.033460055
43	0x3cae52d0	0.021279722
44	0x3b6ed02b	0.0036439996
45	0x3c762717	0.015023968
46	0x3b955a0c	0.0045578536
47	0x3c7be393	0.015374082
48	0x3aedadb9	0.0018133438
49	0x3ce4c057	0.027923746
50	0x3bee692a	0.00727572
51	0x3c9c03e4	0.019044824
52	0x3c9923a3	0.01869375
53	0x3b6d5c64	0.00362184
54	0x3c93cde5	0.018042514
55	0x3cd783d0	0.02630797
56	0xbb683a69	-0.0035435206
57	0x3b2e4df4	0.0026596757
58	0xbc159833	-0.009130525
59	0x3ce50c8e	0.027960088
60	0xbb47d23a	-0.0030490295
61	0x3c8e5a04	0.017376907
62	0x3c7a6550	0.015282944
63	0xba2f8c26	-0.0006696604
