saved_pretrained/pubmed_1.pt (torch, 904063 bytes, 16 tensors)

fc1.0.weight f4 [64, 500]
000000 7d eb f8 bf 0b 28 dc 3e 9c ca 81 3e 6b d1 72 bd
       -1.9446865 0.429993 0.2534989 -0.059281748
000010 ad 76 0a 3d 4a d4 96 3e 20 39 02 bf 94 f2 87 bd
       0.033804584 0.2945884 -0.50868416 -0.06638065
000020 77 db 1a bf 1c 09 98 be d7 03 19 3e 61 38 8d be
       -0.60491127 -0.2969445 0.14942871 -0.27582076
000030 d8 da 00 3f b7 7e fb be 4d 0d e2 3c f8 ac f5 be
       0.5033393 -0.49120113 0.027594233 -0.47983527
000040 6c 37 58 3d d7 3b 35 3d 03 08 6c be 34 eb 10 3f
       0.05278723 0.04424652 -0.23049931 0.5660889
000050 f8 b5 8c 3e d0 c8 c4 be 84 dc 11 3d 25 29 6b be
       0.2748258 -0.38434458 0.03561069 -0.22964914
000060 2c f6 55 bf ce a2 05 3d 18 c9 45 3e b4 28 f2 bd
       -0.83578753 0.032625966 0.19314992 -0.1182417
000070 b7 2e 71 be 66 9c ee be f1 7e a3 3d 4b b5 2f be
       -0.23552977 -0.46603698 0.079831965 -0.17159002
000080 9b 34 05 be 45 c9 4b 3d 02 a7 5c be aa a3 fa 3d
       -0.13008349 0.049752492 -0.21548083 0.12238248
000090 7b a7 e5 bd b8 6f 79 be 9e 00 f3 3c 7f 03 9f be
       -0.11213585 -0.24359024 0.02966338 -0.31057355
0000a0 d5 b9 d6 bd 0a de 69 be 8d 86 12 be ff 17 fe bb
       -0.104846634 -0.22838607 -0.1430914 -0.0077543254
0000b0 07 d1 88 be 51 f1 9d 3e a1 ca 4a bd 0f 17 2e 3e
       -0.26721975 0.30848172 -0.04950965 0.17000984
0000c0 97 b2 ee bd 53 a6 97 3e bc 48 1a 3e ce 68 f9 bd
       -0.11655157 0.29619083 0.15066808 -0.12178193
0000d0 84 98 00 be e4 19 c1 be e5 29 0f bf 32 5b 49 3e
       -0.1255818 -0.37715065 -0.559233 0.19663695
0000e0 af a1 96 3d e5 e0 ec 3a 79 a8 ca be 73 31 ca 3d
       0.073550574 0.0018072395 -0.3958166 0.09872713
0000f0 da f5 ed bd dc 1b b7 be 06 12 09 3d f2 cd 23 be
       -0.11619158 -0.35763443 0.033464454 -0.1599653
000100 ab f5 d4 3e f9 1d 44 be f1 34 0b 3c 00 77 ae 3e
       0.4159368 -0.19152059 0.008496509 0.34075165
000110 13 1e 18 3e 02 1c e6 3d 88 b2 74 3f 1d d5 1c 3e
       0.14855222 0.11235811 0.9558492 0.15315671
000120 55 3c b0 bc e8 6d 5d 3e d9 25 3c bd f4 7c 2f be
       -0.021513144 0.21623957 -0.04593453 -0.1713751
000130 e2 09 31 3e cf 6f 51 bf b3 69 52 be 6c 1e 86 be
       0.17288926 -0.8181123 -0.20548134 -0.26195085
000140 b7 4d cb 3e d4 73 72 3d 85 24 25 bf b1 47 8b be
       0.3970773 0.059192494 -0.6450885 -0.27203134
000150 94 17 63 be d9 28 bf 3d 56 18 62 3d 79 f8 2c 3f
       -0.22176963 0.09333963 0.05519899 0.6756664
000160 0f df 01 be c7 84 59 3f 2b 81 ad 3e 70 5c df 3d
       -0.12682746 0.8496823 0.3388761 0.10906303
000170 c3 c5 db be b1 68 85 be 92 22 18 3e 99 8f 23 3d
       -0.42924318 -0.26056436 0.14856938 0.039931867
000180 21 b5 f9 3d 77 6f dd 3e d3 56 7d be e8 86 3d 3e
       0.12192751 0.43249103 -0.24740152 0.18508494
000190 2f b3 27 be 5b 80 3f bd 50 dc 0d be 6a 85 d2 3a
       -0.16376947 -0.04675327 -0.13853574 0.0016061489
0001a0 7b 71 a9 3d 3c af 8d be 6c 59 af 3e 7d 42 29 bd
       0.08273598 -0.27672756 0.3424791 -0.041323174
0001b0 43 6d 2c 3c a2 3b 04 3f 39 32 e6 be 07 64 a6 3d
       0.010524097 0.5165349 -0.44960192 0.081245475
0001c0 90 04 a1 be fb da dc bd 7f 0c 7b 3e 2a ec cb bc
       -0.31448793 -0.10783955 0.24516486 -0.024892885
0001d0 ee 41 19 bf 0e 23 5d 3b 1c 9b 23 be 17 23 02 3e
       -0.59866226 0.0033742818 -0.15977138 0.12708698
0001e0 63 99 07 bb bc 9c 4c be 9e 18 39 3e 3f 0b 44 3d
       -0.002069079 -0.19981664 0.18075797 0.047862288
0001f0 48 a9 b9 bd 0e 4c 8c 3e ce c4 94 3e 0f db 95 3e
       -0.09065491 0.27401775 0.290564 0.2926869
000200 85 97 7f 3e 23 8a 35 be 1b 1f 3a 3e 4a 8c 01 3e
       0.24960144 -0.17728476 0.18175928 0.12651172
000210 a6 35 25 3f 2d de a4 3e c3 90 61 bd 1b 91 27 be
       0.64534986 0.32200757 -0.055069696 -0.16363947
000220 84 f8 65 3d a1 d7 4d 3f ef 6f 27 bb 31 91 47 3f
       0.056145206 0.8040715 -0.0025548895 0.7795592
000230 b4 d8 5a 3e 27 76 50 3e ca 9d 0e bd c3 43 32 3e
       0.21371728 0.20357572 -0.034818448 0.17408662
000240 12 78 06 3f 38 69 34 be 82 b9 a2 3d 11 9b 07 be
       0.5252696 -0.17618263 0.07945539 -0.13242747
000250 73 41 1f 3f a2 e7 6e 3e f7 05 0a bf 80 89 5a 3c
       0.6220924 0.23330548 -0.5391535 0.013338447
000260 4f 5f de bc 31 a7 ec 3c d7 24 fc 3e 41 35 b5 3e
       -0.027145056 0.028888317 0.49246857 0.35392192
000270 6a ba bd 3c 46 07 23 be 07 5d 15 3e b5 46 eb be
       0.023160178 -0.15920743 0.14586268 -0.45952383
000280 90 cd d3 bd f1 5a 9c 3e 9b 75 4e bd 76 d9 2f 3e
       -0.10341942 0.30538133 -0.050405126 0.17172799
000290 20 0d bc be 21 46 a9 bc e2 be 35 3e 07 70 e6 3d
       -0.36728764 -0.020663323 0.17748597 0.11251836
0002a0 f9 5d 32 3d db 92 4d be 86 65 92 3c 84 16 97 bd
       0.04354665 -0.20075552 0.017870676 -0.073773414
0002b0 23 c2 ec bd 45 b4 97 be 9c 5f 6d be 82 39 f2 bc
       -0.11560466 -0.29629722 -0.23181003 -0.029568437
0002c0 82 a2 26 bc c2 fc b3 bc a9 15 47 bd 11 d3 00 be
       -0.010170581 -0.02197111 -0.04860464 -0.12580515
0002d0 45 bb f1 bd e4 f0 ca be 4b ed 9e 3e 0c 57 2b bd
       -0.11803297 -0.3963691 0.31040415 -0.04183106
0002e0 0a 3e de bf af cb 3c bd 8d ee e0 3e c9 d8 f7 bd
       -1.7362683 -0.046092685 0.43932 -0.12101895
0002f0 f0 02 f3 3d af fa 20 bd 50 4b d2 bb 27 19 ea bc
       0.11865795 -0.03930157 -0.0064176694 -0.028576447
000300 d9 7f 77 be 99 ac 20 bf 56 71 d3 bd c3 d4 96 3e
       -0.24169864 -0.62763363 -0.103243515 0.294592
000310 92 d8 f4 bd a7 a3 c0 3e d3 be cc 3e 23 83 e9 3d
       -0.1195537 0.37624857 0.39989337 0.114019655
000320 f5 ef 1e bf 09 4f b5 3d 57 18 35 3d 8c fd ef bd
       -0.62084895 0.088529654 0.044212665 -0.11718282
000330 d3 05 a1 bd 04 ce f8 3d e4 07 52 3d f4 80 01 be
       -0.07862439 0.12148669 0.051277056 -0.12646848
000340 ff 02 d0 3e 23 87 e3 3e 43 64 a2 3e 8c df 32 bd
       0.40627286 0.4443904 0.3171712 -0.043670222
000350 4e d1 81 3e ff 73 ce 3e dd 1b fc bd 8f 74 c7 bd
       0.25355 0.40322873 -0.12310002 -0.09739029
000360 3b c3 c0 3d 63 fb 6e 3e 2a 31 bc bd 99 a3 99 be
       0.09412237 0.23338084 -0.09189065 -0.30007628
000370 16 b1 e7 3e 96 ce 5e 3e 0c 8d b6 be 7a 38 6e 3e
       0.45252293 0.21758494 -0.35654485 0.23263732
000380 83 c2 cb 3e 1b e6 4d 3e cc ac 97 3d 6f f3 2c bd
       0.39796838 0.2010731 0.07406005 -0.042224344
000390 84 5b 80 bd 65 4b 4d 3f 12 7f 7c 3e 37 8a 11 be
       -0.06267455 0.8019317 0.24657848 -0.14212881
0003a0 9b 0e 29 3e 27 e5 99 bc 94 21 c0 be 9c 96 18 bd
       0.16509478 -0.018786026 -0.37525618 -0.037253007
0003b0 f1 d2 10 3d b9 23 b4 bd 77 4a 01 3e d3 56 af 3e
       0.03535742 -0.08795876 0.12626062 0.3424593
0003c0 f4 5b 43 3e f7 02 c0 be 28 43 7b 3e 9b 3e 58 3e
       0.19078046 -0.37502262 0.24537337 0.21117632
0003d0 52 df 3a 3d e5 e7 04 3e 5f f9 98 3e 82 53 f2 3e
       0.04562313 0.12979086 0.29877755 0.47329336
0003e0 da 89 5e bc 14 af e7 be a7 d8 3e 3e 31 c1 8f 3f
       -0.013582671 -0.45250762 0.18637334 1.1230832
0003f0 04 d3 a1 3c ac 28 4d 3c 0a 03 08 3f ed ac 0f 3e
       0.01975394 0.012521904 0.5312964 0.1403081

fc1.0.bias f4 [64]
000000 bb 62 90 3d 16 d2 e0 3c 6b 5e 3d 3d 79 14 03 3c
       0.07050081 0.027443927 0.046232622 0.0080004865
000010 ca ed 82 3d 02 3d 25 3d 9f 1a 41 3c a6 ef c6 3c
       0.06393011 0.040341385 0.011786132 0.024284195
000020 11 27 cc b8 06 2c 97 3c 04 31 78 bc 9a db 27 3c
       -9.734755e-05 0.01845361 -0.015148405 0.010245228
000030 35 70 f3 3b 6c db 31 3c 3e c2 58 bc 8f 30 70 3c
       0.0074291476 0.010855537 -0.013229905 0.014660015
000040 1d e9 42 3d 33 97 74 3d c3 75 a5 3b e7 e1 cf 3c
       0.047585595 0.059714507 0.0050494387 0.025376273
000050 ae 47 b5 bc 72 ed bb 3b a2 76 98 3c ba 2d ae 3d
       -0.022128906 0.005735093 0.018611256 0.085048154
000060 42 67 54 3d 19 b9 b1 3c f3 42 c5 3c 6d ab a3 3c
       0.051856287 0.021694707 0.024079775 0.019979203
000070 d9 ab da 3b 7f 09 13 3b 50 86 9e b9 79 e8 aa 3d
       0.006673318 0.002243608 -0.0003023618 0.08345122
000080 c0 8e 96 bc 06 36 d6 3b 1b 9d cd 3c 3a 74 82 3d
       -0.018378615 0.006537202 0.025099328 0.06369825
000090 b3 ad f2 3c 6e 1e 94 3c 0a 21 d6 3a 30 8c 39 3d
       0.029623842 0.018080916 0.0016336751 0.04529971
0000a0 6b 85 77 3c 19 60 c4 3c a3 60 ab 3c 60 ba 53 3c
       0.015107493 0.023971604 0.020920103 0.012922853
0000b0 62 4a 38 3c e4 9b 94 3c a4 e9 b5 3c a9 2d 7b 3c
       0.011248203 0.01814074 0.022206135 0.01533071
0000c0 d5 a2 77 3c bd 0d 80 3c 00 5f b0 3c 78 80 e2 bb
       0.015114506 0.01563155 0.021529675 -0.0069122873
0000d0 6a d5 4c 3c 2a 6d 8e 3b 2e c3 c0 ba 93 c2 3d 3c
       0.012502054 0.0043465095 -0.0014706606 0.011582035
0000e0 32 70 e8 bb 23 91 fd 3c 87 7c 91 bc 24 4f 4f 3c
       -0.007093453 0.030952996 -0.017759575 0.012653146
0000f0 8e a1 6b ba bf 61 23 3b 28 98 03 39 47 4e 99 bc
       -0.0008988612 0.0024930087 0.00012549816 -0.018714083

fc1.1.weight f4 [64, 500]
000000 44 b9 0f bf 8e fb 22 b8 78 35 82 b8 99 02 1a 38
       -0.5614207 -3.885809e-05 -6.2088424e-05 3.671888e-05
000010 ef b2 4c b7 a1 27 cd b6 34 dc 89 38 bc cf 8e 36
       -1.2201009e-05 -6.1140895e-06 6.573685e-05 4.2561132e-06
000020 5e 37 9e bc 75 e1 76 b7 8f 59 af b7 44 03 b1 37
       -0.01931351 -1.4715236e-05 -2.090333e-05 2.1101565e-05
000030 43 66 0c 37 10 3d df b5 70 94 0a 38 74 c0 52 bd
       8.36846e-06 -1.6632566e-06 3.3040007e-05 -0.05145307
000040 a6 d0 09 39 f8 e8 26 b5 5b dd 17 b8 10 93 fb 37
       0.00013143066 -6.2178833e-07 -3.620736e-05 2.9990013e-05
000050 c9 a6 24 38 87 52 2b 39 66 82 20 37 fc a1 6b b8
       3.9255978e-05 0.00016338575 9.567104e-06 -5.6179226e-05
000060 a6 08 06 37 4d 56 1e 39 ad fe 5e b8 53 10 e1 b7
       7.989036e-06 0.00015100204 -5.316611e-05 -2.6829692e-05
000070 83 a6 1d 37 0f 8e 33 38 e3 f1 19 b8 33 9f c4 38
       9.396698e-06 4.2809228e-05 -3.6703317e-05 9.3756615e-05
000080 b8 b0 07 bc d2 c9 7b ba 24 cc 3d 38 a6 1b 87 b7
       -0.008281879 -0.00096049637 4.5251232e-05 -1.6106129e-05
000090 d1 b3 22 36 4f b1 52 36 98 be 08 b8 77 be 70 37
       2.4244548e-06 3.1395646e-06 -3.260243e-05 1.4349461e-05
0000a0 85 c7 53 b8 f5 01 30 b8 22 e7 2a 38 51 d7 60 b7
       -5.0492137e-05 -4.1963493e-05 4.0746418e-05 -1.3401573e-05
0000b0 d6 0d b4 b6 5c 43 cd 36 12 26 7a b7 f3 7f 5f 37
       -5.3660287e-06 6.1173178e-06 -1.4910025e-05 1.3321626e-05
0000c0 27 63 ba 37 92 64 ef 38 0d 2c c6 b7 4a 48 db b7
       2.22191e-05 0.00011415141 -2.3623952e-05 -2.6140497e-05
0000d0 c8 a9 34 39 27 51 fc 37 07 95 ae 38 83 4c a3 37
       0.00017229386 3.007853e-05 8.324725e-05 1.9466743e-05
0000e0 6c ba 5a 38 c4 7a 4b 38 f6 72 04 b8 cd 36 17 38
       5.214887e-05 4.8513306e-05 -3.1578318e-05 3.6052243e-05
0000f0 5d c7 ee 38 77 d3 08 38 4a 77 35 b8 e9 3b 90 b8
       0.00011385859 3.262187e-05 -4.326486e-05 -6.877614e-05
000100 19 b6 cd 37 f1 ed 63 37 66 68 83 37 d8 c2 8b 38
       2.45227e-05 1.3585654e-05 1.5665031e-05 6.664329e-05
000110 8e 62 ab 37 05 d5 4b b8 74 e9 f6 b8 04 f3 c2 b7
       2.0430682e-05 -4.859736e-05 -0.00011773678 -2.3239765e-05
000120 46 43 5e b7 57 20 0d b8 0d 24 e9 b7 2f 95 90 37
       -1.32478945e-05 -3.364714e-05 -2.7792552e-05 1.7235607e-05
000130 32 3e 22 37 ee d9 33 38 5f 91 11 36 0d f8 12 38
       9.670433e-06 4.287989e-05 2.16913e-06 3.5040128e-05
000140 45 03 f2 35 db 99 66 38 2a 70 4d b7 d7 50 97 37
       1.8031357e-06 5.4979562e-05 -1.2245067e-05 1.8038247e-05
000150 05 c7 15 37 84 e1 34 38 f8 e9 2f 38 68 1b b4 37
       8.92743e-06 4.3125372e-05 4.194115e-05 2.1470434e-05
000160 22 3a 51 38 2e 1f 9c 3a 15 08 e0 b8 c7 f4 12 35
       4.9883623e-05 0.0011911148 -0.00010682658 5.4745436e-07
000170 41 eb b2 b8 42 91 41 39 2e 8d 88 37 83 5c 25 b8
       -8.531521e-05 0.00018460027 1.6278205e-05 -3.9425224e-05
000180 a1 d6 12 38 91 cd 02 b8 48 c0 91 37 4d be 2c 38
       3.5009e-05 -3.1185864e-05 1.7374885e-05 4.1185227e-05
000190 1c 7e 96 37 e3 fa 32 b8 fe b7 7f 38 1c 05 c4 37
       1.7940118e-05 -4.2672164e-05 6.0968094e-05 2.33674e-05
0001a0 de f0 66 b8 15 7d d1 37 f3 84 b8 b7 48 c9 ce 37
       -5.50606e-05 2.4972987e-05 -2.1996419e-05 2.4650843e-05
0001b0 3c c6 18 b8 fb 2b 42 38 a1 da 2b 38 ae fd 26 38
       -3.6424244e-05 4.6294164e-05 4.097319e-05 3.981374e-05
0001c0 2a bc 57 38 8f 95 bb b7 92 54 82 b6 fe 7b 06 36
       5.1435236e-05 -2.236178e-05 -3.884147e-06 2.003973e-06
0001d0 43 fa ba 37 88 c1 32 b8 2a 8f e6 37 34 be 8b 38
       2.2289465e-05 -4.2618747e-05 2.7484803e-05 6.6634646e-05
0001e0 a3 88 41 b8 6d c2 9b 38 a9 c2 6f b8 49 9e 6b 36
       -4.614204e-05 7.4271906e-05 -5.716333e-05 3.5109863e-06
0001f0 3c 79 13 b8 ef b7 6d 37 b2 a1 25 38 aa e2 4e b7
       -3.516044e-05 1.4169126e-05 3.9489656e-05 -1.2331331e-05
000200 99 19 29 38 7a 63 79 b6 be 0a 53 b8 86 77 05 38
       4.031658e-05 -3.7161794e-06 -5.0316325e-05 3.1820986e-05
000210 0a 3d 89 38 a6 3d 6c b8 25 c9 4a b8 68 f0 34 b7
       6.5440385e-05 -5.63242e-05 -4.8347883e-05 -1.078481e-05
000220 01 ae 60 b8 cd 4a a9 b8 7a 91 b5 37 76 a1 d1 38
       -5.3567815e-05 -8.072481e-05 2.1644624e-05 9.995971e-05
000230 6b cf 1e 38 ef 41 6c 35 82 0a da b6 bb c8 51 b8
       3.786331e-05 8.8012797e-07 -6.4981296e-06 -5.0016428e-05
000240 f1 ae 3e 37 dc 4a ad b7 7d 18 06 38 3d 91 41 38
       1.1365614e-05 -2.0658066e-05 3.1970896e-05 4.615005e-05
000250 2e d1 b9 37 35 fa 5e b9 c5 b1 df 37 99 48 17 38
       2.2151125e-05 -0.00021264779 2.6666452e-05 3.6068817e-05
000260 1e 7d c3 37 71 58 ea b7 13 ab c1 37 b5 2c 18 38
       2.3304074e-05 -2.7936157e-05 2.3087056e-05 3.628126e-05
000270 49 b9 d9 37 71 d0 7a b8 36 72 92 38 b4 58 06 39
       2.5954696e-05 -5.979877e-05 6.983096e-05 0.0001281228
000280 c6 d5 24 38 12 4d 9a b7 06 60 94 b7 52 23 02 38
       3.929974e-05 -1.839412e-05 -1.768769e-05 3.102731e-05
000290 bf 10 3f 38 98 d4 08 b8 4c 70 f3 b7 1e 81 d7 b7
       4.5553545e-05 -3.262292e-05 -2.902015e-05 -2.5690122e-05
0002a0 fb f6 a1 b8 c8 49 9d 38 ed ae e0 37 79 a6 5a 38
       -7.723082e-05 7.500086e-05 2.6784337e-05 5.213029e-05
0002b0 9f 50 de 36 30 bb df b7 87 03 31 b7 f5 40 dc b7
       6.625501e-06 -2.6670838e-05 -1.0550843e-05 -2.6256292e-05
0002c0 f2 94 11 b8 40 a3 3f 38 a1 b6 d7 37 ca 2c 52 37
       -3.470941e-05 4.5689987e-05 2.571504e-05 1.2527404e-05
0002d0 4c c8 92 38 59 08 d8 37 ab e3 1d b8 07 d1 da 38
       6.999131e-05 2.5753094e-05 -3.764375e-05 0.000104339844
0002e0 9d e2 8e b9 a9 25 db 37 0c 70 41 38 0b 96 59 b8
       -0.0002725319 2.6124371e-05 4.6119138e-05 -5.187657e-05
0002f0 c5 df 1c 38 3f 0f 40 38 46 56 45 b8 7f b3 fa b7
       3.74017e-05 4.5790566e-05 -4.704881e-05 -2.9885907e-05
000300 17 fa 21 b8 fe 83 93 37 e8 84 3d b7 47 91 58 b8
       -3.8618306e-05 1.758523e-05 -1.12962225e-05 -5.1633713e-05
000310 d7 e7 64 bc c9 bb 14 b8 4e f6 0e b8 47 37 8b 36
       -0.013971291 -3.546084e-05 -3.4084827e-05 4.148958e-06
000320 3a ee b6 b7 20 37 00 39 ef 57 f4 ba 77 da 38 38
       -2.1807024e-05 0.00012227567 -0.0018641929 4.407248e-05
000330 49 95 be b8 d6 bf 3e b8 94 8c 63 37 de 1c 81 b7
       -9.0877125e-05 -4.547819e-05 1.3562985e-05 -1.539144e-05
000340 63 6f c7 37 88 4c 2c 38 4e c7 17 b7 ca 66 cc 37
       2.3774517e-05 4.107927e-05 -9.046706e-06 2.436656e-05
000350 f1 f2 77 38 77 55 7d 38 1e c1 26 38 34 14 20 b8
       5.9115646e-05 6.0399496e-05 3.975734e-05 -3.816579e-05
000360 bb b5 81 36 3d ac 93 37 52 f0 a0 35 3f 63 ce 36
       3.865656e-06 1.760397e-05 1.1990871e-06 6.150832e-06
000370 78 bc 68 b7 a4 39 cb b8 7a 14 47 38 6d 2c 41 b8
       -1.3872159e-05 -9.690531e-05 4.7464368e-05 -4.605616e-05
000380 15 f5 81 b8 61 00 18 38 5c e3 ae 36 d8 70 1f b8
       -6.1968494e-05 3.6239977e-05 5.212072e-06 -3.8013648e-05
000390 a8 90 23 38 e6 93 ef 37 96 a6 50 b8 50 d3 74 b8
       3.899695e-05 2.855989e-05 -4.974621e-05 -5.8370933e-05
0003a0 2a e6 3e 38 7c fa 96 b7 aa 51 be b8 6a 96 a2 b8
       4.5513887e-05 -1.7998034e-05 -9.075117e-05 -7.752779e-05
0003b0 05 ab e8 36 d6 12 a4 37 1d 14 4b 38 b0 05 b8 36
       6.934048e-06 1.9559095e-05 4.8417704e-05 5.4842894e-06
0003c0 3b 9b e2 b6 89 21 0e 38 c0 2e c2 36 37 44 4e b8
       -6.753396e-06 3.388667e-05 5.787093e-06 -4.9177757e-05
0003d0 40 ff f9 b7 f8 70 50 b8 dd 59 2f b8 68 da 10 39
       -2.9801973e-05 -4.9696275e-05 -4.1806943e-05 0.00013814273
0003e0 ac 27 7d b8 52 0c 11 b7 bf 90 02 b8 6d 29 32 39
       -6.0356848e-05 -8.645542e-06 -3.112922e-05 0.00016990835
0003f0 c8 3e cf b7 86 9f 10 b8 15 46 a2 37 3a f7 01 b8
       -2.4705558e-05 -3.4480843e-05 1.934454e-05 -3.0986244e-05

fc1.1.bias f4 [64]
000000 22 b1 ac 3e 60 be c5 bd cf 23 9b 3e f1 d8 63 3e
       0.33728892 -0.09655452 0.30300757 0.22250725
000010 fc 62 c6 3e 60 71 c0 3e 09 44 4b bd 92 6b 90 3e
       0.38747394 0.37586498 -0.04962543 0.2820707
000020 cd f0 9e be cf a5 86 bf 95 3e a2 bf 1d f6 ba 3e
       -0.3104309 -1.0519351 -1.2675349 0.36515895
000030 c3 8b b5 3e f9 3c 6e 3e e3 ef a9 3e a4 63 d0 3e
       0.35458192 0.23265447 0.33190832 0.4070102
000040 eb 42 d8 3e 4e 06 a1 3e 4d 1a a9 be d2 9c 7e bf
       0.42238554 0.31450123 -0.33027878 -0.9945804
000050 93 0a 7b 3e 72 96 ca be fd 66 9f be ba 37 d7 3e
       0.24515752 -0.39567906 -0.3113326 0.42034703
000060 34 10 bd 3e cb 8a 5d 3e d6 34 7f 3e 7c e5 c5 3d
       0.36926425 0.21634977 0.24922499 0.09662911
000070 1b 7e c0 bd a9 c2 99 bf e2 17 06 3e 93 25 e0 3e
       -0.09399053 -1.201253 0.13095048 0.43778667
000080 24 61 a4 3e 1b 4b 8c bf ee f4 5c bd 44 08 e0 3e
       0.32105362 -1.096042 -0.05394452 0.43756306
000090 fb d1 95 3e b4 51 b7 3e 66 36 02 3f 63 30 9d 3e
       0.29261765 0.35804522 0.50864255 0.3070098
0000a0 6a 78 0b be 34 3e a0 bf d5 91 33 3e 45 fa 8d 3e
       -0.13620153 -1.2518983 0.175361 0.27730003
0000b0 bd 38 6e 3e c8 24 65 3e 4a c9 81 bf 30 22 e4 3e
       0.23263831 0.22377312 -1.0139554 0.44557333
0000c0 34 86 6b 3e 49 60 90 3e a4 c2 8f 3e 7c af 8a 3e
       0.23000413 0.2819846 0.28078187 0.2708701
0000d0 bf 98 2b bf 39 90 bc 3e 3a 0c 6f bf a2 94 2e 3e
       -0.6702995 0.36828783 -0.9337803 0.17048886
0000e0 67 ba be 3e d6 18 cc 3e 51 f2 9a 3e 0a 30 85 3f
       0.3725159 0.39862698 0.30262998 1.0405285
0000f0 81 17 98 bf 24 ee 65 3e f9 35 72 bf b1 ce 65 bf
       -1.1882173 0.22454125 -0.94613606 -0.8976851

fc1.2.weight f4 [64, 500]
000000 1f 16 a4 bf fd b1 74 37 6f 34 87 3b d0 e0 84 ba
       -1.2819251 1.4584974e-05 0.0041261236 -0.00101378
000010 ac c8 85 b8 87 38 e7 3b 35 b9 f6 b9 75 f5 49 3b
       -6.379312e-05 0.007056299 -0.00047058766 0.003081647
000020 19 18 50 be ef 2a 9c bb 9a d0 68 3a 65 3b be b8
       -0.20321693 -0.0047658603 0.0008881182 -9.070969e-05
000030 87 86 9d 39 eb af 98 bc a5 c2 9a ba 07 8c 9a be
       0.00030045604 -0.018638572 -0.0011807276 -0.30184957
000040 2b cb 0e 3e cc a9 53 bb 9b b9 94 39 69 70 48 37
       0.1394469 -0.0032297252 0.00028367047 1.19471015e-05
000050 44 5c 98 39 03 ea a6 bc 29 8a 4f ba ad c7 6b bb
       0.00029060442 -0.020375257 -0.0007917011 -0.003597717
000060 3f 32 3a bb 2e 98 01 bd 0d d8 e8 38 72 43 85 37
       -0.0028411297 -0.03163927 0.00011102865 1.5886242e-05
000070 c9 58 16 bb b5 e0 16 3b 4a ab 90 39 ac 2e 6d 3b
       -0.0022941104 0.002302212 0.0002759344 0.0036191149
000080 64 47 cc bc 5b 53 03 bd 27 68 08 b9 f9 7c 21 3b
       -0.024936385 -0.032061916 -0.0001300877 0.002464114
000090 84 e3 d2 ba cb e8 23 39 7c f3 2a bd 66 a6 c1 bb
       -0.0016089533 0.00015631613 -0.04173611 -0.005909729
0000a0 17 76 84 3b ae 99 a9 b9 c2 f8 a3 ba ae 3d 8a bb
       0.0040423977 -0.00032348692 -0.0012510049 -0.0042187786
0000b0 8f be 6a 37 8a 98 73 37 c8 d6 e7 38 0e 52 c2 3a
       1.3991855e-05 1.4519444e-05 0.000110549445 0.001482548
0000c0 c6 d0 b7 38 f7 70 23 3d 91 d4 05 b6 1c 42 b6 b8
       8.765007e-05 0.039902654 -1.9942274e-06 -8.69075e-05
0000d0 31 3f 35 3c 2b 94 39 bc 2e 1e d1 bc f6 da 0a 3b
       0.011062429 -0.01132683 -0.025527086 0.002118764
0000e0 58 61 f1 3a 39 b7 db b9 cb 96 32 38 63 47 eb b8
       0.0018415852 -0.00041907447 4.2578944e-05 -0.0001121897
0000f0 4c b4 cb bb f5 b8 21 ba e0 6b 14 3b 96 4e ad 37
       -0.0062165614 -0.00061692233 0.0022647306 2.0659802e-05
000100 66 ec 86 b8 5f 5f 0c ba 58 10 ee 37 3e 3f 3b 3d
       -6.4336506e-05 -0.00053547876 2.8379422e-05 0.04571461
000110 41 11 63 39 ec 49 d3 39 f6 e7 29 3e 38 89 87 3c
       0.00021654835 0.00040300132 0.16592392 0.016544923
000120 04 84 1e bb 4c fa a4 36 89 46 c1 bb 1f 00 82 b7
       -0.0024187574 4.9167193e-06 -0.005898301 -1.5497264e-05
000130 67 d0 23 37 78 15 40 ba c4 bb ff b7 c5 2d 4d 39
       9.76408e-06 -0.0007327418 -3.0485804e-05 0.00019567374
000140 a2 41 a9 b6 88 ea d1 ba 7f 97 26 b9 d5 96 30 bb
       -5.044233e-06 -0.001601533 -0.0001588743 -0.0026945372
000150 4c 6d fc 38 47 eb 6d 38 70 de b6 3b e8 cc 46 34
       0.000120366545 5.6724322e-05 0.005580716 1.8514731e-07
000160 b8 5c a2 b6 30 96 03 3f ac 9f c1 3b 9f 51 60 b8
       -4.83877e-06 0.5140104 0.005908927 -5.3481777e-05
000170 bf 9c ad bb 10 bc f4 bc 25 92 05 b9 4d 4e d4 3b
       -0.0052982266 -0.029874831 -0.00012738311 0.0064790607
000180 d2 bf a2 b7 66 db 25 b7 a1 1a 2d bb a1 90 86 37
       -1.9401228e-05 -9.885849e-06 -0.0026413577 1.6041393e-05
000190 c0 ee 4d b8 37 2c b7 38 ff ea 90 39 cd 9b 64 38
       -4.9098162e-05 8.734356e-05 0.00027640906 5.4504537e-05
0001a0 30 b0 1e ba 2c 86 03 3a e1 14 bc 3b 43 74 d8 b8
       -0.00060534757 0.00050172466 0.0057397936 -0.00010321338
0001b0 8c 76 65 b8 98 70 8d 3a c2 dd 1a bc 84 c5 74 37
       -5.470826e-05 0.0010791002 -0.009452285 1.4589521e-05
0001c0 61 05 4d ba eb 7c 6b b8 06 4b 1b 38 7d fd a8 b8
       -0.0007820931 -5.6144705e-05 3.702475e-05 -8.05808e-05
0001d0 3b a5 f5 39 d2 ac bb b6 76 b3 88 3a 14 76 88 bc
       0.00046853148 -5.593153e-06 0.001042946 -0.016657867
0001e0 3d 4a 95 37 82 ff 3b 3b 90 ce 75 3c ae d6 ee ba
       1.7796754e-05 0.002868623 0.015002862 -0.0018221939
0001f0 6e 8c e9 b6 fd c2 a1 b7 4d c7 8e b6 ca e3 65 b7
       -6.9602893e-06 -1.9283494e-05 -4.2551314e-06 -1.37025e-05
000200 a2 e8 ae b7 66 25 d4 36 a0 d8 04 3a 61 ba 88 3a
       -2.0850744e-05 6.322446e-06 0.000506768 0.0010431522
000210 05 b3 58 b7 b0 67 9b 37 b5 0e c4 37 ca a6 24 37
       -1.29162845e-05 1.8525723e-05 2.337187e-05 9.813995e-06
000220 5c a6 59 37 10 b2 bd b6 4c ca 42 3a c6 0d 61 3c
       1.29729415e-05 -5.653368e-06 0.0007430657 0.013736194
000230 f1 cc c9 36 13 e8 11 38 bd e5 d2 3b 09 18 05 37
       6.014125e-06 3.478683e-05 0.0064360783 7.933014e-06
000240 03 d8 e7 34 df 77 29 37 fd 39 86 3a 87 5a 27 ba
       4.3184272e-07 1.0101095e-05 0.001024067 -0.0006384034
000250 eb 51 85 b7 73 21 91 3d d1 ce 9f 34 c7 5f 20 b7
       -1.5892982e-05 0.07086458 2.9766537e-07 -9.559043e-06
000260 19 6f 61 b8 df 88 1b b7 83 08 f7 35 6d 55 dd 3a
       -5.3747648e-05 -9.270588e-06 1.8405411e-06 0.0016886421
000270 d4 5d 94 37 c5 ab a3 38 2f 7e f2 37 05 e1 af bc
       1.7686667e-05 7.80444e-05 2.8907407e-05 -0.021469602
000280 d4 e1 97 3b 10 ed 33 35 4e 08 b3 3d 66 36 5e b7
       0.004635075 6.702767e-07 0.08741818 -1.3244897e-05
000290 e5 92 e4 ba 5e 20 9b b7 b3 b2 0d 3b a4 e5 c6 b8
       -0.0017438798 -1.8492512e-05 0.0021621406 -9.4841496e-05
0002a0 2d ad 97 ba 2e ed e7 bc f7 43 bb b5 35 37 9a b8
       -0.0011571996 -0.028311338 -1.3952366e-06 -7.353575e-05
0002b0 ae ca 3e b8 4d 33 23 bb 36 62 09 b8 e7 9f b6 3c
       -4.548829e-05 -0.0024902404 -3.275481e-05 0.022293044
0002c0 20 53 af b8 57 bd 19 3a e3 a1 c1 36 ca d0 05 3b
       -8.3601335e-05 0.00058647007 5.7706943e-06 0.0020418637
0002d0 74 46 7a 3a 6f e2 db 37 a9 81 b1 b7 cf 62 82 ba
       0.00095472415 2.6212276e-05 -2.1160422e-05 -0.000994766
0002e0 70 9f a6 bd 4a a0 63 ba 9a 92 71 b8 54 9c 37 39
       -0.08135879 -0.0008683248 -5.759541e-05 0.00017510477
0002f0 c3 37 12 37 39 1d 7f 36 77 a6 cb 3a 4c d1 20 3b
       8.715261e-06 3.801497e-06 0.0015537281 0.0024538813
000300 45 fc 6b bc e4 6d 9a b8 2e c3 96 b8 80 e3 6a b7
       -0.014403407 -7.363761e-05 -7.1889124e-05 -1.4000456e-05
000310 77 06 9a bc dc 66 97 b6 5a 0c 93 37 d0 71 91 b7
       -0.01880191 -4.512125e-06 1.7529517e-05 -1.7338345e-05
000320 80 d5 7e ba eb 00 86 3c cc af 5d bd 02 b7 43 b8
       -0.0009721145 0.01635786 -0.05412273 -4.6662062e-05
000330 2a db 34 3c 58 68 f7 3b c6 b7 15 38 7f 03 26 36
       0.011038581 0.0075502805 3.569552e-05 2.4737963e-06
000340 33 2f 7f b7 e4 54 e0 b5 75 ea 00 b8 9d 28 f7 b8
       -1.5210174e-05 -1.6714007e-06 -3.0735933e-05 -0.000117854426
000350 17 f5 17 b9 2d 4f 9d 37 33 ee f1 37 70 ca fc b6
       -0.00014491785 1.8752728e-05 2.8840359e-05 -7.533752e-06
000360 46 6f 83 38 52 7a 45 b8 f2 09 96 b6 c2 5b 18 3b
       6.267293e-05 -4.708238e-05 -4.471506e-06 0.0023248051
000370 89 a4 9d b6 95 52 1f b8 a3 ec bf 39 93 7f 9a b8
       -4.698119e-06 -3.7985465e-05 0.00036606667 -7.367055e-05
000380 fe c2 4f b8 c1 ec 83 37 70 13 5a 38 c0 e7 93 b9
       -4.9534247e-05 1.5726664e-05 5.1993353e-05 -0.00028210692
000390 05 ef 1f 37 5e 4f c5 37 e8 aa 20 35 98 0e 3c ba
       9.53279e-06 2.3521188e-05 5.9853346e-07 -0.00071738055
0003a0 ba 5d 8e 3c f0 6e dd 36 47 4e 0a bc 3c 90 cd 3a
       0.017378677 6.599228e-06 -0.008441514 0.0015683244
0003b0 58 25 e8 ba 72 15 98 3b 02 71 0b 3a 5a e2 ae b8
       -0.0017711325 0.0046412284 0.00053192687 -8.339128e-05
0003c0 28 22 0b 3c 1c 16 1a 38 2e 3c 14 38 4c e6 d2 37
       0.00849203 3.6737052e-05 3.5341996e-05 2.5141191e-05
0003d0 3b fa ba b8 4c 0a 45 b7 44 53 d2 b7 24 f9 5f 3c
       -8.91578e-05 -1.1744512e-05 -2.5072724e-05 0.01367024
0003e0 32 25 c4 bc 3c e1 db b6 38 40 d7 b5 48 52 f7 3d
       -0.023943517 -6.5529293e-06 -1.6037438e-06 0.12076241
0003f0 ab 3d 2f b9 c7 c6 9d b8 b0 af 64 b7 e2 b2 d7 b6
       -0.00016712274 -7.5233685e-05 -1.3630764e-05 -6.428324e-06

fc1.2.bias f4 [64]
000000 63 7f 85 3d 1e 23 38 3e 06 a3 91 3d 18 6d 3d be
       0.06518438 0.17982146 0.071111724 -0.18498647
000010 f0 0a 47 3e 0b cc c4 3c 8b 25 e4 3e 2c 77 27 bd
       0.19437766 0.024023077 0.44559893 -0.040885136
000020 ab 95 c2 bb e0 d1 30 3e 93 fa 6c 3d 87 b4 f9 bd
       -0.005938252 0.17267561 0.057856154 -0.12192636
000030 f3 51 f6 3d 54 ad 3a be 7e dc 8c be fa 7d f7 3c
       0.12027349 -0.18230182 -0.27511972 0.030211437
000040 3f 9a 34 3d a4 36 2c 3e be 09 3f 3d 0f a1 39 bd
       0.044092413 0.16817719 0.04664015 -0.045319613
000050 ff 6f aa be b2 67 cd 3a 83 3c a6 bd 5c ba 88 3e
       -0.3328857 0.0015671162 -0.081170104 0.2670468
000060 cc 98 35 3e ac b6 5e 3e 6a 3c 0d 3e e0 38 69 3e
       0.17734069 0.21749371 0.13792577 0.22775602
000070 67 60 fe 3d fc 11 4e bc ea 16 7e 3e 98 db 1b 3e
       0.12420731 -0.01257753 0.24813429 0.15220487
000080 eb 87 d4 be 92 3e 60 3d 0b ea 38 3e 0f 6f 6c 3e
       -0.41509947 0.05474717 0.1805803 0.2308924
000090 c7 22 76 bd ba 1e b6 3e e6 f8 29 3e d4 e2 f7 bc
       -0.06009176 0.35570318 0.16598853 -0.030259527
0000a0 ea 81 90 3e 7b 00 6c 3d b2 bd fb 3e 87 1f 67 be
       0.28224117 0.057617646 0.49168164 -0.2257062
0000b0 e5 d4 28 be c9 00 89 3e a4 01 5e bd 48 b9 16 be
       -0.16487463 0.26758412 -0.054200783 -0.14719117
0000c0 9e 3f 81 3e a8 28 10 be 7b 0e d0 bd ee c1 88 be
       0.2524385 -0.14078009 -0.10159012 -0.26710457
0000d0 62 3c c9 bd a4 10 c0 be 34 35 94 3d c3 74 8a 3e
       -0.0982597 -0.37512696 0.0723671 0.27042207
0000e0 c7 29 c5 bb 80 8a f7 bd 8d 79 bd be d4 5e f0 bc
       -0.006016943 -0.12086964 -0.37006798 -0.029342093
0000f0 1f 98 7f 3d 61 0b a1 3e b3 a6 56 3c 68 9d 1c be
       0.062400933 0.31453994 0.013101268 -0.1529442

fc1.3.weight f4 [64, 500]
000000 b8 77 81 bf 0d fa 09 3e 79 49 fc 3d 27 45 9c 3e
       -1.011466 0.13474293 0.12318701 0.3052151
000010 1b dd 47 3e fc 5a ca 3e 90 61 47 bf d6 71 a2 bc
       0.19517939 0.3952254 -0.77883244 -0.019829672
000020 5c 48 dc be 54 fd 12 bf 9c 81 e9 bd 06 de 26 3d
       -0.43023956 -0.574178 -0.11401674 0.04073908
000030 c6 4d 14 be f4 d2 bc be 49 cd 2b be ff b0 0d bf
       -0.14482793 -0.36879694 -0.16777529 -0.553482
000040 9e 57 1a 3f 52 5e f5 bc de f4 c8 3a 0e bc e6 bd
       0.60289943 -0.029952202 0.0015331765 -0.11266337
000050 ab f7 9b bd 99 c3 95 be 6b 4d a2 be f9 7f 92 3e
       -0.07615598 -0.29250792 -0.3169969 0.2861326
000060 b4 75 c3 bd e9 52 36 bd 7b c9 dc be b3 71 63 bd
       -0.095439345 -0.044512663 -0.43122467 -0.055528354
000070 fd ec cb bd 67 fe 0d 3f 1e 05 d9 3d 9f 55 bf be
       -0.09957311 0.5546631 0.10596679 -0.3737001
000080 02 9b 8c 3d b7 c8 6f 3e e6 19 82 bd fa 49 c7 be
       0.06865503 0.2341641 -0.06352596 -0.38923627
000090 07 ee bf 3d 94 e9 18 bc de ed dd bd 83 d7 ef 3d
       0.09371572 -0.009333033 -0.10836385 0.117110275
0000a0 c9 fc 3d bd b8 c1 28 3e 9a 5a 3e be 70 d9 14 3d
       -0.046383653 0.16480148 -0.18589249 0.036340177
0000b0 af 17 b4 bd da 40 d0 bd 39 23 ef 3c fd b4 1f be
       -0.0879358 -0.101686195 0.0291916 -0.15596385
0000c0 ff c6 a2 3e 7e 5a 88 bc 45 ef 66 be 29 52 b8 3e
       0.31792447 -0.016644713 -0.22552212 0.36000183
0000d0 69 c4 eb bd 8b 5a cc bd 29 b0 1e 3e 21 ab dd be
       -0.11512072 -0.09978207 0.15496887 -0.43294623
0000e0 49 bc b0 3e 44 6c 83 3e 63 a5 af 3e 5f 3f ee 3e
       0.3451865 0.25668538 0.34305868 0.46532723
0000f0 c6 70 89 3e 6c 67 95 3d f1 36 48 bc 10 bf 98 3e
       0.26843852 0.07295117 -0.01222013 0.2983327
000100 18 41 f8 bd 6d a3 38 3e ab c1 4a be f2 22 8f 3e
       -0.12121791 0.18031092 -0.19800441 0.2795635
000110 4a ca 0a 3e 94 df 94 be eb 2f 65 3f 5a 62 98 3e
       0.1355373 -0.29076827 0.8952624 0.29762536
000120 ac f5 18 3e f3 22 3c 3e ef 0f a7 be b8 69 93 be
       0.14937466 0.18372707 -0.32629344 -0.28791595
000130 ef 7a 7e be 73 1c 28 bf d7 b1 ad bc 22 f3 d3 bd
       -0.24851583 -0.6566841 -0.021202965 -0.10349108
000140 3f 11 de bd 8b ad 1b 3e 17 1e 42 be 5a 14 72 be
       -0.10843133 0.1520292 -0.18956791 -0.23640576
000150 82 5a c1 bc fe 3e 7a 3e b2 71 cc 3d ea 5d e9 bc
       -0.023602728 0.24438092 0.09982623 -0.028487165
000160 03 86 34 bd b0 be 88 3f 1b 63 9c 3e f6 fa 48 be
       -0.044073116 1.0683193 0.3054436 -0.19626984
000170 6f d2 31 bd 72 5c 11 3e 69 28 73 be 3d 11 b1 3e
       -0.043413576 0.14195421 -0.23745884 0.34583464
000180 bc e7 25 3e 67 85 ab 3e 82 0c 6f 3d c3 28 1c be
       0.16201681 0.33500215 0.058361538 -0.15249924
000190 ca 3a 77 be 11 6e 01 3f 57 2c b6 3e c6 bf bd bd
       -0.2414352 0.50558573 0.35580704 -0.092650935
0001a0 40 28 50 3d 2e d9 3c be d5 59 da 3b bf 40 4e 3e
       0.050819635 -0.18442222 0.006663541 0.20141886
0001b0 34 d3 74 3e c9 93 1e 3d 9d 0d 9b be b0 21 30 3d
       0.23908693 0.038715158 -0.30283824 0.043000877
0001c0 ba 41 ae be 43 88 d1 3c 87 49 be 3d 5e 7f 63 bd
       -0.3403452 0.02557767 0.09291368 -0.05554139
0001d0 d8 12 18 3e 6c 26 84 3d c7 e2 b3 3d 2a 26 5f be
       0.14850938 0.06452641 0.08783489 -0.21791902
0001e0 76 e1 bc 3e 33 48 d3 3e a3 72 9e bb c9 dd a7 bd
       0.36890763 0.4126602 -0.004835443 -0.08196599
0001f0 f8 20 2f be 34 8a fc 3d f5 9e 63 3c 93 03 1a be
       -0.1710242 0.12331048 0.013892879 -0.15040426
000200 18 33 0b be 0a aa 25 be 75 60 33 3d a9 11 26 bd
       -0.1359371 -0.16178146 0.04379316 -0.040544186
000210 0c e1 1e be d2 01 d9 3e e2 56 9d 3e 04 da 92 3d
       -0.15515536 0.423842 0.3073035 0.071704894
000220 52 b3 b4 3e a6 72 5a be c1 e9 67 3e 0f 31 ab be
       0.3529306 -0.21332797 0.22647764 -0.33435866
000230 5d 3e e9 3e 46 8a 00 be 04 98 fa 3e ff 8b ee bd
       0.45555392 -0.12552747 0.48944104 -0.11647796
000240 4b 1f 3c 3e e5 79 2c 3e 8e 01 c6 3e c1 f9 09 ba
       0.18371312 0.16843374 0.3867306 -0.00052633515
000250 f9 40 48 3e 40 b5 34 3e c3 56 d0 be 78 56 ac bd
       0.19556035 0.17647266 -0.40691194 -0.0841493
000260 5b 1a 86 3e 97 db 9e 3e 08 7b 7e be 31 eb 8e be
       0.26191983 0.3102691 -0.2485162 -0.27913812
000270 b3 4a 33 bf 1e 20 77 3e e8 be 9c 3e eb de 60 bd
       -0.70035857 0.24133345 0.306144 -0.05490009
000280 82 aa 75 3c b4 dd 3a bd 3c a3 47 3e d0 d4 bf 3d
       0.0149942655 -0.04562159 0.19495863 0.09366763
000290 1d e2 8d bd 46 d3 37 be 66 b1 c8 be 44 17 a8 bd
       -0.06927893 -0.17951688 -0.39197844 -0.082075626
0002a0 23 44 cb 3e 60 ac 78 be 43 63 13 3f bb bd 34 bd
       0.39700422 -0.24284506 0.57573336 -0.044126254
0002b0 ef 71 bb be b5 01 00 3e 51 28 83 be e5 9f a3 3e
       -0.36610362 0.12500651 -0.25616696 0.31957927
0002c0 d6 5a b5 bd ba 9d 3a 3b ce 27 24 3f 66 5e 52 3e
       -0.08855216 0.002847536 0.6412324 0.20543823
0002d0 4c 62 83 3e 88 a1 d7 3e f2 87 8f bd f6 ce c5 3d
       0.25660932 0.42115426 -0.070083514 0.09658615
0002e0 94 c9 aa be d8 b7 21 be 1e 5c 7d 3e ce 47 a6 bd
       -0.33356917 -0.15792787 0.24742171 -0.081191644
0002f0 ad c3 34 3e 1e 03 1a 3d 1f 61 52 be fd f7 06 3b
       0.1765277 0.03760063 -0.20544861 0.002059459
000300 2e 71 b6 bd 29 80 c0 bc 20 4a 71 3e fc fa 09 be
       -0.08908306 -0.023498612 0.23563433 -0.13474649
000310 56 eb 16 bf 5b e0 2f 3e 2b 09 1d be 83 4a 70 be
       -0.58952844 0.17175429 -0.15335529 -0.23465924
000320 1a 29 dd bd 07 5f 0f 3e 1c 01 43 be 5a 69 20 3e
       -0.10798855 0.14001094 -0.19043392 0.15665188
000330 6b a5 96 be a5 3b f0 3d 77 a3 c8 bd e1 e5 cd be
       -0.2942308 0.11730126 -0.097968034 -0.40214446
000340 7d ff cd 3d 70 1b 9c be d9 f0 2e bd 4d 66 b5 3e
       0.10058496 -0.30489683 -0.04271016 0.35429612
000350 cb 34 ea bd 3b 95 70 bd 17 bf 8e bd 95 6b 80 bd
       -0.11435851 -0.058736067 -0.06970041 -0.0627052
000360 e2 f4 35 3e fd b3 73 be cf a5 8d 3e b6 d7 4b 3e
       0.17769197 -0.23799129 0.27665564 0.19906506
000370 ed 4a 76 be 63 a5 25 be 8e 89 3b 3e 47 87 94 3d
       -0.2405202 -0.16176371 0.18314192 0.072523646
000380 c3 cf 91 be 2e af 85 3e cf fc 3d 3d f8 5f ba bd
       -0.28478822 0.26110214 0.046383675 -0.09100336
000390 91 8c 97 3e bc d0 65 3e d4 3d 40 bc 96 c3 30 3f
       0.2959943 0.22442907 -0.011733491 0.6904844
0003a0 65 d7 05 be 10 e7 50 bd 52 5e ff be ad 1c 1b 3e
       -0.13070448 -0.05100161 -0.49876648 0.15147658
0003b0 1c d2 81 3e 36 02 b6 bd ab 4e 94 3e 2e 66 ac 3e
       0.25355613 -0.088871405 0.2896627 0.33671707
0003c0 54 18 29 3e 4d a2 39 bd 9b 0d bf be 9d 14 90 bd
       0.16513187 -0.045320798 -0.37315068 -0.07035182
0003d0 96 9e b6 3e 2c b6 3d 3e e3 e4 1d bd 3a 2a 6a 3d
       0.35667866 0.18526524 -0.03854836 0.057169177
0003e0 bb 80 39 be 68 c7 10 3f 04 76 e5 3c 3e 31 6e 3e
       -0.18115513 0.5655427 0.028010376 0.23260972
0003f0 fd d0 81 3e 0f d9 d9 3d f1 e9 65 3e f0 a4 90 3e
       0.25354758 0.10637104 0.22452523 0.28250837

fc1.3.bias f4 [64]
000000 04 60 3f 3d 0b 76 9b 3b 23 66 0a 3d 26 ff 4b 3c
       0.046722427 0.0047442964 0.03378881 0.012450969
000010 1b c4 23 3d aa 6f b3 3c d9 83 76 3c e1 a0 73 3c
       0.039981943 0.021903832 0.015046083 0.0148698995
000020 65 9c fb bb bd 18 14 3d 42 3c 2d 3c f9 e1 39 bc
       -0.007678556 0.036156405 0.010573449 -0.01134538
000030 c4 f5 02 3a fc d1 09 3c fe 16 2b 3c f8 7e b8 3c
       0.00049957284 0.008411881 0.0104424935 0.02252148
000040 6c da 36 3d a5 15 fe 3c eb 6f c7 bc cc 6c 2e 3d
       0.044641897 0.03101618 -0.024345359 0.042584226
000050 7d c5 2c 3c b2 5d 84 3c 19 00 6a 3c d8 9f 35 3d
       0.010545132 0.016157959 0.01428225 0.044341892
000060 6c 03 1d 3d 20 ba b6 3b f6 a9 c1 3b 21 28 d9 3b
       0.03833334 0.005576387 0.0059101535 0.006627098
000070 37 bd 6b bc f9 8c 8f bc b8 99 e9 3b af 40 61 3d
       -0.014388374 -0.017523276 0.0071289204 0.054993328
000080 0e bb a3 3c 91 b8 24 bc 95 2c 2f 3c ce d3 fb 3c
       0.019986656 -0.01005377 0.0106917815 0.030740645
000090 c8 45 41 3c d4 ad 96 b9 6a da 0e bd 0e 9b 2c 3c
       0.011796422 -0.00028739742 -0.034876265 0.010535015
0000a0 c9 4f 31 3c f8 3e 1b 3d b4 ab 96 3c 90 d0 1f bb
       0.010822245 0.03790185 0.018392421 -0.0024385788
0000b0 4f 5c 7a 3b 6e 3d 22 3c 02 64 0e 3d 52 00 71 3c
       0.0038201993 0.009902341 0.034763344 0.014709549
0000c0 29 7c a7 3c 78 dc 2e 3c f9 a8 aa 3b 19 36 32 3d
       0.020444946 0.010672681 0.0052081314 0.043508623
0000d0 9b a4 d0 3c 3d 7d 17 3d b7 ce d9 3c 46 16 03 3c
       0.025469115 0.03698467 0.026587827 0.008000916
0000e0 57 ab 1d 3d 41 7e 97 3c 56 0c b5 3c 89 0b a4 bc
       0.03849348 0.01849282 0.022100609 -0.020025032
0000f0 3e d5 b8 bc 8a fb 3f ba 91 99 25 bb cc 0a b3 3c
       -0.02256262 -0.0007323554 -0.0025268535 0.021855734

fc1.4.weight f4 [64, 500]
000000 dd ed bb bf 4a 29 4c 38 9b ef f1 3b 93 7d 75 39
       -1.4681965 4.8675844e-05 0.0073832995 0.00023411801
000010 90 ae f3 37 d0 8e 1a 3c 7d 21 04 38 7a a1 c1 3b
       2.9049144e-05 0.009433463 3.150244e-05 0.005909142
000020 ed bb 38 be 1e d2 70 b7 9d 19 a6 3b b5 f3 08 39
       -0.18040438 -1.43540365e-05 0.0050689713 0.00013060759
000030 13 da 2b b8 4d ab 66 3b c9 e4 99 37 be 15 b7 be
       -4.0972674e-05 0.0035197318 1.8345558e-05 -0.35758775
000040 e9 e7 02 3e 24 8e 8c 3a 7b e0 83 3b 81 fe ad 37
       0.12783779 0.0010723514 0.004024563 2.074172e-05
000050 49 c3 0c 38 7c 97 7a bc 44 82 bc 3b 9a d0 4c bb
       3.3560475e-05 -0.015294906 0.0057528336 -0.0031252266
000060 a2 ea 5c ba 70 c3 db bc b0 5f 78 b8 16 4d 5a b8
       -0.0008427297 -0.02682659 -5.9216924e-05 -5.2047042e-05
000070 af 62 00 b9 6d 15 63 3c 1e d2 41 b8 01 a8 80 bb
       -0.00012243794 0.013860089 -4.6210473e-05 -0.0039262776
000080 6e b3 7d bd 7d 6d e9 bc c4 f8 87 b6 15 66 9b 38
       -0.061938696 -0.02849459 -4.0522737e-06 7.40999e-05
000090 b2 1a 6e 3b e7 21 b3 3a 7d fb cd bc 6a 7d 64 bb
       0.003633183 0.001366672 -0.025144333 -0.0034864792
0000a0 b2 37 19 b7 61 0f 34 3c 2d ad ce 38 45 ae 05 b9
       -9.132478e-06 0.010989995 9.855102e-05 -0.00012748789
0000b0 0d 43 db b8 90 7f 0a 37 90 38 6c b8 50 ef 0b 39
       -0.00010455223 8.255141e-06 -5.6319463e-05 0.00013345224
0000c0 5d 80 85 39 78 fd f1 3d f4 6f 29 37 b1 f7 76 b8
       0.00025463375 0.118159235 1.0099251e-05 -5.888165e-05
0000d0 b8 f3 03 bc 29 c3 80 3c 40 ef 2e bc 8e 55 3f 3b
       -0.008053713 0.01571806 -0.010677159 0.0029195282
0000e0 79 f4 57 3a ff 9e 84 3a c3 5d dc b7 e7 f2 1f 3a
       0.00082380284 0.0010118185 -2.6269705e-05 0.0006101564
0000f0 f9 8f 5b bc 1a 57 a5 39 63 68 9f 3b b1 07 d7 b7
       -0.013401025 0.00031536148 0.004864739 -2.5633579e-05
000100 28 49 36 b7 38 38 de 38 8a 44 93 36 12 ec 8d 3d
       -1.0865078e-05 0.000105962565 4.3889204e-06 0.069297925
000110 6a 2c 95 b8 78 c1 a8 39 47 1e 10 3e b2 f4 3e 3c
       -7.1131464e-05 0.00032187602 0.1407405 0.01165502
000120 11 8f ae 3b 31 7f c2 b8 7c 8f 94 b8 d4 35 95 36
       0.0053271134 -9.274332e-05 -7.083916e-05 4.4468125e-06
000130 46 55 a6 b7 42 a8 45 38 64 c5 b4 37 05 3c 77 b7
       -1.982845e-05 4.7125162e-05 2.154959e-05 -1.4736322e-05
000140 13 2b a1 b8 88 e6 91 39 42 6e 3f b6 00 ed 6a 3a
       -7.6851014e-05 0.00027828314 -2.8525396e-06 0.00089617074
000150 3d 8e ec b7 ee f6 1c 39 10 b2 8a 3b 3e 38 b9 36
       -2.8199627e-05 0.00014969308 0.0042326525 5.519977e-06
000160 e8 62 5c 37 41 5c 06 3f d0 94 91 3b 63 7a a8 b8
       1.313605e-05 0.5248452 0.0044427887 -8.0336606e-05
000170 44 2c 58 ba 84 de 86 bc 5f ce 74 b7 ce 58 7e 3b
       -0.0008246342 -0.016463526 -1.4591583e-05 0.0038810256
000180 c8 a7 a9 b7 1f 6e 20 37 c0 39 16 38 58 29 1a b5
       -2.02245e-05 9.562383e-06 3.581657e-05 -5.7429634e-07
000190 a4 ca 9e 34 b9 8f 03 b8 a3 ee af 3a 23 32 2d b8
       2.9577234e-07 -3.1366686e-05 0.001342256 -4.1293108e-05
0001a0 0e 38 4d 38 d7 d3 24 38 72 67 c6 3b 84 13 90 37
       4.8928014e-05 3.929794e-05 0.006054812 1.7175225e-05
0001b0 27 d9 07 39 5f bb 58 3b 51 22 50 bc e8 8e be b8
       0.00012955499 0.0033070666 -0.012703494 -9.0865244e-05
0001c0 e0 53 9f 39 53 73 a4 37 e2 92 cc b8 cd 80 49 b8
       0.00030389335 1.9604026e-05 -9.754837e-05 -4.804209e-05
0001d0 6e 79 96 b7 af 5f 8c b8 9b 0d 22 b8 1f 8b dc bb
       -1.7937939e-05 -6.693543e-05 -3.863648e-05 -0.0067304517
0001e0 a4 c7 35 38 68 db 8e 3b b9 eb 71 3c 8a b9 6e 3d
       4.3339693e-05 0.0043596514 0.014765673 0.058282413
0001f0 f2 cf 07 b8 0d 86 47 38 1a 73 8d 38 94 e5 af 37
       -3.2380172e-05 4.757014e-05 6.744843e-05 2.0968531e-05
000200 39 61 b0 37 cc b1 ee 37 c0 0b 8a 38 b2 87 4b 3b
       2.1026108e-05 2.8454604e-05 6.5825414e-05 0.0031056223
000210 68 43 d1 b8 58 30 3b 38 a8 55 ac b6 ec 28 17 b8
       -9.978452e-05 4.4629298e-05 -5.135971e-06 -3.6039317e-05
000220 da b6 59 38 ab a2 d0 b8 4d a4 80 3b 73 33 90 3d
       5.1907125e-05 -9.948512e-05 0.003925836 0.07041063
000230 97 5a e4 37 bb c6 9c b7 37 ae 4b 39 92 c1 8e 38
       2.7221902e-05 -1.868919e-05 0.00019424489 6.807143e-05
000240 75 1e 7e 38 4a 31 03 b8 35 d1 29 3c 31 77 60 3b
       6.0586684e-05 -3.1278738e-05 0.01036482 0.003425073
000250 0e a5 ce b8 63 e3 93 3e 56 37 60 37 23 c9 c1 37
       -9.853589e-05 0.2888442 1.3364324e-05 2.3101054e-05
000260 56 c8 6f b6 0c aa 1c b8 66 5b 1f 38 72 5b bc 3a
       -3.5730386e-06 -3.7351667e-05 3.7993676e-05 0.0014370515
000270 3b e8 69 b6 25 ef b8 37 3d 74 72 38 4d 24 e1 bc
       -3.4854882e-06 2.204587e-05 5.780555e-05 -0.02748313
000280 43 f7 22 3a f8 d3 25 b8 f5 42 18 3e 1d 36 d4 37
       0.00062166544 -3.9536477e-05 0.14869292 2.5297568e-05
000290 01 58 7f b7 85 56 8a b6 be 99 a0 3b d4 67 39 37
       -1.5219674e-05 -4.1227927e-06 0.00490114 1.1051034e-05
0002a0 70 01 0d ba c7 de 19 bc 2c 57 82 b5 5b 24 b2 36
       -0.00053789373 -0.009391493 -9.711125e-07 5.3090457e-06
0002b0 04 c3 83 b6 40 2c 6d ba dd a7 45 b8 59 b4 69 3c
       -3.926807e-06 -0.0009047426 -4.7124795e-05 0.01426419
0002c0 3e be 54 36 26 a0 2d 37 37 ef 0a b7 b1 91 08 38
       3.1701197e-06 1.0348891e-05 -8.2811375e-06 3.2560612e-05
0002d0 c6 c7 7e 3a 05 f3 d8 b6 e6 e4 9a 36 dd a7 8e bb
       0.00097190996 -6.465593e-06 4.616205e-06 -0.004353507
0002e0 0c e6 78 bd 2b f6 a2 37 f7 39 20 38 90 0b 08 b8
       -0.060766265 1.9426536e-05 3.8200957e-05 -3.2435695e-05
0002f0 f8 5f 02 38 44 3c 92 b8 b8 bb 0a 3a 3e 19 f0 3b
       3.1083793e-05 -6.973048e-05 0.00052922545 0.007327228
000300 c8 52 bc ba 86 67 e6 b5 ba 6e 15 36 85 2b 63 b8
       -0.0014367932 -1.7166465e-06 2.2267182e-06 -5.4161548e-05
000310 7b 39 fd bd 35 c5 08 b8 d2 b9 a1 34 0b f4 3a 37
       -0.12364479 -3.260859e-05 3.012379e-07 1.1143285e-05
000320 00 f0 fc 37 01 68 19 3d fd 2e db bc ff 5c 04 b9
       3.01525e-05 0.0374527 -0.026755804 -0.00012623145
000330 2d 94 a4 bc 5a 82 99 3b 6f b4 59 38 33 8b b1 37
       -0.020090187 0.0046847286 5.1904874e-05 2.1164864e-05
000340 9b d0 8d 36 3e 6d 27 37 40 c4 32 38 69 e4 12 38
       4.2264123e-06 9.979411e-06 4.262128e-05 3.5021836e-05
000350 0f a5 ef b8 f9 a3 4f 38 e2 bc 13 37 80 61 f3 36
       -0.00011427153 4.9505357e-05 8.8058605e-06 7.253315e-06
000360 6f 84 b7 b8 d1 89 10 b9 0f ac 0a b9 44 49 ac 3b
       -8.750788e-05 -0.00013784251 -0.00013224802 0.0052577574
000370 d6 16 a5 36 82 37 41 3a 04 81 81 3a 7a 07 51 b8
       4.9200416e-06 0.0007370637 0.0009880369 -4.9836446e-05
000380 25 42 61 39 f7 84 d3 35 2a f1 05 b9 13 3b 23 b8
       0.00021482313 1.5759423e-06 -0.00012773709 -3.8917246e-05
000390 f9 41 83 38 86 5e 93 37 2c 68 bf 37 d0 18 21 3d
       6.258855e-05 1.7567781e-05 2.2817483e-05 0.039330304
0003a0 47 75 bf 3c 31 8a 2e 38 03 db 5c 3c cb f2 ff 3a
       0.023371352 4.1613534e-05 0.013479951 0.0019527314
0003b0 96 dd 9c 3a b9 91 34 3b 9c 9e 3e b8 80 5f 70 38
       0.0011967893 0.0027552678 -4.5447247e-05 5.73094e-05
0003c0 fa e3 c0 3b 82 d6 02 36 5a a9 81 b7 89 a7 6a 38
       0.005886552 1.949637e-06 -1.5456859e-05 5.5945977e-05
0003d0 82 03 b7 b8 cb ec 8f b7 33 e2 7b 38 4d 19 0a 3d
       -8.7267734e-05 -1.7157194e-05 6.0053728e-05 0.033715535
0003e0 1b 32 05 bb 8c f7 53 37 38 29 f5 b6 e9 55 f1 3d
       -0.0020324055 1.2634217e-05 -7.3063675e-06 0.11783964
0003f0 c2 82 b3 b8 fe ce 37 b8 71 70 30 38 47 2c 59 b7
       -8.559741e-05 -4.3823376e-05 4.206639e-05 -1.2944517e-05

fc1.4.bias f4 [64]
000000 9e 6a b0 3e c7 3b 0d 3e 91 70 8c 3e 20 6d 2c 3d
       0.34456342 0.13792334 0.2742963 0.042096257
000010 eb 86 35 3e ad 83 17 3c 4d 4f 7f 3e ae 7a 24 be
       0.17727248 0.009247703 0.24932595 -0.16062424
000020 72 f2 26 bd 43 22 e0 3e 27 4e 8b bf 2f d9 fe 3e
       -0.040758558 0.4377614 -1.0883225 0.49775073
000030 08 7c e6 bd 6a 9f 29 3d b3 23 df 3d 42 9f b3 bd
       -0.11254126 0.041411795 0.10895481 -0.087706104
000040 a1 98 2e 3c 7d 46 87 3e 8a 0e dc 3d cf 0b b3 3e
       0.010656507 0.26420966 0.107449606 0.34969947
000050 83 aa 03 3e a0 f3 dd be 8e 7c 8d 3d 28 b8 3e 3e
       0.12858014 -0.43349934 0.069085225 0.18624938
000060 25 2a 40 3e 21 2b 52 3b 58 de 96 3b 94 dc 35 3d
       0.18766077 0.0032069164 0.004604142 0.044399813
000070 19 04 e3 bd 17 6b 02 bd 3c bd 98 bc aa a1 37 3e
       -0.11084766 -0.03184041 -0.018644921 0.17932764
000080 6b 56 05 3e d0 79 a5 3d 10 82 86 3e df 6f 68 3e
       0.13021247 0.080798745 0.26271105 0.22698925
000090 97 6d 92 be 45 74 26 be 96 0a 57 3c 7a c1 2b 3e
       -0.28599235 -0.16255291 0.0131250825 0.16773024
0000a0 7c 49 7b 3e 65 45 22 bf da f2 8d 3e 1b fe 2c 3d
       0.24539751 -0.6338714 0.27724344 0.04223452
0000b0 92 30 32 3d 1c 91 3d bd 93 4a 0f bf cc 3c 55 bf
       0.04350335 -0.046280965 -0.55973166 -0.83295894
0000c0 ff db 25 bd 8c 93 37 3e 12 41 93 bd f1 8c a3 3d
       -0.040493008 0.17927378 -0.071901456 0.07985867
0000d0 be 63 48 3e e3 6a b0 3d 98 07 8a bf d1 33 ff bc
       0.19569299 0.08614137 -1.0783567 -0.031152638
0000e0 bb 56 44 be 62 bc 4d 3e 1b fd 18 3e 72 ce 61 bf
       -0.1917371 0.20091394 0.14940302 -0.88205636
0000f0 cd b7 13 be 0b fe 9f 3b bb 4a a3 3c 38 62 17 3d
       -0.14425583 0.004882579 0.019933095 0.036958903
