saved_pretrained/pubmed_3.pt (torch, 904063 bytes, 16 tensors)

fc1.0.weight f4 [64, 500]
0.46215034 0.22195621 -0.254632 -0.28497678 0.21520738 -0.03940046 0.48329425 0.66475606
0.6694004 -0.28205508 -0.24563809 0.40883887 0.032819 -0.1295494 -0.08988879 -0.042640653
-0.16483313 -0.17241241 -0.06249436 0.36116254 -0.39009097 0.13338915 0.06564052 0.26313406
0.9189731 0.5011763 -0.20801459 0.04658552 -0.28530225 0.56889975 0.13939677 -0.04777249
0.347479 0.12434659 -0.18467928 0.08033766 -0.08003594 0.07620874 0.35381567 0.297893
-0.041860834 0.3219878 0.16269471 0.12727962 -0.3726953 -0.008976811 0.055521417 -0.06868714
-0.32170007 -0.4503106 -0.16833489 -0.11466984 -0.17831548 0.4201284 0.31134623 -0.18676384
0.12854375 0.008846903 0.13501245 0.0481043 0.21952681 0.024873095 0.40775943 -0.23433802
-0.18023516 0.5743828 0.2695337 0.07665397 -0.22871442 0.08962144 -1.3421977 0.44832584
-0.6140899 -0.23425233 0.33189166 0.22433378 -0.018954057 0.6148985 0.060681865 0.07270088
0.04583022 -0.13792495 0.5568122 -0.21719283 0.679551 -0.025373451 -0.32987982 -0.24853206
0.12043315 -1.3028119 -0.23710215 -0.2650531 0.09270502 0.15939277 0.09069038 -0.1292151
0.060366634 0.27405533 0.031414445 0.35161746 -0.13953808 0.4547115 0.25548586 -0.30487692
0.0057193115 -0.5843188 0.35827702 -0.20730193 -0.024946928 -0.017584598 -0.022016346 0.05408988
-0.09410617 0.10977782 0.09394809 0.50407624 0.36531204 0.23916137 -0.04734248 0.007160403
-0.08037986 -0.06096193 -0.08622624 -0.11416709 -0.16803093 0.14750381 0.08059978 0.041004494
0.22085655 -0.03345957 0.015606228 -0.12588784 -0.45664766 -0.052884527 0.38687032 0.04471465
-0.19610882 -0.22480409 0.033719644 -0.17345677 0.41873726 -0.002675181 -0.12925279 -0.14843246
-0.029069299 0.08303992 0.07310784 -0.32483944 -0.29752296 0.12309632 0.15107363 0.16421424
-0.31732827 0.017383311 -0.087776616 0.2513047 -0.08011542 0.14018594 0.054826662 0.2199896
-0.062476832 0.16903555 0.2728234 0.006015149 0.20958695 -0.17410009 0.23637547 -0.6107759
0.050303534 0.098555535 0.11137212 -0.41748828 -0.010824987 0.08607584 0.28162745 -0.08708171
-0.000859523 0.24619888 0.083116904 -0.31858984 -0.00013514313 0.07096261 0.105955385 0.22110248
2.7036421 0.17576376 -0.07160121 0.11158033 -0.09783572 -0.509859 -0.29101855 0.16477981
0.014507128 -0.24792844 0.07140255 -0.42350554 0.03348592 -0.019525392 0.4577309 -0.09313751
0.25794294 -0.56763285 -0.15219796 -0.116337635 0.07584522 0.12014683 0.039739992 0.06416111
-0.07057624 0.14763865 -0.24697475 0.29383186 -0.26771462 -0.25802967 0.509413 -0.17796151
-0.3530409 -0.31302863 0.08469047 0.41493234 0.10811388 -0.049761172 -0.19019544 -0.26121342
0.10535246 -0.047897693 -0.086978294 0.17295033 0.028966725 -0.26142907 0.01932139 -0.05490524
-0.22414567 -0.4742979 -0.31746453 -0.14556 0.17293915 -0.17342241 0.11947654 -0.7589578
-0.3264428 0.18629383 0.42023966 0.04216412 -0.022161037 -0.17098697 -0.1726593 -0.16498059
0.31782815 -0.065990016 0.059523482 -0.65593445 0.13197881 -0.055982616 0.07369317 -0.17479496
00000000: f89e ec3e 7d48 633e 205f 82be 7ae8 91be
00000010: 535f 5c3e 6062 21bd 5872 f73e 742d 2a3f
00000020: d35d 2b3f 8669 90be 8d88 7bbe 5453 d13e
00000030: 376d 063d 99a8 04be 9d17 b8bd f7a7 2ebd
00000040: 04ca 28be e18c 30be 16fa 7fbd 4cea b83e
00000050: 01ba c7be 2a97 083e 896e 863d 82b9 863e
00000060: d241 6b3f 174d 003f c701 55be 75d0 3e3d
00000070: 2313 92be 6aa3 113f 07be 0e3e 16ad 43bd
00000080: c4e8 b13e 6da9 fe3d 911c 3dbe 1288 a43d
00000090: e2e9 a3bd 5413 9c3d 5427 b53e 6e85 983e
000000a0: 4476 2bbd 96db a43e 7199 263e 9755 023e
000000b0: ebd1 bebe 7913 13bc 6d6a 633d d8ab 8cbd
000000c0: dfb5 a4be 1c8f e6be fb5f 2cbe 05d8 eabd
000000d0: 5598 36be 121b d73e c668 9f3e 053f 3fbe
000000e0: f9a0 033e 9af2 103c b440 0a3e 0409 453d
000000f0: a3cb 603e a9c2 cb3c d8c5 d03e 4ef6 6fbe
00000100: 918f 38be c00a 133f 5200 8a3e c2fc 9c3d
00000110: 1d34 6abe 728b b73d 22cd abbf f78a e53e
00000120: ff34 1dbf d8df 6fbe b4ed a93e c1b7 653e
00000130: 8a45 9bbc fd69 1d3f 8c8d 783d 33e4 943d
00000140: 78b8 3b3d 333c 0dbe 3f8b 0e3f cc67 5ebe
00000150: 0ef7 2d3f fcdb cfbc 02e6 a8be 307f 7ebe
00000160: a8a5 f63d 8ac2 a6bf e8ca 72be 0ab5 87be
00000170: 21dc bd3d dc37 233e e1bb b93d f750 04be
00000180: 0143 773d fb50 8c3e 6fac 003d 3407 b43e
00000190: 12e3 0ebe f2cf e83e 0bcf 823e d418 9cbe
000001a0: 1069 bb3b eb95 15bf 1670 b73e f546 54be
000001b0: 805d ccbc 930d 90bc a05b b4bc 5a8d 5d3d
000001c0: bcba c0bd 32d3 e03d db67 c03d 240b 013f
000001d0: 2e0a bb3e b8e6 743e 30ea 41bd d0a1 ea3b
000001e0: 329e a4bd 37b3 79bd 6297 b0bd 6fd0 e9bd
000001f0: 4d10 2cbe 3d0b 173e 7f11 a53d 54f4 273d
00000200: 3828 623e e70c 09bd 44b1 7f3c bee8 00be
00000210: b9cd e9be 729d 58bd de13 c63e b526 373d
00000220: c0d0 48be 0b33 66be 9c1d 0a3d a79e 31be
00000230: bb64 d63e 1752 2fbb d85a 04be aefe 17be
00000240: bd22 eebc d510 aa3d 90b9 953d 5b51 a6be
00000250: ee54 98be ec19 fc3d 0cb3 1a3e c727 283e
00000260: da78 a2be 7267 8e3c 3ac4 b3bd 02ab 803e
00000270: 8e13 a4bd e78c 0f3e ec91 603d f444 613e
00000280: b5e7 7fbd a817 2d3e 82af 8b3e ba1a c53b
00000290: f69d 563e 4b47 32be 690c 723e cf5b 1cbf
000002a0: 140b 4e3d 7cd7 c93d 1117 e43d 06c1 d5be
000002b0: 495b 31bc 8848 b03d 7931 903e e557 b2bd
000002c0: 9d51 61ba 8f1b 7c3e 3239 aa3d 351e a3be
000002d0: 35b5 0db9 d854 913d 23ff d83d b068 623e
000002e0: 7908 2d40 6afb 333e a8a3 92bd 3a84 e43d
000002f0: 185e c8bd 1f86 02bf 6200 95be 0abc 283e
00000300: 4eaf 6d3c f4e0 7dbe 803b 923d b8d5 d8be
00000310: 8828 093d b7f3 9fbc b45b ea3e e1be bebd
00000320: 1911 843e 6350 11bf c8d9 1bbe 6d42 eebd
00000330: bd54 9b3d 8b0f f63d 67c6 223d e666 833d
00000340: 478a 90bd 962e 173e f3e6 7cbe 2171 963e
00000350: e411 89be 771c 84be e468 023f 8b3b 36be
00000360: c7c1 b4be 4a45 a0be 3272 ad3d 0372 d43e
00000370: cf6a dd3d 5fd2 4bbd 98c2 42be c4bd 85be
00000380: 08c3 d73d 5f30 44bd ad21 b2bd e419 313e
00000390: a04b ed3c 08da 85be e447 9e3c 51e4 60bd
000003a0: 7186 65be 2dd7 f2be b68a a2be ae0d 15be
000003b0: f616 313e a595 31be 1eb0 f43d 0f4b 42bf
000003c0: 8323 a7be cfc3 3e3e a729 d73e 49b4 2c3d
000003d0: 108b b5bc 3517 2fbe 99cd 30be acf0 28be
000003e0: 5fba a23e c625 87bd e5ce 733d 52eb 27bf
000003f0: 7425 073e 074e 65bd 72ec 963d 73fd 32be

fc1.0.bias f4 [64]
0.008900417 0.01615374 0.017480554 0.01738732 -0.004112486 0.027966015 0.025944276 0.01958277
0.019742634 0.039826307 0.009962877 0.015291542 0.04240573 0.027939087 0.012291573 -0.0038198966
0.049339235 0.021356853 0.068693586 0.017749233 0.022657022 0.02110964 0.019477895 0.054644726
0.011346263 0.025535356 0.027388869 0.017788691 0.017817486 0.014191583 0.023096435 0.03184133
-0.0032639026 0.011516608 0.016720572 -0.011805535 0.01620826 -0.027791355 0.024813121 0.016386423
0.016980143 0.0025059565 0.012221834 0.023491595 0.025077293 0.064491436 0.032403484 0.006792818
0.023768617 0.018185595 0.01864244 0.015314529 -0.00014258521 0.029485527 0.0076067653 0.0054672216
0.017136334 0.02473383 0.01502447 0.019974293 0.058930747 0.018925823 -0.053449895 0.014005599
00000000: 0ed3 113c d954 843c 6133 8f3c da6f 8e3c
00000010: 08c2 86bb fc18 e53c 1789 d43c 0c6c a03c
00000020: 4ebb a13c e920 233d 563b 233c 6089 7a3c
00000030: a1b1 2d3d 83e0 e43c 9862 493c 3b57 7abb
00000040: f017 4a3d 91f4 ae3c 39af 8c3d d766 913c
00000050: 389b b93c 20ee ac3c 1b90 9f3c 26d3 5f3d
00000060: ade5 393c 862f d13c 9f5e e03c 97b9 913c
00000070: faf5 913c d083 683c bc34 bd3c 0e6c 023d
00000080: 33e7 55bb 28b0 3c3c 95f9 883c 016c 41bc
00000090: 2fc7 843c b2aa e3bc e344 cb3c d23c 863c
000000a0: f119 8b3c f93a 243b 163e 483c 7271 c03c
000000b0: e56e cd3c 1614 843d 84b9 043d 4a96 de3b
000000c0: 67b6 c23c f5f9 943c 08b8 983c cae9 7a3c
000000d0: ed82 15b9 a28b f13c 2c42 f93b 6126 b33b
000000e0: 7f61 8c3c 9a9e ca3c 3229 763c 21a1 a33c
000000f0: 5e61 713d 540a 9b3c 47ee 5abd bd77 653c

fc1.1.weight f4 [64, 500]
0.0017447805 -5.2439226e-09 -7.323191e-09 5.288742e-09 3.8762753e-09 4.5558495e-09 -4.3292445e-09 4.921893e-09
1.4086884e-10 7.551317e-09 7.578482e-09 -2.1600755e-09 -1.0147019e-09 -7.108125e-09 3.7989922e-09 -1.0583687e-08
2.0023105e-08 -2.8177511e-09 3.0386729e-09 -1.2746484e-09 5.3923516e-10 -4.8461573e-09 -3.839731e-09 -3.0996354e-09
1.1667658e-09 -4.557267e-09 1.5426128e-10 4.74275e-09 5.4839435e-09 1.0519925e-08 -5.6518834e-09 -5.8248255e-09
6.4565273e-09 5.541823e-09 -2.1915505e-09 5.892011e-09 2.7830442e-09 -2.9856246e-09 -2.0060038e-09 1.8123031e-09
4.6337325e-09 3.9507166e-09 4.684862e-10 -1.2878064e-09 5.447251e-09 -3.5364058e-09 5.1262012e-09 -8.12897e-09
5.4413127e-09 -1.1174317e-08 -2.1815327e-09 5.5907905e-09 -3.0551706e-09 5.9045937e-09 -3.0807523e-09 -6.492984e-09
5.9442784e-09 1.5660623e-09 1.9342785e-09 5.2663642e-09 -2.7219165e-09 6.1096928e-09 7.82328e-09 4.602804e-09
-2.9771312e-09 3.5543541e-09 3.0488974e-09 8.601046e-09 2.2095765e-09 2.9009086e-09 4.239072e-09 -5.0923163e-09
-5.4215743e-10 1.3167687e-09 -1.4579699e-09 3.1394434e-10 -2.1204918e-09 -4.3268717e-09 -5.7351506e-09 4.02301e-09
5.0058078e-09 1.3733412e-09 3.645662e-10 3.7206653e-09 2.2143285e-09 -6.310404e-09 -5.560115e-09 4.1397503e-09
3.209829e-09 -3.8882536e-08 8.780224e-09 -2.0837672e-09 2.834029e-10 2.1576592e-09 -5.4734706e-09 8.3232776e-10
-6.4446932e-09 4.780596e-09 5.1523537e-09 4.819235e-09 -9.979036e-10 -4.2375583e-09 -2.2596687e-09 -5.7694045e-09
-4.075703e-09 2.130253e-09 1.5694497e-10 4.644435e-09 -9.350596e-10 1.6295563e-09 5.900304e-09 -1.4635758e-09
-6.683099e-09 -4.763684e-09 4.0508543e-09 6.0889205e-09 5.3861995e-09 -2.6047278e-09 2.9507956e-09 -4.1665564e-09
-3.392127e-09 1.7098017e-09 -6.9784005e-09 1.6801053e-08 -5.5168575e-10 -2.3654358e-09 2.7842815e-09 -4.1622092e-09
-3.7654937e-09 4.5954427e-09 3.644513e-09 -3.003522e-09 4.6590958e-09 1.6939127e-09 -4.0883648e-09 -3.848787e-09
2.5532205e-09 8.938113e-10 2.7120788e-09 -1.2574078e-08 3.519551e-09 -5.146039e-09 -4.7902473e-09 3.913196e-09
-2.897439e-09 1.1418834e-09 1.4695821e-09 -5.318179e-09 6.7119594e-09 -1.2516107e-08 3.774397e-09 2.315591e-09
-3.2701664e-10 2.9276535e-09 8.301069e-10 -2.8587004e-09 4.368125e-09 7.992308e-10 -1.9439116e-10 2.2710271e-09
-1.9473942e-09 -6.733824e-12 -2.3418801e-08 5.9176995e-12 -2.7710316e-09 5.9211867e-09 6.266744e-09 -2.6090874e-09
-5.6533302e-09 -2.6179219e-09 -6.0114785e-10 1.515173e-09 -3.3249944e-11 -1.8614806e-09 -6.5679604e-09 5.931808e-09
3.9192862e-09 2.7200602e-09 3.160264e-09 4.3183133e-09 -5.1349476e-09 3.0210434e-09 -3.3774166e-09 3.7351024e-09
-2.8628317e-09 -4.850866e-09 5.7919725e-10 -2.962214e-09 4.6432524e-09 -3.4594065e-09 3.203169e-10 3.5493228e-09
4.0403245e-09 -3.8775827e-09 4.8730926e-09 6.108569e-09 1.18044674e-07 2.3456717e-09 -8.487611e-10 -3.7104508e-09
-6.9063427e-10 -2.7863727e-09 -8.8451046e-10 -3.3380794e-09 7.237339e-09 -2.4263684e-09 -3.3424281e-09 2.8131952e-09
-2.0410136e-09 -1.9385236e-09 5.3525397e-09 2.596226e-09 -7.1486737e-09 2.727442e-09 6.412517e-10 -3.9693973e-09
4.2681063e-09 -2.365673e-09 -1.539019e-09 1.3875395e-10 5.4962643e-09 1.8054446e-09 6.3799224e-09 -5.8285163e-09
-4.9625397e-09 -3.4562002e-09 -1.1830728e-09 -5.435702e-09 -5.3801226e-09 8.4764074e-10 3.3679735e-09 2.048283e-09
5.653585e-09 6.970568e-09 -9.346017e-09 -1.4357143e-09 -4.9253743e-09 5.398571e-09 3.6102996e-09 3.094371e-09
6.7337456e-09 4.9876108e-09 4.6521524e-09 2.7438767e-09 -3.4679284e-09 4.5702492e-10 -2.3373181e-09 -8.479916e-09
2.0025068e-10 4.7724686e-09 3.8638976e-09 1.2264306e-08 -2.411041e-09 -3.0060656e-09 3.1822923e-11 -4.0597734e-09
00000000: 1eb1 e43a 082e b4b1 789f fbb1 44b8 b531
00000010: 1430 8531 ad89 9c31 70c0 94b1 6e1d a931
00000020: 0ee3 1a2f 0bbb 0132 8432 0232 7370 14b1
00000030: a675 8bb0 bb3b f4b1 4a88 8231 8cd3 35b2
00000040: 46ff ab32 67a2 41b1 e6d0 5031 b42f afb0
00000050: 4d39 1430 4083 a6b1 a2ee 83b1 5d01 55b1
00000060: ec5b a030 2596 9cb1 b19c 292f acf5 a231
00000070: 476d bc31 1fbb 3432 7e32 c2b1 b523 c8b1
00000080: 37d8 dd31 646a be31 2a9a 16b1 ad72 ca31
00000090: d53f 3f31 aa2b 4db1 fed9 09b1 bf14 f930
000000a0: be36 9f31 dfbe 8731 c9c6 0030 a9fe b0b0
000000b0: 872a bb31 1c05 73b1 8b22 b031 97a7 0bb2
000000c0: 4bf6 ba31 2af9 3fb2 eee9 15b1 1d19 c031
000000d0: 21f3 51b1 5be1 ca31 2bb5 53b1 e418 dfb1
000000e0: 6d3e cc31 eb3c d730 30ec 0431 6ef3 b431
000000f0: 760c 3bb1 6ded d131 2667 0632 b126 9e31
00000100: 3f96 4cb1 dc40 7431 c584 5131 cdc3 1332
00000110: 48d7 1731 5359 4731 46a7 9131 7df8 aeb1
00000120: f006 15b0 aef9 b430 c161 c8b0 bd97 ac2f
00000130: 16b8 11b1 91ab 94b1 eb0e c5b1 c53a 8a31
00000140: 8dff ab31 26c0 bc30 226c c82f a3ae 7f31
00000150: e12a 1831 e7d2 d8b1 4a0b bfb1 a13d 8e31
00000160: e993 5c31 cdff 26b3 d5d7 1632 0532 0fb1
00000170: 6acd 9b2f f145 1431 2811 bcb1 dcc9 6430
00000180: 1f70 ddb1 9142 a431 9508 b131 7096 a531
00000190: 9d26 89b0 f599 91b1 8348 1bb1 383c c6b1
000001a0: 430a 8cb1 cf63 1231 1590 2c2f e294 9f31
000001b0: 7c83 80b0 eaf6 df30 9fbb ca31 ff26 c9b0
000001c0: 29a1 e5b1 cfad a3b1 b12f 8b31 b636 d131
000001d0: 8311 b931 dbfe 32b1 f2c6 4a31 6b29 8fb1
000001e0: ee1a 69b1 4dfe ea30 a9c6 efb1 e851 9032
000001f0: 6fa5 17b0 308d 22b1 9955 3f31 2e03 8fb1
00000200: a261 81b1 f1e5 9d31 f372 7a31 8566 4eb1
00000210: d715 a031 41cf e830 a379 8cb1 4a3e 84b1
00000220: bb74 2f31 61b0 7530 655f 3a31 6105 58b2
00000230: 99dc 7131 0ad1 b0b1 7697 a4b1 d674 8631
00000240: 491c 47b1 73f0 9c30 53fa c930 32bb b6b1
00000250: 059f e631 6c06 57b2 f2af 8131 4f20 1f31
00000260: 80c7 b3af d32f 4931 952d 6430 ca72 44b1
00000270: 6f16 9631 deb0 5b30 3fbc 55af 5510 1c31
00000280: ecd2 05b1 e5ec ecac 7d2a c9b2 e635 d02c
00000290: 816c 3eb1 4f73 cb31 dd52 d731 8d4b 33b1
000002a0: 383f c2b1 f8e6 33b1 053e 25b0 693e d030
000002b0: 1c3c 12ae 07d7 ffb0 64ac e1b1 bcd0 cb31
000002c0: 68aa 8631 ceeb 3a31 f42b 5931 4960 9431
000002d0: 7a6f b0b1 c29a 4f31 2418 68b1 4f56 8031
000002e0: 78bb 44b1 abac a6b1 6235 1f30 d28f 4bb1
000002f0: 7b8a 9f31 86ba 6db1 9918 b02f 59e8 7331
00000300: 12d3 8a31 943b 85b1 2d70 a731 8be3 d131
00000310: bf7f fd33 7e31 2131 414e 69b0 f1fa 7eb1
00000320: 11d7 3db0 637a 3fb1 e421 73b0 1d64 65b1
00000330: 4fac f831 20bd 26b1 9eb0 65b1 4152 4131
00000340: e441 0cb1 de36 05b1 70e9 b731 4a69 3231
00000350: 66a0 f5b1 ab6d 3b31 1444 3030 3063 88b1
00000360: a9a6 9231 5c91 22b1 6b85 d3b0 c48f 182f
00000370: a7d9 bc31 6f23 f830 6436 db31 2c44 c8b1
00000380: f682 aab1 1e82 6db1 ac99 a2b0 f1c4 bab1
00000390: 0fdc b8b1 6aff 6830 0472 6731 c7c1 0c31
000003a0: 7641 c231 c481 ef31 3890 20b2 b552 c5b0
000003b0: 0d3c a9b1 557e b931 1019 7831 c0a4 5431
000003c0: a75e e731 7d5f ab31 c4d8 9f31 ca8e 3c31
000003d0: 7150 6eb1 8a40 fb2f 899e 20b1 11af 11b2
000003e0: 8e2d 5c2f 14fb a331 34c3 8431 fdb2 5232
000003f0: 7baf 25b1 4493 4eb1 6df5 0b2e 257e 8bb1

fc1.1.bias f4 [64]
0.06233365 0.41294038 0.07055789 -0.35423693 -0.027884126 0.43428224 0.310288 0.09535331
0.15931112 0.39479506 -0.03264322 0.035959266 0.3694579 0.2357871 0.24735115 -0.047617014
0.4189357 0.27460665 0.44354168 -0.2934088 -0.0018824096 -0.43960032 0.039902482 0.48398203
0.021339081 0.0070988336 0.24188039 0.06300713 0.15056239 0.14278187 0.17293623 0.43241778
-0.3869987 -0.105805874 0.28045303 -0.025431141 0.26043478 0.0042133457 0.26463795 -0.017238464
0.05874082 0.120816 -0.14263858 -0.63121384 -0.112910986 0.3318449 0.4227181 -0.6901769
0.24001995 0.058067724 -0.65166634 0.05830856 -0.77097017 0.084059775 -0.0609762 -0.661591
0.28059664 0.13691995 0.18416199 0.019505432 0.3846104 0.1513588 0.09725166 0.2432533
00000000: 9251 7f3d ec6c d33e a880 903d 8b5e b5be
00000010: 406d e4bc 3e5a de3e 12de 9e3e 9948 c33d
00000020: 7422 233e 9422 ca3e e6b4 05bd 064a 133d
00000030: 9629 bd3e 2c72 713e 9f49 7d3e 0f0a 43bd
00000040: bd7e d63e 3e99 8c3e e517 e33e ae39 96be
00000050: 2fbb f6ba 4b13 e1be c970 233d 7ecc f73e
00000060: 4ccf ae3c 559d e83b 7eaf 773e e209 813d
00000070: 072d 1a3e 6935 123e 3216 313e dd65 dd3e
00000080: b224 c6be c0b0 d8bd 8a97 8f3e f854 d0bc
00000090: b557 853e 1b10 8a3b a07e 873e ae37 8dbc
000000a0: 379a 703d 616e f73d d90f 12be 3b97 21bf
000000b0: e03d e7bd 93e7 a93e 826e d83e 6faf 30bf
000000c0: cac7 753e 6cd8 6d3d 9bd3 26bf f5d4 6e3d
000000d0: 4d5e 45bf 8827 ac3d 2ec2 79bd 075e 29bf
000000e0: 5daa 8f3e be34 0c3e f694 3c3e dbc9 9f3c
000000f0: a8eb c43e cdfd 1a3e e12b c73d 6517 793e

fc1.2.weight f4 [64, 500]
0.63786346 0.31319252 -0.453844 0.17828669 -0.16961536 -0.0818447 0.3074777 0.33526722
0.6512698 -0.37384441 0.04124288 -0.020709185 -0.11372062 0.21709427 0.15799513 0.15708633
-0.31601292 0.2675345 0.01251364 -0.0036473365 -0.09703837 0.09995657 0.3770465 0.47077352
0.5986288 0.48028028 0.12290331 -0.017172094 -0.11490515 -0.056538638 -0.23134379 -0.077622905
0.36349213 -0.23740464 -0.049720064 0.028740818 0.031749226 -0.07603944 0.15223587 0.1935566
-0.2476366 0.17275149 0.6779483 0.052219816 -0.101771735 -0.07923832 0.077363886 -0.16997325
-0.09757382 -0.29223484 -0.32903343 -0.40153468 -0.2244953 0.48634306 0.31770605 0.038867466
-0.030593907 -0.030717934 -0.41708398 -0.12308757 0.062454514 0.08761456 -0.14259884 -0.015323336
0.10290116 0.23548576 0.3673682 -0.004217607 -0.13806093 -0.12834889 -1.0041581 -0.10633114
0.20204733 -0.06446853 0.26859382 0.19094191 0.21007003 0.12623265 -0.15813486 0.044961706
0.25590092 0.16687696 0.10378116 0.17189984 0.2413758 -0.14424463 -0.23823172 -0.23420551
-0.40665755 -1.0308763 -0.42973435 -0.538133 0.18237534 -0.03707498 0.30974314 0.062989704
-0.23211752 0.32232258 0.39951012 -0.14101222 0.007795773 0.15817186 0.15386394 0.08136242
0.10598729 -0.13853517 0.08308217 0.23080069 0.09179104 -0.10753584 -0.2889432 -0.12940402
0.20417741 0.2660499 -0.040785186 0.23537675 -0.08377805 -0.057447642 0.014861402 0.21360815
0.1471302 -0.21337694 0.15824944 -0.19308361 -0.10519257 0.011265809 -0.13236298 -0.07551789
0.111540355 0.19359858 -0.008801734 -0.0017321632 -0.009308455 -0.12246497 -0.060993653 0.22414564
-0.15710191 0.04620807 0.1158125 -0.024192944 0.5272055 -0.04916272 -0.42684868 0.30593398
0.034559622 -0.03630562 0.053583533 0.121922426 -0.20149423 0.18868823 0.03891944 0.11884588
0.21828154 -0.042476367 0.13718238 0.07079688 0.07678765 -0.20736565 -0.03308974 0.24544089
-0.68746865 0.16843165 -0.180841 -0.27409226 0.7346071 -0.70170647 0.43857086 -0.48292896
0.028271673 0.5663733 -0.1433935 -0.10621091 0.30624682 0.119002186 0.5782295 -0.1019348
-0.4446123 -0.03681096 0.077698685 -0.35991716 0.0589226 -0.14283177 0.28568196 0.26777506
1.5721829 -0.013492456 -0.38140276 -0.21815819 0.075695895 -0.05892146 -0.04468494 0.10921066
-0.366284 0.12756237 0.019798225 -0.21935435 0.00037526528 -0.30169258 -0.13788956 -0.07862746
0.5206033 -0.047430474 -0.32436177 0.06941352 0.063339844 0.10902199 -0.29975095 -0.1411563
-0.0075199106 0.34542656 -0.48550683 0.25324276 -0.17102414 0.08788556 0.2630691 0.05032472
0.085998535 -0.29804856 -0.16732383 -0.2077171 0.28819746 0.25224245 -0.22114283 -0.34963235
0.062669 -0.3205955 0.10663707 0.072743505 0.21408315 0.20257695 0.016273962 0.09156296
-0.37152827 0.27369332 -0.30441868 -0.7607365 -0.074496925 0.010389676 -0.20311044 -0.85434073
-0.4408652 0.22064409 0.11627902 -0.3067347 -0.20666136 -0.1457474 -0.15989178 -0.083789736
0.21400039 0.19681782 0.054954436 -0.72172374 0.33825856 -0.021930598 -0.21073702 -0.2984888
00000000: 054b 233f c55a a03e 3e5e e8be c990 363e
00000010: a6af 2dbe 329e a7bd b86d 9d3e 25a8 ab3e
00000020: 9eb9 263f 8968 bfbe 4bee 283d 4fa6 a9bc
00000030: 5be6 e8bd f64d 5e3e 7ac9 213e 3ddb 203e
00000040: 72cc a1be 48fa 883e 0306 4d3c 2708 6fbb
00000050: 0ebc c6bd 08b6 cc3d 3d0c c13e 3a09 f13e
00000060: bd3f 193f 4ce7 f53e bbb4 fb3d 7eac 8cbc
00000070: 6453 ebbd 0f95 67bd 63e5 6cbe c2f8 9ebd
00000080: a41b ba3e 341a 73be 44a7 4bbd dd71 eb3c
00000090: 7a0b 023d 91ba 9bbd b8e3 1b3e b433 463e
000000a0: 7394 7dbe c4e5 303e 058e 2d3f 72e4 553d
000000b0: b36d d0bd b347 a2bd f570 9e3d 780d 2ebe
000000c0: c8d4 c7bd ce9f 95be 1277 a8be f495 cdbe
000000d0: 19e2 65be f501 f93e 5eaa a23e 7e33 1f3d
000000e0: 13a0 fabc 2da4 fbbc 088c d5be 5615 fcbd
000000f0: 4ed0 7f3d 436f b33d 6e05 12be bb0e 7bbc
00000100: d8bd d23d 2e23 713e af17 bc3e da33 8abb
00000110: d85f 0dbe e46d 03be 4188 80bf 24c4 d9bd
00000120: 7fe5 4e3e 1408 84bd 2185 893e 4786 433e
00000130: 991c 573e 2243 013e 1bee 21be c429 383d
00000140: 7205 833e cbe1 2a3e 388b d43d 8306 303e
00000150: 382b 773e ddb4 13be 04f3 73be 92d3 6fbe
00000160: 6b35 d0be c1f3 83bf 2406 dcbe 16c3 09bf
00000170: 9ac0 3a3e efdb 17bd a796 9e3e bf00 813d
00000180: 37b0 6dbe 7707 a53e 978c cc3e 8265 10be
00000190: af73 ff3b cef7 213e 828e 1d3e 57a1 a63d
000001a0: dd0f d93d 2adc 0dbe fc26 aa3d 0457 6c3e
000001b0: f1fc bb3d c03b dcbd 5df0 93be 7d82 04be
000001c0: e213 513e b137 883e 5e0e 27bd 9a06 713e
000001d0: d493 abbd 384e 6bbd 3d7d 733c 18bc 5a3e
000001e0: 4da9 163e 7c7f 5abe 240c 223e b6b7 45be
000001f0: 346f d7bd 3a94 383c 298a 07be 20a9 9abd
00000200: 456f e43d b53e 463e 2635 10bc c109 e3ba
00000210: 7d82 18bc eace fabd 7bd4 79bd 6f86 653e
00000220: 53df 20be ac44 3d3d 1b2f ed3d 4830 c6bc
00000230: f1f6 063f d95e 49bd e98b dabe 61a3 9c3e
00000240: 648e 0d3d 34b5 14bd 687a 5b3d 77b2 f93d
00000250: 8154 4ebe 7d37 413e fe69 1f3d 7865 f33d
00000260: 3285 5f3e b3fb 2dbd 8a79 0c3e f4fd 903d
00000270: d842 9d3d a957 54be 1b89 07bd db54 7b3e
00000280: f2fd 2fbf 5979 2c3e 622e 39be d255 8cbe
00000290: 360f 3c3f 09a3 33bf 5c8c e03e 7742 f7be
000002a0: ff99 e73c d7fd 103f bfd5 12be 1b85 d9bd
000002b0: 62cc 9c3e 6bb7 f33d d906 143f 31c3 d0bd
000002c0: 39a4 e3be 17c7 16bd 7d20 9f3d 1047 b8be
000002d0: d358 713d 7e42 12be e844 923e d019 893e
000002e0: 4a3d c93f 760f 5dbc 3947 c3be dc64 5fbe
000002f0: 7306 9b3d a157 71bd 8e07 37bd d7a9 df3d
00000300: 9489 bbbe b69f 023e e32f a23c 6d9e 60be
00000310: 41bf c439 7377 9abe ec32 0dbe 6f07 a1bd
00000320: 4246 053f 7546 42bd bf12 a6be ad28 8e3d
00000330: 52b8 813d ec46 df3d f578 99be 478b 10be
00000340: 9569 f6bb c0db b03e 5a94 f8be 09a9 813e
00000350: f420 2fbe 58fd b33d feb0 863e 4b21 4e3d
00000360: 0020 b03d d299 98be f056 2bbe cbb3 54be
00000370: 9e8e 933e ec25 813e 4473 62be 0303 b3be
00000380: 9b58 803d 1825 a4be 8964 da3d 8cfa 943d
00000390: 9d38 5b3e 5570 4f3e f950 853c 5c85 bb3d
000003a0: f438 bebe 8821 8c3e c4dc 9bbe a1bf 42bf
000003b0: d891 98bd 7639 2a3c 2ffc 4fbe 13b6 5abf
000003c0: 15b9 e1be 86f0 613e b223 ee3d 550c 9dbe
000003d0: 099f 53be ce3e 15be acba 23be f499 abbd
000003e0: eb22 5b3e 9c8a 493e e717 613d e3c2 38bf
000003f0: 3a30 ad3e cca7 b3bc 72cb 57be 86d3 98be

fc1.2.bias f4 [64]
0.029856073 0.014731154 -0.00016360052 0.012475018 0.013839998 -0.009878439 0.0010853237 0.015920397
0.014761273 -0.0002543366 0.0076322188 0.007048057 -0.0040658214 0.0068974947 0.0009587776 0.025995152
0.02769722 0.014477789 0.03482252 0.01734201 0.00089150836 -0.0035664234 -0.0021377855 0.022046829
0.0050199744 0.011730503 0.02330566 0.0017425773 0.012755436 0.022079326 0.0005254185 -0.006643875
-0.0077235694 -0.0043291864 0.015150611 -0.0065275156 0.011103161 -0.0073153656 0.017356275 0.0054729334
-0.0006433889 0.0033800108 0.0001919655 0.040867683 0.048704207 0.026838083 0.0071705068 0.012611225
0.0120919235 -0.0047193673 0.013673654 -0.005905252 0.000285509 0.013423325 0.031202666 -0.014039875
0.018833354 0.012414788 -0.018438777 -0.007658909 0.029956866 -0.007015318 -0.004664949 0.0019851732
00000000: b994 f43c f05a 713c 2e8c 2bb9 0564 4c3c
00000010: 29c1 623c 2dd9 21bc 6c41 8e3a 7e6b 823c
00000020: 44d9 713c 7b58 85b9 b117 fa3b 63f3 e63b
00000030: 953a 85bb 6104 e23b 7a56 7b3a c9f3 d43c
00000040: 48e5 e23c 4034 6d3c 0fa2 0e3d d510 8e3c
00000050: 1db4 693a a8ba 69bb 171a 0cbb 8d9b b43c
00000060: 997e a43b 4c31 403c 83eb be3c 3167 e43a
00000070: 2dfc 503c b4df b43c 3dbc 093a ddb4 d9bb
00000080: ff15 fdbb d9db 8dbb 453a 783c c5e4 d5bb
00000090: 08ea 353c bcb5 efbb bf2e 8e3c 4b56 b33b
000000a0: 19a9 28ba 2c83 5d3b 594a 4939 df64 273d
000000b0: 107e 473d 8adb db3c 92f6 ea3b 509f 4e3c
000000c0: 341d 463c eca4 9abb 7607 603c d880 c1bb
000000d0: 5fb0 9539 81ed 5b3c bc9c ff3c 8107 66bc
000000e0: 6848 9a3c 6567 4b3c eb0c 97bc 96f7 fabb
000000f0: 1a68 f53c c1e0 e5bb 6edc 98bb ae19 023b

fc1.3.weight f4 [64, 500]
0.10473155 -9.942717e-10 1.3705812e-08 2.6662828e-09 6.681592e-10 1.1497355e-09 3.0228355e-09 -1.5336149e-11
1.3339465e-05 1.3096942e-09 -1.2247803e-09 3.2917977e-09 1.385296e-09 -2.5471385e-08 3.0666485e-09 0.0042294883
-0.0034278554 -1.3246305e-09 -1.8372709e-09 -1.6172651e-09 -2.985267e-09 -1.5550786e-08 8.623166e-09 1.0463176e-08
6.2213896e-09 8.205045e-07 -1.6657853e-09 1.5143827e-09 3.956804e-09 2.4724914e-05 1.4912647e-09 1.6308071e-08
0.00028947004 3.0666484e-07 3.4960046e-09 -3.6331065e-09 5.076575e-09 -1.6706803e-09 3.9936673e-05 -6.8314723e-09
1.1433279e-09 2.3610905e-08 5.009878e-09 -7.597052e-09 -2.0169844e-09 -1.7020185e-09 1.827415e-09 8.506902e-10
3.614602e-09 -0.0013501655 -2.1527955e-09 2.148869e-09 -7.812143e-08 5.4967404e-05 -1.1585492e-07 4.0880512e-09
-4.272756e-10 2.402813e-09 1.5552194e-10 -1.6133507e-09 8.0175136e-07 -7.265097e-10 -4.3045667e-08 -2.3135716e-09
-1.7307139e-09 4.069613e-09 1.9030821e-09 -8.977741e-05 -7.428112e-10 -1.318982e-08 -0.001683332 3.569979e-07
3.5915548e-09 -3.5361039e-09 -6.9378014e-09 1.3204232e-09 1.001756e-09 4.062661e-09 1.4409341e-09 -9.658723e-10
1.6925558e-09 -2.4736753e-09 2.0888673e-09 -3.6081365e-09 -2.394776e-09 -1.614165e-08 1.5655735e-10 1.9314048e-10
-1.8435531e-09 -0.018458879 -1.2260627e-08 -1.4278104e-09 -8.287853e-09 -1.0084442e-08 -2.51299e-09 -3.63579e-08
-1.3180801e-09 1.5792504e-09 4.9540017e-09 3.442661e-09 2.2985207e-09 1.6364343e-09 9.2171645e-11 -5.1245497e-10
2.2828537e-09 1.7605762e-09 -1.17639685e-08 1.6550148e-09 2.6850018e-09 -2.3829634e-09 -2.8623628e-09 2.1550421e-09
-1.7518891e-09 -1.946257e-09 -1.8909742e-10 2.3365104e-10 1.1284108e-09 1.0557817e-09 -2.4756622e-10 2.5529772e-09
3.5664607e-10 -6.1531615e-09 -1.5672836e-07 -0.0027946162 -1.4045873e-09 -1.643823e-09 -3.7084542e-09 -1.3595254e-09
5.446002e-10 1.2529763e-09 -2.3838098e-09 -1.1486603e-09 3.560779e-09 -2.0111228e-10 1.3940044e-09 1.1217639e-10
-2.1456474e-09 1.0722792e-09 -3.778734e-09 -0.00010703279 -1.4817219e-09 4.5593088e-10 7.2211315e-10 -2.5112694e-09
-3.0015057e-09 -1.2272648e-09 4.790913e-06 -3.588151e-09 -4.367391e-09 -0.012420455 3.549761e-10 -1.891738e-09
1.622618e-09 3.535117e-10 1.2267591e-09 -2.221217e-09 3.7324654e-09 5.5902722e-09 -3.0799252e-09 3.698289e-08
-1.0600231e-08 -2.3236912e-09 -0.004276875 1.2782578e-09 -2.4471538e-09 -1.7210345e-09 1.1203173e-08 1.3991707e-09
1.916732e-09 9.157311e-07 1.0620428e-09 1.0355059e-09 -2.453197e-09 -2.7884184e-09 2.0333997e-11 -1.5007284e-06
9.394502e-10 5.2237508e-09 3.4304029e-09 5.230986e-09 2.606622e-09 -3.9782602e-10 4.1597456e-10 9.356093e-09
1.6652065e-08 -3.8945203e-09 8.286379e-12 1.8915891e-10 1.695651e-09 -1.4026106e-09 1.2962404e-09 -1.10285905e-08
-1.9094962e-08 -2.6742937e-09 9.70048e-10 -1.1063125e-09 0.0038854433 -8.0643925e-10 9.39028e-10 -9.617616e-10
-4.8103e-09 -3.9885665e-05 5.743105e-06 -5.254825e-09 6.2225276e-06 -8.885189e-09 4.0844124e-09 -4.100139e-10
-3.4326146e-11 6.5553074e-10 5.187257e-11 -1.6352696e-09 9.4239345e-09 3.4707779e-09 8.8699126e-10 2.407463e-10
-5.191102e-10 -5.196417e-09 -6.0101057e-09 3.508927e-08 -3.0647393e-10 3.6221086e-09 2.5227456e-09 1.363535e-09
1.5786671e-09 2.3264783e-09 7.0440938e-09 1.9336615e-09 3.3336323e-09 -5.463063e-10 1.5728968e-09 -0.000100889985
-7.704718e-06 -8.2194623e-10 -7.9355704e-07 -1.0817515e-05 1.0467466e-09 -5.0037823e-09 -9.947967e-10 -5.7960006e-09
1.6133015e-08 -1.1950582e-09 1.617359e-09 1.6663491e-09 -4.2507913e-09 7.8815526e-10 -2.9323473e-09 -1.0908783e-05
-3.8399893e-08 1.4556921e-09 1.2490522e-09 -0.0011639962 -2.1020642e-10 1.560275e-09 1.497507e-09 2.8097324e-09
00000000: 7f7d d63d d3a6 88b0 cc76 6b32 be39 3731
00000010: 86a9 3730 b904 9e30 49ba 4f31 f0e5 86ad
00000020: 91cc 5f37 c500 b430 2055 a8b0 eb35 6231
00000030: c564 be30 2bcc dab2 0dbd 5231 8597 8a3b
00000040: dfa5 60bb 4b0e b6b0 3983 fcb0 7546 deb0
00000050: 5f25 4db1 8a94 85b2 1625 1432 89c1 3332
00000060: ecc3 d531 a440 5c35 9cf1 e4b0 9b22 d030
00000070: 6bf4 8731 5968 cf37 36f5 cc30 d415 8c32
00000080: 03c4 9739 b2a3 a434 5d3e 7031 49aa 79b1
00000090: 076e ae31 d69d e5b0 ad81 2738 44ba eab1
000000a0: 4623 9d30 eed0 ca32 5a23 ac31 3084 02b2
000000b0: 2a9b 0ab1 74ec e9b0 7328 fb30 00d6 6930
000000c0: c064 7831 09f8 b0ba 61f0 13b1 4eab 1331
000000d0: b6c3 a7b3 cd8c 6638 eacb f8b3 e176 8c31
000000e0: b2e5 eaaf bc1e 2531 89ff 2a2f bbbc ddb0
000000f0: ef37 5735 93b3 47b0 36e1 38b3 c8fc 1eb1
00000100: 15de edb0 b2d4 8b31 60c7 0231 e146 bcb8
00000110: b12e 4cb0 7199 62b2 40a3 dcba 6ba9 bf34
00000120: 4dcf 7631 ccff 72b1 8c61 eeb1 437a b530
00000130: 28ae 8930 8b97 8b31 5d0a c630 9cbf 84b0
00000140: 839f e830 5bfd 29b1 be8b 0f31 02f3 77b1
00000150: 5891 24b1 dda7 8ab2 fa22 2c2f 365c 542f
00000160: 4260 fdb0 1337 97bc cfa2 52b2 9d3c c4b0
00000170: 5d62 0eb2 d83f 2db2 fdb0 2cb1 ef27 1cb3
00000180: d227 b5b0 ef0c d930 dc37 aa31 ef93 6c31
00000190: 01f4 1d31 eae8 e030 06b0 ca2e d0dc 0cb0
000001a0: 63e0 1c31 c5f8 f130 7b1a 4ab2 a876 e330
000001b0: 0d83 3831 89c1 23b1 38b3 44b1 e717 1431
000001c0: 1ec7 f0b0 eabe 05b1 31ea 4faf 7673 802f
000001d0: 6d16 9b30 041b 9130 d919 88af 7370 2f31
000001e0: 7911 c42f c86b d3b1 2a49 28b4 e125 37bb
000001f0: 860b c1b0 e1ec e1b0 d1d7 7eb1 0cda bab0
00000200: d5b2 1530 2f35 ac30 6dd0 23b1 e4de 9db0
00000210: e3b1 7431 1320 5daf 2b97 bf30 b2ad f62e
00000220: a172 13b1 785f 9330 19d6 81b1 cb76 e0b8
00000230: 74a5 cbb0 91a6 fa2f 327e 4630 b892 2cb1
00000240: 0c43 4eb1 8bac a8b0 a1c1 a036 6c93 76b1
00000250: fa0f 96b1 2a7f 4bbc 7226 c32f cfff 01b1
00000260: cc02 df30 5958 c22f c09a a830 10a4 18b1
00000270: 1d3f 8031 8e14 c031 9ea6 53b1 1ed7 1e33
00000280: 4f1c 36b2 cfae 1fb1 0725 8cbb b3ae af30
00000290: c92a 28b1 8589 ecb0 1378 4032 f14c c030
000002a0: 82b7 0331 90d0 7535 4ff7 9130 a051 8e30
000002b0: 1995 28b1 609e 3fb1 17dc b22d a36c c9b5
000002c0: f71d 8130 997c b331 49bc 6b31 3dbc b331
000002d0: 2e20 3331 09b5 daaf 37af e42f 88bc 2032
000002e0: 470a 8f32 90d0 85b1 89c6 112d 80fb 4f2f
000002f0: 6a0c e930 f9c5 c0b0 6827 b230 4178 3db2
00000300: 4406 a4b2 acc6 37b1 8852 8530 e90c 98b0
00000310: eca2 7e3b 1eac 5db0 1c0f 8130 fa2e 84b0
00000320: d947 a5b1 e84a 27b8 e5b4 c036 ee8d b4b1
00000330: 1bcb d036 79a5 18b2 df56 8c31 5468 e1af
00000340: cef7 16ae e030 3430 5223 642e efbf e0b0
00000350: e7e6 2132 9282 6e31 76d0 7330 085a 842f
00000360: 22b1 0eb0 2b8c b2b1 7381 ceb1 0fb5 1633
00000370: 5f7c a8af cfe8 7831 9c5c 2d31 1f67 bb30
00000380: 69f8 d830 d7df 1f31 8108 f231 55e1 0431
00000390: e115 6531 e32a 16b0 632d d830 e694 d3b8
000003a0: 8343 01b7 53ef 61b0 d304 55b5 e07c 35b7
000003b0: 1fdd 8f30 bced abb1 4cb9 88b0 2926 c7b1
000003c0: e094 8a32 5f3f a4b0 c349 de30 7205 e530
000003d0: 5b0e 92b1 7fa5 5830 6682 49b1 de04 37b7
000003e0: 21ed 24b3 9d11 c830 1eab ab30 3b91 98ba
000003f0: d91f 67af 4c71 d630 d8d0 cd30 5615 4131

fc1.3.bias f4 [64]
-0.031677 0.40602526 -0.24555601 -0.061213158 0.05128364 0.48922306 -0.16447344 -0.30658236
-1.1327896 0.45087457 -0.6776856 -0.14880478 -0.0012200222 -0.00031717078 -0.17317405 -0.20584369
0.30006787 0.10171026 0.61781186 -0.32268217 -0.185616 -0.25568628 -0.13799828 0.056482747
-0.18769586 -0.18107016 0.07923436 -0.14796029 0.16033418 0.015290744 -0.11131281 0.5251563
-0.67414373 -0.15235649 0.2044867 0.09959714 0.16013774 0.0028497982 0.11434802 -0.20240813
0.39758277 -0.98177737 0.73841363 -1.3790847 -0.3437263 0.2338214 0.4376958 -0.46924037
-1.2678261 0.11615574 -0.023107873 -0.017908676 -0.5449306 0.14809646 -0.16601455 -1.2769009
0.16864458 -0.0012253019 -0.038174424 -0.95583993 0.38300523 0.0104401065 -0.38012514 -0.33319873
00000000: bebf 01bd 8be2 cf3e 0973 7bbe a6ba 7abd
00000010: cb0e 523d 727b fa3e ba6b 28be 5df8 9cbe
00000020: 40ff 90bf 08d9 e63e ce7c 2dbf 4860 18be
00000030: 27e9 9fba f149 a6b9 8a54 31be b0c8 52be
00000040: 7fa2 993e 784d d03d eb28 1e3f 9936 a5be
00000050: 1f12 3ebe 50e9 82be 6c4f 0dbe 745a 673d
00000060: 5833 40be 756a 39be a045 a23d e782 17be
00000070: a52e 243e 0786 7a3c f8f7 e3bd a570 063f
00000080: af94 2cbf 5703 1cbe f664 513e 96f9 cb3d
00000090: 26fb 233e aec3 3a3b 4b2f ea3d 1444 4fbe
000000a0: f88f cb3e c355 7bbf ad08 3d3f d985 b0bf
000000b0: e5fc afbe e16e 6f3e aa19 e03e 4640 f0be
000000c0: 2048 a2bf 10e3 ed3d b94c bdbc 37b5 92bc
000000d0: 9280 0bbf 99a6 173e b8ff 29be 7d71 a3bf
000000e0: 2ab1 2c3e 4f9a a0ba c95c 1cbd edb1 74bf
000000f0: 4319 c43e fb0c 2b3c c39f c2be 0699 aabe

fc1.4.weight f4 [64, 500]
1.7354904 0.03621927 -0.08245683 0.04945418 0.027469927 -0.3178536 0.83274776 0.11167012
1.004882 0.09344959 0.02081062 -0.0042947372 -0.13041633 0.35610688 0.3010275 0.26035893
-0.38778403 0.023178479 0.098796204 0.39793444 0.07323332 0.7202989 -0.040514354 0.26921308
0.5660909 0.56663007 -0.10664019 -0.060416557 0.05724894 -0.024868365 -0.3162111 0.4493923
0.23663224 0.03364178 -0.26906988 0.05353429 0.026367756 -0.012543658 0.40001076 0.6529552
-0.31392762 0.24933705 0.28520644 0.16948277 0.08081622 -0.21289903 -0.1686152 -0.05302927
0.06775722 0.044192247 0.124546215 -0.4112164 0.27408037 0.29979786 0.26649776 0.15496917
-0.0805632 0.06665773 0.010730953 -0.012354058 0.16154888 0.12607713 -0.20675564 0.023383513
0.014263325 -0.040401414 0.52521586 -0.24298447 -0.25137362 -0.23300512 -1.187052 0.11959712
-0.03278153 -0.23409005 0.031678677 0.2143341 0.05080397 0.25160608 -0.13119438 0.17219864
-0.14049885 -0.0649042 0.08392757 0.17335235 -0.07728861 -0.24932109 -0.029806208 -0.2959727
-0.24575795 -1.2788607 -0.24815026 -0.05354034 0.54299897 0.27936143 0.38638756 0.17579056
-0.16645795 0.3159592 0.2250783 0.21169555 0.1794299 -0.018105078 0.15253761 -0.054858003
0.22698127 -0.10858295 0.077009104 0.039521016 -0.09993098 -0.3756384 0.116805956 -0.31389385
0.0791222 0.21608171 -0.16587141 0.31641766 0.14888723 -0.059629317 -0.46634445 0.26157838
-0.14690754 -0.24765594 -0.047485925 -0.28605697 -0.38423723 -0.19339013 -0.2264438 -0.24725398
-0.024230644 0.10318515 -0.22110938 -0.07866401 -0.15496004 -0.15536688 -0.18710847 -0.12683272
-0.35698986 -0.23065464 0.011513103 -0.40853888 0.269629 0.17688705 -0.3848695 -0.14189598
-0.2695711 -0.12971646 0.018510386 0.026707113 -0.3165575 0.20522127 -0.12119721 0.20033643
-0.23971888 -0.14032212 0.07579176 -0.04181881 0.3353421 0.37401617 -0.17050096 0.47623122
-0.27441517 0.08652103 -0.13501148 -0.13957313 0.55991757 -0.09140149 0.0669777 -0.6424704
0.18727672 0.3395524 0.07051632 0.12515527 0.35616758 0.07793146 0.40450665 -0.09913671
-0.11927094 -0.0013588424 0.032509435 0.10017467 -0.21953832 0.07178133 -0.12221434 0.19925244
1.709981 0.023792569 -0.11778859 -0.15763606 0.08189719 -0.1434845 -0.10394704 -0.11617306
0.016244227 0.32466948 0.2204597 0.0060847295 0.044087067 -0.21832198 -0.14866303 0.07417769
0.71441025 -0.22425729 0.22676308 -0.44010293 0.48325956 -0.26228738 -0.23237848 -0.03526915
0.31653273 0.15419258 0.08877803 -0.058638263 -0.14657067 -0.19539638 0.22502571 0.023221808
0.2145114 -0.15791602 -0.2835482 -0.1968457 -0.03425278 -0.087852284 -0.09606516 -0.084884584
-0.1374094 -0.394547 -0.1925894 -0.23074625 -0.14446284 -0.107793264 -0.19569847 0.21295275
-0.20414296 0.2132595 -0.15574914 -0.65999323 0.017284526 -0.20752949 -0.29069662 -0.30506283
-0.16210088 -0.1266444 0.25926128 -0.17878377 -0.29521424 -0.1496662 -0.17450906 -0.31527415
0.359168 -0.022485085 -0.07787661 -0.68664247 -0.16690381 -0.28579158 -0.2292925 -0.05972915
00000000: 8d24 de3f a85a 143d 20df a8bd 7790 4a3d
00000010: 9d08 e13c b5bd a2be f52e 553f 4eb3 e43d
00000020: f99f 803f 8062 bf3d 097b aa3c deba 8cbb
00000030: dc8b 05be a453 b63e 4720 9a3e c44d 853e
00000040: a18b c6be cbe0 bd3c aa55 ca3d 10be cb3e
00000050: 5afb 953d 8265 383f 61f2 25bd 4cd6 893e
00000060: 55eb 103f ab0e 113f 2c66 dabd 5a77 77bd
00000070: dd7d 6a3d beb8 cbbc 6ce6 a1be bf16 e63e
00000080: b94f 723e f7cb 093d 87c3 89be c646 5b3d
00000090: 3101 d83c ea83 4dbc 36ce cc3e 1228 273f
000000a0: 1fbb a0be 3652 7f3e 9406 923e e48c 2d3e
000000b0: f982 a53d 3402 5abe 77a9 2cbe 3835 59bd
000000c0: 4cc4 8a3d ee02 353d 1612 ff3d f58a d2be
000000d0: 4354 8c3e 1b7f 993e 6572 883e 3db0 1e3e
000000e0: 52fe a4bd d983 883d e1d0 2f3c ad68 4abc
000000f0: 126d 253e 5d1a 013e c0b7 53be c88e bf3c
00000100: b9b0 693c f47b 25bd 8c74 063f ecd0 78be
00000110: 0bb4 80be e598 6ebe 52f1 97bf 56ef f43d
00000120: ed45 06bd 4db5 6fbe 80c1 013d 667a 5b3e
00000130: d317 503d 83d2 803e d257 06be d754 303e
00000140: eede 0fbe 7eec 84bd 38e2 ab3d 4783 313e
00000150: 7e49 9ebd 074e 7fbe 262c f4bc bc89 97be
00000160: f9a7 7bbe b5b1 a3bf 1a1b 7ebe 1e4d 5bbd
00000170: fb01 0b3f 7608 8f3e 97d4 c53e 7102 343e
00000180: f473 2abe 67c5 a13e ed7a 663e b8c6 583e
00000190: 79bc 373e 1a51 94bc d232 1c3e c9b2 60bd
000001a0: c76d 683e bd60 debd f3b6 9d3d cae0 213d
000001b0: 9da8 ccbd ad53 c0be f637 ef3d b2b6 a0be
000001c0: d20a a23d 8644 5d3e 32da 29be 7f01 a23e
000001d0: e575 183e df3d 74bd b3c4 eebe 9aed 853e
000001e0: ee6e 16be 8599 7dbe 9a80 42bd 0f76 92be
000001f0: beba c4be 1008 46be e2e0 67be 2630 7dbe
00000200: 587f c6bc bc52 d33d 7f6a 62be 991a a1bd
00000210: d8ad 1ebe 7f18 1fbe 5d99 3fbe 70e0 01be
00000220: 60c7 b6be bb30 6cbe 74a1 3c3c 022c d1be
00000230: d00c 8a3e e121 353e 9d0d c5be 2e4d 11be
00000240: 3905 8abe 64d4 04be 18a3 973c e0c8 da3c
00000250: d313 a2be 8625 523e 3e36 f8bd fe24 4d3e
00000260: de78 75be 9ab0 0fbe b638 9b3d 334a 2bbd
00000270: f6b1 ab3e 0c7f bf3e ce97 2ebe 94d4 f33e
00000280: 2580 8cbe f031 b13d 7340 0abe 42ec 0ebe
00000290: c256 0f3f b430 bbbd 9b2b 893d f178 24bf
000002a0: 78c5 3f3e d0d9 ad3e dc6a 903d b428 003e
000002b0: 995b b63e 889a 9f3d 7f1b cf3e 3008 cbbd
000002c0: 5344 f4bd 2f1b b2ba 9d28 053d 6128 cd3d
000002d0: a7ce 60be 1702 933d 834b fabd d508 4c3e
000002e0: a8e0 da3f a2e8 c23c 253b f1bd 596b 21be
000002f0: b7b9 a73d 9aed 12be 30e2 d4bd 24ec edbd
00000300: 9d12 853c 143b a63e 30c0 613e 6962 c73b
00000310: a494 343d cc8f 5fbe 1f3b 18be 79ea 973d
00000320: 97e3 363f b4a3 65be 9534 683e 2c55 e1be
00000330: cc6d f73e 884a 86be a0f4 6dbe 6276 10bd
00000340: 9410 a23e a9e4 1d3e 41d1 b53d ad2e 70bd
00000350: 9f16 16be fd15 48be 246d 663e a93b be3c
00000360: e0a8 5b3e bdb4 21be 3b2d 91be eb91 49be
00000370: a54c 0cbd e6eb b3bd d0bd c4bd f8d7 adbd
00000380: 0db5 0cbe 1002 cabe 2836 45be bf48 6cbe
00000390: 11ee 13be b7c2 dcbd 2e65 48be 4910 5a3e
000003a0: da0a 51be b360 5a3e b47c 1fbe 51f5 28bf
000003b0: 4798 8d3c 9c82 54be 30d6 94be 3231 9cbe
000003c0: c6fd 25be 12af 01be e5bd 843e 1813 37be
000003d0: 5226 97be 1942 19be 81b2 32be 9d6b a1be
000003e0: dee4 b73e a432 b8bc c67d 9fbd cdc7 2fbf
000003f0: d5e8 2abe 4653 92be a7cb 6abe 8ea6 74bd

fc1.4.bias f4 [64]
0.030710232 0.008235058 -0.0007599099 0.017042616 0.016676791 0.017030673 0.0063905553 0.018984368
0.023077555 0.022929935 0.01315793 0.005852718 0.034882855 0.012972395 0.01628749 0.030674566
0.03533454 0.0058973376 0.011801414 0.051736936 -0.0018551992 -0.005014281 0.0022795692 0.01653965
0.0058780867 0.012108023 0.009125297 0.013055791 0.043382842 0.013746795 0.011466977 0.030818045
0.0029744098 0.0038546706 0.0041113826 0.010773886 0.0064003733 0.0002193001 0.015341805 0.0053256834
0.0032086922 -0.018936742 0.012631688 0.01570589 0.020967893 0.043313142 0.04331434 0.026303511
0.04579669 0.03838452 0.013917271 0.026292484 0.0017682576 0.056033283 0.010257025 -0.007910741
0.00047594451 0.014852402 -0.014734174 0.030148402 0.021821741 0.019774228 -0.01870069 0.009128635
00000000: 0694 fb3c 56ec 063c b134 47ba f59c 8b3c
00000010: c49d 883c e983 8b3c dd67 d13b 1b85 9b3c
00000020: 240d bd3c 8fd7 bb3c 5c94 573c 28c8 bf3b
00000030: 53e1 0e3d 2b8a 543c 586d 853c 3a49 fb3c
00000040: f3ba 103d 743e c13b b85a 413c 1cea 533d
00000050: 282a f3ba d64e a4bb d364 153b 297e 873c
00000060: f79c c03b bb60 463c 4582 153c f5e7 553c
00000070: 35b2 313d 3d3a 613c fddf 3b3c 2076 fc3c
00000080: 51ee 423b a49e 7c3b c7b8 863b f484 303c
00000090: 39ba d13b ecf3 6539 325c 7b3c 1283 ae3b
000000a0: ec48 523b 3a21 9bbc 24f5 4e3c a3a9 803c
000000b0: dcc4 ab3c 1f69 313d 616a 313d 767a d73c
000000c0: 4f95 3b3d 1639 1d3d 4405 643c 5663 d73c
000000d0: e1c4 e73a 2883 653d 150d 283c 0d9c 01bc
000000e0: 3188 f939 7d57 733c 9b67 71bc c8f9 f63c
000000f0: 82c3 b23c 90fd a13c 3032 99bc 4590 153c

fc1.5.weight f4 [64, 500]
0.018577043 -1.4869159e-09 -2.6057287e-10 4.3573303e-10 2.3316366e-10 -6.470479e-10 -1.5171803e-09 4.7814125e-10
1.294723e-08 1.2195975e-09 1.4373885e-09 1.4448543e-09 7.691074e-10 -1.6531849e-09 1.30501e-09 3.1369415e-05
-2.637309e-08 1.6068975e-09 1.5785063e-09 2.856624e-10 -1.761045e-09 -7.910151e-09 1.8596981e-09 -4.04814e-09
-2.0090467e-09 7.1855553e-09 -1.9053092e-09 -1.5382372e-10 6.739225e-10 7.4270623e-10 5.9394556e-10 3.4365861e-09
1.14115695e-08 -1.0508483e-08 -6.7439065e-10 1.6000441e-09 1.5701672e-09 1.1210237e-09 -8.465339e-09 2.2869733e-09
-1.531518e-09 -1.5643515e-09 1.7466438e-09 -1.8368046e-09 3.9383038e-10 -6.9860984e-10 1.1400871e-09 -1.4665623e-09
7.467191e-12 -3.5671293e-09 -1.1660992e-09 8.01733e-10 -2.5623068e-09 -5.2401448e-09 -5.1436677e-09 6.3544975e-10
-6.540954e-10 -1.2684058e-09 -2.6879002e-10 2.694294e-10 3.1041185e-09 -6.896719e-10 1.4685174e-09 1.7663295e-09
6.3717565e-10 1.7164309e-10 -6.982078e-11 -1.8008107e-09 -1.0683088e-09 -2.7135068e-09 -6.8357533e-09 -2.0593551e-09
1.6397306e-09 9.489682e-10 2.6535796e-09 6.755733e-10 -9.503419e-10 -9.864191e-10 5.0294036e-10 -1.4640365e-10
-2.728091e-10 -1.0517363e-09 6.1446265e-10 -1.3493885e-09 1.5867576e-09 1.8749882e-09 8.082653e-10 6.1604094e-10
2.3016433e-11 -4.2246998e-07 8.8693955e-11 2.7189756e-10 4.7703885e-10 -5.604634e-10 1.1231467e-09 -4.997881e-10
-8.5629676e-10 5.2570664e-10 -2.020439e-10 -3.0991484e-10 1.2448346e-09 -1.3172173e-09 -2.0215445e-10 -1.2186299e-09
-3.801177e-10 1.4289923e-09 9.559322e-10 4.3882625e-10 1.7222446e-10 -8.1639717e-10 1.496587e-09 4.352716e-10
-2.5230917e-10 1.5067857e-10 1.2013737e-09 1.2233102e-09 8.5110463e-10 -1.3385076e-09 7.629731e-10 1.7364212e-09
-1.2683907e-09 -1.3077485e-09 -9.43627e-10 -1.2225321e-08 6.550355e-10 1.0135098e-09 -1.1168946e-09 -9.868774e-10
8.694997e-10 5.1002697e-10 1.054723e-09 1.1469791e-09 6.333722e-10 -1.0616437e-09 -9.207702e-10 -7.3813045e-10
-5.9882205e-10 2.6353388e-09 1.3271964e-09 9.393069e-10 -8.6876456e-10 5.456143e-10 -8.4565005e-10 2.3296015e-10
-1.346008e-09 -6.6181177e-10 2.2958924e-09 6.1660255e-10 1.1869478e-09 -5.1794086e-06 1.6305983e-11 -9.763799e-10
-8.877023e-10 1.8089653e-10 -6.513149e-10 -9.67367e-10 -2.238565e-10 1.7621985e-09 1.7995579e-10 -2.3260702e-09
-2.4330429e-09 1.4423069e-09 -1.2725769e-06 -6.7857825e-10 -1.4412914e-09 6.4873806e-10 1.4792697e-09 -2.2508316e-10
-2.319682e-09 1.2089316e-09 -2.2682552e-10 -5.131872e-10 8.81272e-10 -1.9420263e-09 -2.74713e-10 -6.9897316e-10
9.356954e-10 -7.609591e-10 5.411535e-10 7.279515e-10 5.1289156e-10 6.0607436e-10 -3.7726494e-10 1.3794623e-09
-3.9846637e-09 1.4728523e-09 1.2180272e-10 -1.0802111e-09 1.4197144e-12 7.5215995e-10 8.5808693e-11 5.6095506e-10
6.313675e-10 -1.0636807e-09 -1.038233e-09 -3.2037784e-10 4.1477524e-05 -6.226655e-10 -1.9847614e-10 6.62249e-10
-5.2547466e-10 -9.440128e-11 -4.1737525e-09 1.8350044e-09 -9.201603e-09 2.3733941e-09 1.027748e-09 7.98018e-10
4.847791e-10 -7.3563744e-10 1.1025358e-09 1.3490893e-09 3.7856838e-09 1.3677506e-09 3.98476e-10 -5.929662e-11
-7.1625084e-10 2.0617894e-09 3.2700267e-09 -2.6977973e-09 1.1333742e-09 5.5197025e-10 -8.8720026e-10 -6.221802e-10
3.4360563e-09 -6.126407e-10 -1.165806e-09 1.5279887e-10 -6.8785905e-10 -3.8627598e-10 8.274473e-10 1.9329558e-09
-3.318928e-10 3.7010772e-10 1.5001692e-09 6.585428e-09 -1.6763203e-09 2.941766e-09 8.835743e-10 -2.4652527e-10
4.668667e-10 3.7477216e-10 -4.7551596e-10 3.0704807e-11 -1.0830755e-09 -8.1265783e-10 4.3612672e-10 4.085476e-09
1.4167534e-09 6.761451e-10 8.7928625e-10 -4.2996695e-09 1.2351635e-09 -1.181078e-09 -7.6197093e-10 -1.1447233e-10
00000000: e22e 983c 345c ccb0 5f40 8faf f98b ef2f
00000010: de2e 802f f3db 31b0 0985 d0b0 336e 0330
00000020: 856e 5e32 c69e a730 9d8d c530 4b94 c630
00000030: 1f69 5330 4636 e3b0 f55b b330 a792 0338
00000040: 0a8b e2b2 aed9 dc30 c1f2 d830 690b 9d2f
00000050: 4309 f2b0 36e5 07b2 4f98 ff30 d117 8bb1
00000060: 860f 0ab1 d0e4 f631 8eee 02b1 8721 29af
00000070: 143f 3930 4e27 4c30 3443 2330 1029 6c31
00000080: 9d0c 4432 cc88 34b2 0660 39b0 8ce8 db30
00000090: 59cd d730 8412 9a30 f46e 11b2 dc28 1d31
000000a0: 807d d2b0 ba00 d7b0 910e f030 d172 fcb0
000000b0: b382 d82f 4c08 40b0 40b1 9c30 1390 c9b0
000000c0: 3d5d 032d 9a21 75b1 7844 a0b0 f260 5c30
000000d0: 9414 30b1 cd0c b4b1 2ebc b0b1 cdab 2e30
000000e0: dfcb 33b0 1054 aeb0 d5c4 93af d11e 942f
000000f0: 3b50 5531 5893 3db0 ddd4 c930 32c3 f230
00000100: 4025 2f30 3cb9 3c2f 9b89 99ae 6580 f7b0
00000110: c6d3 92b0 8478 3ab1 ecdf eab1 8f84 0db1
00000120: e45c e130 da6c 8230 445a 3631 3fb3 3930
00000130: 2f9d 82b0 8992 87b0 483f 0a30 f7f8 20af
00000140: 78fa 95af ae8c 90b0 f7e6 2830 6375 b9b0
00000150: 1215 da30 24d9 0031 9d2c 5e30 0756 2930
00000160: 6674 ca2d d5cf e2b4 420a c32e 2e7a 952f
00000170: a020 0330 1b0f 1ab0 365d 9a30 7661 09b0
00000180: 8760 6bb0 5181 1030 4d26 5eaf a360 aaaf
00000190: b916 ab30 7709 b5b0 6b45 5eaf ba7c a7b0
000001a0: cff8 d0af 3266 c430 e061 8330 4e3f f12f
000001b0: e05c 3d2f d868 60b0 79b0 cd30 084b ef2f
000001c0: 5cb5 8aaf 3fac 252f 941d a530 6721 a830
000001d0: 2af3 6930 8df6 b7b0 75b9 5130 e4a6 ee30
000001e0: 8853 aeb0 4fbc b3b0 ecb0 81b0 8807 52b2
000001f0: 070e 3430 b54b 8b30 3c81 99b0 a9a2 87b0
00000200: 9a01 6f30 f531 0c30 c4f5 9030 bda3 9d30
00000210: 9b19 2e30 44e9 91b0 7119 7db0 50e5 4ab0
00000220: 5b9a 24b0 5f19 3531 9268 b630 ec18 8130
00000230: dfcd 6eb0 31fa 1530 5573 68b0 3a12 802f
00000240: 72fe b8b0 ddea 35b0 c4c5 1d31 8c7d 2930
00000250: 0322 a330 c8ca adb6 cf6d 8f2d 5031 86b0
00000260: 7f02 74b0 d9e5 462f 3608 33b0 33f4 84b0
00000270: 0122 76af d931 f230 0ddd 452f a9d8 1fb1
00000280: 8b32 27b1 aa3a c630 69cd aab5 b386 3ab0
00000290: ef16 c6b0 e252 3230 2d4f cb30 477b 77af
000002a0: 4768 1fb1 8027 a630 b565 79af 5710 0db0
000002b0: 013e 7230 7d74 05b1 6b06 97af dd21 40b0
000002c0: db99 8030 bc2b 51b0 4bc0 1430 0819 4830
000002d0: 89fb 0c30 b198 2630 5267 cfaf 8497 bd30
000002e0: 79e9 88b1 626d ca30 6bec 052f 8d76 94b0
000002f0: 9ace c72b 8dc0 4e30 00b2 bc2e b431 1a30
00000300: 8a8c 2d30 f030 92b0 94b1 8eb0 2c21 b0af
00000310: 27f8 2d38 3028 2bb0 113a 5aaf a109 3630
00000320: fe70 10b0 3297 cfae b768 8fb1 7a33 fc30
00000330: 1415 1eb2 3119 2331 ab40 8d30 865b 5b30
00000340: 4c41 0530 e235 4ab0 0888 9730 dc6a b930
00000350: 3a13 8231 72fb bb30 8310 db2f 0865 82ae
00000360: ace1 44b0 62af 0d31 ebb6 6031 2764 39b1
00000370: 0fc5 9b30 74b9 1730 2bdf 73b0 0a06 2bb0
00000380: be1f 6c31 c266 28b0 273a a0b0 0f01 282f
00000390: c713 3db0 835b d4af 6d72 6330 ebd4 0431
000003a0: c275 b6af 0878 cb2f 832e ce30 0a46 e231
000003b0: 4764 e6b0 1828 4a31 04e0 7230 5987 87af
000003c0: d354 0030 7e08 ce2f 76b5 02b0 8a0a 072e
000003d0: 55db 94b0 b661 5fb0 61c3 ef2f 3a60 8c31
000003e0: 94b7 c230 7bdb 3930 45b2 7130 4bbc 93b1
000003f0: 74c2 a930 7d53 a2b0 f072 51b0 31ba fbae

fc1.5.bias f4 [64]
0.34658998 0.12006524 0.27407148 -1.1487256 0.24377455 0.25096965 0.19191086 -1.156854
-1.0824177 0.26801378 -0.6937601 0.17323981 0.24127091 0.11456909 0.0026025316 0.2647528
0.23381245 0.2133476 0.22096951 -0.74296796 0.20306617 -0.17415945 0.1844128 0.254744
0.20044525 0.26393604 0.14481612 0.13560319 0.2013894 0.17834254 0.23402107 0.30938032
-0.9143691 -0.8588385 0.12490526 0.21047787 0.24017547 0.18268344 0.12188755 0.27141792
0.16784145 -0.4568133 -0.84662074 0.35195705 0.22614303 0.27068353 0.22712608 -0.7766538
-0.8437796 0.29619628 -1.2783577 0.28305355 -0.86818755 0.15489787 0.28907534 -0.6636603
0.19501561 0.28185147 0.24361458 -0.8025219 0.2636657 0.22460464 0.2782614 -0.4895084
00000000: 3e74 b13e c4e4 f53d 1953 8c3e 7109 93bf
00000010: 09a0 793e 187f 803e 4884 443e cb13 94bf
00000020: aa8c 8abf 1a39 893e 439a 31bf c765 313e
00000030: b90f 773e 33a3 ea3d 3c8f 2a3b ae8d 873e
00000040: 886c 6f3e cb77 5a3e d545 623e 2633 3ebf
00000050: 94f0 4f3e db56 32be b6d6 3c3e ce6d 823e
00000060: 8541 4d3e a022 873e ad4a 143e 90db 0a3e
00000070: 0639 4e3e 6d9f 363e 38a3 6f3e 1967 9e3e
00000080: 1814 6abf d7dc 5bbf 54ce ff3d 8387 573e
00000090: 8ff0 753e 5e11 3b3e 2ea0 f93d 4af7 8a3e
000000a0: a1de 2b3e 6fe3 e9be 23bc 58bf b733 b43e
000000b0: 0a92 673e 0897 8a3e bd93 683e c9d2 46bf
000000c0: f101 58bf 0aa7 973e 3aa1 a3bf 65ec 903e
000000d0: 8a41 5ebf 8c9d 1e3e af01 943e a4e5 29bf
000000e0: 2cb2 473e d64e 903e 1a76 793e 1372 4dbf
000000f0: 31ff 863e c2fe 653e 4778 8e3e d8a0 fabe
