saved_pretrained/pubmed_6.pt (torch, 904063 bytes, 16 tensors)

fc1.0.weight f4 [64, 500]
-1.660189 -0.13991356 0.14225496 0.0050243665 -0.02536697 0.32859373 -0.28489944 0.11247228
-0.9161412 -0.32258663 0.22915909 -0.08022013 0.23578303 -0.29744983 -0.14474458 -0.92809373
0.87187225 0.16558719 0.42571667 0.33318692 0.26010385 -0.37336597 -0.052622993 -0.07248728
-0.81336284 -0.16882199 0.06836884 -0.080303006 -0.29713592 -0.24382529 -0.52223283 -0.23494446
-0.08702495 -0.107330106 -0.18590766 0.08383855 -0.6051685 -0.69856155 -0.42364016 -0.4028468
0.3885614 -0.4618865 0.07652207 -0.61729825 -0.18781927 0.32370886 0.044802763 -0.5449913
0.38442716 0.024531381 0.062442977 -0.049613416 -0.2675678 0.039431877 -0.27474156 -0.021056665
0.19212493 -0.2221796 -0.34901145 0.25934842 0.051334202 0.05121327 -0.15797529 -0.04236992
0.35900554 -0.24218704 0.014611963 0.12392518 0.13752267 -0.0781616 0.37827328 -0.09884596
0.020616772 -0.1275958 0.22057883 0.030793512 -0.029221175 -0.16459222 0.07724282 -0.6978077
0.14520419 -0.24826215 0.12125983 -0.03369638 -0.12493006 0.057576876 0.110294566 0.56668293
-0.004075139 1.0893947 -0.08867866 -0.04303307 -0.24978147 0.035607375 0.29063913 0.3252786
0.1753423 -0.19914876 -0.28494006 -0.5798109 0.07936699 -0.23768637 -0.08285829 -0.016150955
-0.24163884 0.28194112 -0.30425966 -0.026087321 -0.18421021 -0.28473574 -0.016658839 0.012033045
-0.52141565 0.5205088 0.048338618 0.20086603 -0.638331 0.3093452 -0.028435642 0.027963562
0.12997742 0.25564924 -0.05659835 0.07497275 -0.097055756 -0.285756 0.23282729 0.018573761
-0.19163856 -0.11412122 0.15199947 -0.048104305 0.3884456 -0.4643851 -0.23163562 -0.14801937
-0.13356112 0.040874757 -0.15989025 0.25371152 -0.18381608 -0.22247867 0.107941456 -0.16705158
-0.25334376 0.021068607 0.35245988 0.117097326 0.70016867 0.16055562 -0.518074 -0.055401
0.07090359 -0.06330766 -0.0140486015 0.2348088 -0.19137488 -0.5297268 -0.10017619 -0.50288683
-0.010925333 0.21546388 -0.38938114 0.14428489 -0.31207025 -0.19394445 0.41833085 0.14226271
-0.1161047 -0.22854257 -0.18682218 0.49016443 0.15226263 -0.5873078 -0.5598379 -0.048718005
0.17713232 -0.39868963 0.38863584 -0.3241407 -0.39392018 -0.02004716 0.40765747 0.10770178
-1.3707898 0.17733411 0.011058484 -0.39496166 0.019520646 -0.37054303 -0.02228223 -0.45245007
-0.39139065 -0.45838463 0.07435585 -0.013640411 -0.15592161 0.71748435 -0.31849298 0.005589857
-0.3192405 0.21004415 -0.02134367 -0.2337215 -0.11078811 -0.034117542 -0.12538281 -0.2656377
0.18078673 0.27718037 0.12161995 -0.000253525 -0.114806354 0.44443122 0.00082681334 0.23231876
0.53973025 0.11343337 0.039877225 -0.31970575 0.045613345 0.19406953 0.22375162 -0.37182632
0.24546312 0.15741542 -0.053494528 -0.031298634 -0.40415436 0.42430508 0.12950529 -0.43946373
0.6270457 0.024330296 0.278604 -0.05948091 0.067755856 -0.051868685 0.5874444 -0.31412634
-0.05761415 0.055164617 -0.18663435 0.19193491 0.07464073 0.08014817 0.06530301 0.36677477
-0.2848941 -0.52083266 0.30679286 0.6125839 0.06770105 0.13313016 -0.31338108 0.124493375
00000000: 1381 d4bf 8045 0fbe 49ab 113e 71a3 a43b
00000010: 64ce cfbc 703d a83e 57de 91be de57 e63d
00000020: 3b88 6abf 132a a5be aea8 6a3e 744a a4bd
00000030: 1b71 713e 584b 98be ec37 14be 8d97 6dbf
00000040: 0533 5f3f b08f 293e 89f7 d93e 7a97 aa3e
00000050: 552c 853e d329 bfbe 358b 57bd 3674 94bd
00000060: 8c38 50bf acdf 2cbe f604 8c3d e775 a4bd
00000070: 3322 98be 56ad 79be 0db1 05bf 4895 70be
00000080: 233a b2bd e3cf dbbd 945e 3ebe 8cb3 ab3d
00000090: 53ec 1abf eed4 32bf 5de7 d8be f041 cebe
000000a0: 85f1 c63e 637c ecbe 9ab7 9c3d 4207 1ebf
000000b0: b253 40be 2bbd a53e 1a83 373d 8d84 0bbf
000000c0: a3d3 c43e 09f6 c83c 35c4 7f3d 7037 4bbd
000000d0: a6fe 88be 5283 213d edaa 8cbe 077f acbc
000000e0: 66bc 443e 0d83 63be a1b1 b2be 51c9 843e
000000f0: d043 523d 01c5 513d 46c4 21be 158c 2dbd
00000100: 93cf b73e e1ff 77be 0467 6f3c 7ccc fd3d
00000110: bed2 0c3e 3013 a0bd 09ad c13e c06f cabd
00000120: 81e4 a83c 79a8 02be 6bdf 613e ad42 fc3c
00000130: 3f61 efbc dd8a 28be 7c31 9e3d 87a3 32bf
00000140: 68b0 143e 6f38 7ebe 1357 f83d 3705 0abd
00000150: 55db ffbd bbd5 6b3d 1ee2 e13d 2212 113f
00000160: be88 85bb 4971 8b3f 289d b5bd 7243 30bd
00000170: b7c6 7fbe 0ad9 113d a7ce 943e eb8a a63e
00000180: ef8c 333e a7ed 4bbe aae3 91be 7d6e 14bf
00000190: 298b a23d 0e64 73be 9bb1 a9bd 024f 84bc
000001a0: 2c70 77be 965a 903e ecc7 9bbe 14b5 d5bc
000001b0: 9aa1 3cbe e2c8 91be 1e78 88bc 4026 453c
000001c0: 7f7b 05bf 1140 053f b7fe 453d d3af 4d3e
000001d0: a969 23bf 7e62 9e3e ddf1 e8bc d713 e53c
000001e0: cd18 053e 75e4 823e acd3 67bd 508b 993d
000001f0: 2bc5 c6bd 9c4e 92be 476a 6e3e 0028 983c
00000200: e63c 44be 63b8 e9bd c0a5 1b3e 0509 45bd
00000210: 57e2 c63e e2c3 edbe e331 6dbe 6492 17be
00000220: 3fc4 08be 4a6c 273d 45ba 23be 7ae6 813e
00000230: 483a 3cbe 73d1 63be 6910 dd3d 920f 2bbe
00000240: 46b6 81be 1298 ac3c 9f75 b43e b9d0 ef3d
00000250: 413e 333f b168 243e 7fa0 04bf 29ec 62bd
00000260: e735 913d 72a7 81bd 1b2c 66bc b871 703e
00000270: c7f7 43be 2d9c 07bf 2d29 cdbd 31bd 00bf
00000280: 2b00 33bc 90a2 5c3e f75c c7be 6bbf 133e
00000290: acc7 9fbe 6099 46be 762f d63e 51ad 113e
000002a0: 4dc8 edbd 1007 6abe 504e 3fbe d5f6 fa3e
000002b0: bcea 1b3e ce59 16bf 8951 0fbf 888c 47bd
000002c0: 2d62 353e 0c21 ccbe 47fb c63e c5f5 a5be
000002d0: e8af c9be f139 a4bc 7bb8 d03e c092 dc3d
000002e0: 0a76 afbf 1397 353e a52e 353c 6a38 cabe
000002f0: c3e9 9f3c d1b7 bdbe 3989 b6bc 89a7 e7be
00000300: 5b64 c8be 64b1 eabe e147 983d 087c 5fbc
00000310: eaa9 1fbe 0ead 373f 8311 a3be 1f2b b73b
00000320: 7e73 a3be d015 573e ecd8 aebc b054 6fbe
00000330: e0e4 e2bd d6be 0bbd 5a64 00be aa01 88be
00000340: 2820 393e 96ea 8d3e e113 f93d 8deb 84b9
00000350: 981f ebbd 7d8c e33e 81be 583a f8e4 6d3e
00000360: c32b 0a3f c14f e83d 4d56 233d 79b0 a3be
00000370: 0fd5 3a3d 2aba 463e 251f 653e 0560 bebe
00000380: af5a 7b3e 8231 213e 141d 5bbd ff32 00bd
00000390: 52ed cebe 843e d93e 099d 043e 6401 e1be
000003a0: 1186 203f 5450 c73c 2fa5 8e3e 41a2 73bd
000003b0: 95c3 8a3d 4274 54bd c262 163f 2bd5 a0be
000003c0: d1fc 6bbd 4bf4 613d 131d 3fbe 968a 443e
000003d0: 3ddd 983d b924 a43d 96bd 853d e7c9 bb3e
000003e0: a4dd 91be 4a55 05bf f413 9d3e 4cd2 1c3f
000003f0: d9a6 8a3d 4653 083e 7c73 a0be 62f6 fe3d

fc1.0.bias f4 [64]
0.06555496 0.035185 0.00867622 0.031983398 -0.025375923 -0.025175503 0.0651359 -0.016454484
0.024198392 0.010613984 -0.00024779222 0.043884467 -0.0075047966 -0.014814738 0.015575766 0.013735383
0.0144794285 0.01794046 -0.0027260138 0.020505894 0.015317245 0.016584978 -0.014262263 -0.0007384173
0.005288188 -0.008739713 0.011596822 0.0092833135 0.056378674 0.036425553 0.058629062 0.017867515
0.006003559 0.04330407 0.015520472 0.04309 0.0015643988 0.06510954 0.025873402 0.0020386202
0.03173804 0.021013344 0.027530028 -0.0072829085 -0.008358763 -0.0015369531 0.010406348 0.0013372522
-0.013454398 0.077803835 0.033167 0.0070353528 0.010919783 0.005557818 0.018650642 0.0010245254
0.0055173812 0.030247351 -0.0024350404 0.031429328 0.002384727 0.0057763667 0.053401634 0.011562533
00000000: ae41 863d 261e 103d b426 0e3c 0601 033d
00000010: 2be1 cfbc db3c cebc f965 853d 8ecb 86bc
00000020: b53b c63c 47e6 2d3c 1cea 81b9 33c0 333d
00000030: ccea f5bb 84b9 72bc 7f31 7f3c 5f0a 613c
00000040: 203b 6d3c dff7 923c eca6 32bb fafb a73c
00000050: 2ff5 7a3c 38dd 873c 44ac 69bc 5992 41ba
00000060: 8948 ad3b 0331 0fbc 9900 3e3c 0a19 183c
00000070: 53ed 663d f632 153d 0725 703d e55e 923c
00000080: 81b9 c43b 9c5f 313d 9449 7e3c 247f 303d
00000090: 830c cd3a 2758 853d 75f4 d33c 5f9a 053b
000000a0: bfff 013d 2d24 ac3c a786 e13c 77a5 eebb
000000b0: 31f3 08bc 9773 c9ba 637f 2a3c bd46 af3a
000000c0: d66f 5cbc 9e57 9f3d 1fda 073d d188 e63b
000000d0: e4e8 323c 5b1e b63b 3bc9 983c 5e49 863a
000000e0: 26cb b43b 4bc9 f73c 3395 1fbb 0abc 003d
000000f0: 1449 1c3b ad47 bd3b acbb 5a3d c770 3d3c

fc1.1.weight f4 [64, 500]
-1.7654151 9.5591e-06 0.009259509 1.1063335e-05 1.4266412e-06 -9.368527e-05 -5.5031353e-05 0.0011157185
-0.24959326 -0.010116809 0.002396924 -0.00012211288 -0.00011590577 -0.0060490626 -0.0007198552 -0.66165555
0.1293026 7.993681e-06 -0.0022393616 -8.123607e-06 0.00012881229 -0.08144257 -0.0008236317 -0.002195841
-0.00030710452 -0.04791185 2.486055e-05 -1.0800721e-06 -0.0037071675 -0.013188078 -1.8962557e-05 -0.03374046
-0.1767804 -0.100475065 -0.0023016995 -0.0066526704 0.0008631848 -0.0017247249 -0.09446401 -0.005656498
-0.00059809716 -0.00028763435 -9.652346e-06 -0.0014032355 3.3940363e-05 -2.105386e-05 -2.2512733e-05 -0.002593201
-2.1279073e-05 0.0623758 4.4455657e-05 3.4060657e-05 -0.015181855 -0.027369305 -0.02123806 -0.0002641844
0.00019796328 0.0002925184 4.703034e-06 1.4170995e-06 -0.065969035 9.728623e-06 0.0011794143 -0.0010426873
-8.775227e-06 -0.0019812759 9.027412e-05 0.0045648348 9.423193e-05 -9.207975e-05 0.12444042 -0.007785717
-0.00013169665 -9.1969036e-05 -0.005117901 5.413638e-06 4.5262077e-05 -0.00023046027 4.680508e-05 -0.0037226232
-5.694428e-05 0.00023696854 4.7684694e-07 -0.00029829855 -2.2960581e-05 6.2332714e-05 0.0014455895 3.424585e-05
-1.6030985e-05 0.3037666 0.00807256 -8.757629e-06 -0.012562985 -0.03727043 4.8913033e-05 -0.01486609
-4.340039e-05 -4.5747356e-06 -0.00036500386 -1.7954715e-05 2.4255856e-05 -2.058202e-05 0.0003498062 1.3870698e-05
5.825407e-06 -0.00019428307 -0.0012926946 1.6856848e-05 1.5064185e-07 3.6702197e-05 -0.0188559 -5.622845e-06
0.00014448623 -3.057196e-06 -4.485262e-05 -2.469337e-06 4.5604193e-06 1.0031433e-06 -0.00027058081 -0.024807712
1.2791066e-06 0.00013515103 0.0035756098 0.029558087 -9.299492e-06 -1.2478663e-05 -2.5057114e-05 2.3953848e-05
-1.7805824e-05 1.751353e-05 -2.3188957e-05 0.00026007442 3.629602e-05 3.513436e-05 -8.838209e-06 -1.4443894e-05
4.2988726e-05 0.0019127404 0.00019174992 0.019280432 -1.4849099e-05 -6.8440113e-06 -5.6493715e-05 4.399327e-05
2.3485542e-05 1.4920789e-06 -0.017146783 0.00017846799 -4.4867098e-05 0.16494396 -5.788788e-06 8.305355e-06
-3.2543721e-06 7.878875e-06 7.164283e-07 -0.00010742327 5.121589e-05 -0.0023843283 -8.39986e-05 -0.015902175
0.00010938694 9.290688e-07 0.10574299 -6.8722916e-06 -0.00023926358 5.0453644e-07 -0.0010056884 2.1867952e-05
-0.003373743 -0.031357598 1.2632558e-05 -4.23034e-05 0.00011078443 -0.006180983 5.0447383e-05 -0.0007325212
3.2711512e-05 -2.3486718e-05 -1.0368477e-05 -0.0020920269 0.00035975158 -9.163094e-06 -2.7425767e-06 -0.021749444
-0.0670727 -3.6280064e-05 -2.9429955e-06 -2.9158295e-05 -7.346146e-06 1.3586756e-05 2.9645707e-06 -0.00027671698
-0.013973025 3.4423218e-05 2.0551581e-06 5.8796086e-06 -0.21636188 -5.9161636e-07 0.000103538776 -1.0070737e-05
-0.0008416177 0.05954847 -0.23292066 5.8838716e-05 -0.102397844 0.0033565385 4.2403535e-06 1.5824013e-05
-2.6727957e-06 -2.0848644e-05 7.666847e-06 1.00924135e-05 0.0006711597 -7.1529685e-05 -9.674011e-07 -4.953226e-06
-2.8894532e-05 -3.5777568e-05 0.00053338445 0.002419752 4.253713e-05 0.003634123 1.0862324e-05 -7.51223e-07
0.0018595416 -5.606214e-06 3.488817e-05 8.271726e-06 -0.00055973954 -1.028237e-06 -1.3131054e-05 0.00371938
0.030022217 -7.976987e-06 0.006271796 0.007130787 -0.0038521462 0.0035413536 3.683586e-05 1.9761708e-05
0.0005295961 -2.1355476e-05 -1.1307405e-05 4.4433615e-05 1.4470657e-05 4.7465986e-05 -2.975308e-06 0.018423062
-0.007037547 -8.844324e-06 2.284483e-05 0.046991955 -0.0019483934 1.22118145e-05 1.8294812e-05 -4.78844e-06
00000000: 1ff9 e1bf 0660 2037 32b5 173c a99c 3937
00000010: 057b bf35 e578 c4b8 77d1 66b8 4d3d 923a
00000020: 6095 7fbe f9c0 25bc b615 1d3b 6d0b 00b9
00000030: 7012 f3b8 3737 c6bb aab4 3cba 4262 29bf
00000040: e767 043e 991c 0637 41c2 12bb a04a 08b7
00000050: c911 0739 5dcb a6bd fde8 57ba 19e8 0fbb
00000060: df02 a1b9 373f 44bd a08b d037 fff6 90b5
00000070: f3f3 72bb cf12 58bc c811 9fb7 7033 0abd
00000080: ec05 35be dfc5 cdbd 1cd8 16bb a5fe d9bb
00000090: 5a47 623a 2a10 e2ba 5976 c1bd 255a b9bb
000000a0: 9fc9 1cba a1cd 96b9 83f0 21b7 c5ec b7ba
000000b0: 305b 0e38 d29c b0b7 bad9 bcb7 b1f2 29bb
000000c0: 7680 b2b7 c47d 7f3d e675 3a38 5adc 0e38
000000d0: 51bd 78bc 9835 e0bc 71fb adbc 3b82 8ab9
000000e0: 5d94 4f39 285d 9939 c1ce 9d36 2b33 be35
000000f0: c61a 87bd 1e38 2337 9496 9a3a c8aa 88ba
00000100: 5039 13b7 4bd8 01bb 8d51 bd38 9c94 953b
00000110: 629e c538 f01a c1b8 9eda fe3d 541f ffbb
00000120: 0d18 0ab9 80df c0b8 11b4 a7bb cca6 b536
00000130: c9d7 3d38 b5a7 71b9 9250 4438 41f7 73bb
00000140: 74d7 6eb8 c27a 7839 ac00 0035 f464 9cb9
00000150: 799b c0b7 9fb8 8238 ef79 bd3a 34a3 0f38
00000160: 477a 86b7 4c87 9b3e c542 043c bbed 12b7
00000170: fad4 4dbc e1a8 18bd f827 4d38 e790 73bc
00000180: d008 36b8 ae80 99b6 fd5d bfb9 759d 96b7
00000190: 0e79 cb37 8da7 acb7 3266 b739 32b6 6837
000001a0: dd77 c336 77b8 4bb9 a26f a9ba ce67 8d37
000001b0: 1ec0 2134 aff0 1938 b077 9abc dfab bcb6
000001c0: 3a81 1739 3a2a 4db6 2220 3cb8 e3b6 25b6
000001d0: b405 9936 bea3 8635 bedc 8db9 8b39 cbbc
000001e0: c5ad ab35 54b7 0d39 c754 6a3b cd23 f23c
000001f0: 0405 1cb7 735b 51b7 be31 d2b7 7ff0 c837
00000200: b75d 95b7 05ea 9237 e885 c2b7 995a 8839
00000210: 8e3c 1838 3b5d 1338 d247 14b7 0d54 72b7
00000220: cb4e 3438 ebb4 fa3a 7a10 4939 fff1 9d3c
00000230: 6520 79b7 9ca5 e5b6 aaf3 6cb8 6a85 3838
00000240: d102 c537 7143 c835 6977 8cbc 2323 3b39
00000250: ae2f 3cb8 12e7 283e 4f3d c2b6 3a57 0b37
00000260: b065 5ab6 832f 0437 9450 4035 6e48 e1b8
00000270: a5d0 5638 6442 1cbb 6828 b0b8 4745 82bc
00000280: ab66 e538 1f65 7935 c88f d83d 8998 e6b6
00000290: d4e2 7ab9 7b6f 0735 4ed1 83ba 1271 b737
000002a0: 041a 5dbb d370 00bd 6cf0 5337 ee6e 31b8
000002b0: f054 e838 d889 cabb 7797 5338 aa06 40ba
000002c0: b833 0938 5805 c5b7 45f4 2db7 631a 09bb
000002d0: 0a9d bc39 30bb 19b7 1c0d 38b6 e42b b2bc
000002e0: 695d 89bd 6c2b 18b8 4780 45b6 f698 f4b7
000002f0: ea7e f6b6 acf2 6337 f0f2 4636 5314 91b9
00000300: 1def 64bc a661 1038 59eb 0936 7449 c536
00000310: f88d 5dbe 91cf 1eb5 f522 d938 7cf5 28b7
00000320: 02a0 5cba 19e9 733d c182 6ebe 97c9 7638
00000330: f6b5 d1bd 5ff9 5b3b 5c48 8e36 cfbd 8437
00000340: 485e 33b6 1fe4 aeb7 dba0 0037 9652 2937
00000350: c4f0 2f3a 3502 96b8 a6d7 81b5 e333 a6b6
00000360: 8962 f2b7 df0f 16b8 d3d2 0b3a b494 1e3b
00000370: e569 3238 772a 6e3b 543d 3637 a7a7 49b5
00000380: ddbb f33a 031d bcb6 e354 1238 cbc6 0a37
00000390: 7cbb 12ba f401 8ab5 734d 5cb7 d7c0 733b
000003a0: 27f1 f53c e6d4 05b7 a383 cd3b 60a9 e93b
000003b0: 4a74 7cbb 0e16 683b 3480 1a38 f2c5 a537
000003c0: 98d4 0a3a 8924 b3b7 efb4 3db7 3b5e 3a38
000003d0: 00c7 7237 3716 4738 67ab 47b6 f6eb 963c
000003e0: 399b e6bb 1562 14b7 e6a2 bf37 a37a 403d
000003f0: 3c61 ffba 58e1 4c37 cf77 9937 63ac a0b6

fc1.1.bias f4 [64]
0.02856997 -0.0078012072 -0.099481516 -0.13274658 0.12115735 0.113213114 0.10931536 0.071153484
-0.018775744 -0.09481319 -0.29223105 0.05344691 -1.037313 0.027999235 -1.0532296 -0.59493
-0.04716844 -0.7375711 0.102215186 -0.233035 -0.60243523 -0.1935079 0.08705344 -0.36390617
-0.1351979 -0.3062501 0.36567166 -0.08822022 0.16163431 -0.10637418 0.06625706 -0.40459445
-0.09755609 0.116440915 -0.89080846 -0.58475155 -0.46269903 0.015459666 0.09429526 -0.3263788
-0.9972134 -0.013057149 0.031959653 -0.43364292 0.19548234 -0.4831601 -0.03077893 -0.35993147
0.108656354 0.13332719 0.027768249 -0.5304101 -0.44602233 -0.57351446 -1.0573483 -0.3257591
-0.95426476 0.1546035 -0.5844288 -0.077507645 -0.4169786 -0.16046253 0.17444946 -0.26626274
00000000: 920b ea3c 45a1 ffbb f7bc cbbd b8ee 07be
00000010: 5821 f83d 47dc e73d bbe0 df3d ebb8 913d
00000020: 97cf 99bc 6b2d c2bd 4f9f 95be 26eb 5a3d
00000030: acc6 84bf a75e e53c 3ad0 86bf 554d 18bf
00000040: b233 41bd 76d1 3cbf 3256 d13d baa0 6ebe
00000050: 3239 1abf ef26 46be 1349 b23d e951 babe
00000060: 5171 0abe d0cc 9cbe 5139 bb3e cdac b4bd
00000070: 7783 253e b5da d9bd c8b1 873d 0127 cfbe
00000080: 7dcb c7bd 9378 ee3d 060c 64bf 47b2 15bf
00000090: e3e6 ecbe 8a4a 7d3c e01d c13d 1f1b a7be
000000a0: 6149 7fbf a7ed 55bc 20e8 023d 7206 debe
000000b0: 862c 483e c360 f7be 1824 fcbc f048 b8be
000000c0: 3987 de3d ec86 083e 3d7a e33c f5c8 07bf
000000d0: 0a5d e4be d8d1 12bf 3057 87bf e6c9 a6be
000000e0: b24a 74bf 6150 1e3e 209d 15bf 54bc 9ebd
000000f0: 387e d5be 4a50 24be e1a2 323e 9753 88be

fc1.2.weight f4 [64, 500]
-1.9652177 -0.00014769533 0.00988628 -0.0010304212 -6.401921e-06 0.0033012084 -0.0162552 0.0046486715
-0.83555204 -0.03837419 0.011538062 -0.0053371512 -0.00058675796 -0.009562322 -0.012075306 -0.93276936
0.29705817 -0.0007532394 -0.008231765 1.2857683e-05 0.0018489118 -0.27457008 -0.007672928 -0.117949255
-0.10354639 -0.22532038 0.00064820435 -1.169892e-05 -0.03336198 -0.04115436 -0.0011435625 -0.099358015
-0.30378246 -0.19184096 -0.019085508 -0.0252051 0.0019682557 -0.0044782744 -0.20485623 -0.089573115
-0.006588571 0.0026587008 -0.004484355 -0.028761685 0.00068275316 4.020547e-05 0.0001564595 -0.003054521
-0.001566583 0.12880817 4.7610334e-05 0.00010395719 -0.06558327 -0.05856446 -0.090938814 -0.0003763492
0.0011381032 0.002783064 -1.4014151e-05 0.0013911083 -0.19633889 -0.00042051516 -0.010067425 -0.01987896
-4.9917882e-05 -0.015544784 -0.0071125645 0.024939733 0.00075966155 0.0031568385 0.3405607 -0.016470483
0.0017418218 0.00061690283 -0.027130004 4.620817e-06 -0.0010751124 -0.034612022 -0.00038023305 -0.006527559
0.00021223699 -0.00092381553 -0.000468455 -0.003980373 -0.0008587759 0.007168775 0.009485997 2.172226e-05
4.7328092e-05 0.9395077 0.031219233 0.0002280902 -0.09818073 -0.18038487 -0.000554194 -0.011546485
-0.001734736 3.1538777e-05 -0.0074801487 -0.0021435218 -0.00024925327 4.598864e-06 0.0008428019 1.35593045e-05
-0.00025705973 -0.00059183314 -0.0013612722 -0.00042593258 0.000112675596 0.0024196473 -0.17654265 2.689393e-05
0.001166624 -6.259933e-05 0.00026541235 0.00015993037 -0.0001329945 4.7100995e-05 0.00058389315 -0.12537003
0.00040634276 0.0100992 0.007329565 0.04792073 2.252927e-05 -0.00019031264 -0.00015092634 -0.00013049769
3.5255372e-05 -0.0001608307 0.0005388514 0.005507311 0.006918699 0.00068272284 0.00016246625 4.0989802e-05
-0.00019640435 0.0060272985 0.00344671 0.044453748 -3.369125e-05 -2.2870488e-05 0.00017903485 -0.0001812752
0.00087679067 6.603539e-05 -0.03563372 0.003971938 0.0019424121 0.24880591 -3.265441e-05 -1.8775925e-05
3.328495e-05 3.0026755e-05 -2.8775285e-05 -0.0013255829 -0.0024676442 -0.03680735 0.005146826 -0.23367125
0.0043859486 -9.378857e-06 0.15549186 -2.5118916e-06 -0.012762993 2.313785e-05 -0.0036964107 8.4943356e-05
-0.020268448 -0.08391901 -3.15566e-05 -0.00044588238 -0.0019701843 -0.04737279 -8.0709186e-05 0.012464053
-2.9053803e-05 -0.014983589 -0.00039691245 -0.012549463 0.003928654 -5.309003e-06 1.24900835e-05 -0.1669167
-0.47772995 -0.002250648 -4.6727364e-05 -3.550289e-05 6.8547956e-06 -9.5479816e-05 0.00076402153 0.000105045816
-0.06357459 -0.0040017203 -0.0007736798 0.00010370987 -0.35001528 2.516444e-05 -0.002562063 2.7125217e-05
-0.06828901 0.10539101 -0.30491886 0.011130127 -0.18874401 0.018714804 -8.3953484e-05 -3.3365846e-05
-1.5164551e-05 8.6535357e-07 -8.9127396e-05 -0.00015716218 0.004585369 0.0025995122 -1.4212041e-05 -2.8650324e-05
0.000577328 0.0052548144 0.018827716 0.012859913 -0.00014085133 0.04819859 0.0023172095 6.132924e-05
0.020266514 3.5269342e-05 0.013298372 0.00011327738 -0.019275777 -8.864979e-06 -4.7539725e-05 0.03296911
0.07748024 1.2013518e-05 0.018470896 0.018277183 -0.042347886 0.018846504 0.0006986452 -0.00030684422
0.012750869 -9.017839e-06 4.9509967e-05 -0.00024878763 -0.00020071682 -8.5373096e-05 -9.099573e-05 0.1197647
-0.09138909 9.469322e-05 1.4915305e-05 0.28109348 -0.020881072 -0.00017083996 -2.9284278e-05 7.533861e-05
00000000: 418c fbbf aade 1ab9 10fa 213c 330f 87ba
00000010: 15d0 d6b6 1659 583b a029 85bc e253 983b
00000020: bde6 55bf 412e 1dbd 240a 3d3c 45e3 aebb
00000030: a9d0 19ba 49ab 1cbc 81d7 45bc f9c9 6ebf
00000040: 0218 983e 0a75 45ba 86de 06bc 54b7 5737
00000050: 2f57 f23a 7394 8cbe 2f6d fbbb 618f f1bd
00000060: 2110 d4bd 63ba 66be 42ec 293a 7b46 44b7
00000070: 92a6 08bd 7991 28bd 97e3 95ba 377c cbbd
00000080: 6089 9bbe f571 44be 3659 9cbc ed7a cebc
00000090: dafd 003b 7dbe 92bb d5c5 51be 1c72 b7bd
000000a0: f0e4 d7bb 993d 2e3b 7ff1 92bb a09d ebbc
000000b0: cafa 323a 4ba2 2838 470f 2439 5c2e 48bb
000000c0: ce55 cdba 4ae6 033e 35b1 4738 9703 da38
000000d0: 8550 86bd 4ae1 6fbd 213e babd bc50 c5b9
000000e0: 682c 953a 1164 363b 521e 6bb7 d955 b63a
000000f0: 100d 49be 9778 dcb9 d7f1 24bc 33d9 a2bc
00000100: eb5e 51b8 8daf 7ebc 8410 e9bb 694e cc3c
00000110: 0624 473a f6e2 4e3b f95d ae3e 1bed 86bc
00000120: d74d e43a a6b7 213a be3f debc 840c 9b36
00000130: c9ea 8cba 56c5 0dbd 045a c7b9 22e5 d5bb
00000140: ef8b 5e39 362c 72ba f79a f5b9 ca6d 82bb
00000150: 7a1f 61ba 0be8 ea3b 286b 1b3c 3338 b637
00000160: 2782 4638 9483 703f 7abf ff3c 7f2b 6f39
00000170: fb12 c9bd d0b6 38be 5447 11ba 782d 3dbc
00000180: 1560 e3ba 8148 0438 091c f5bb 547a 0cbb
00000190: 35ae 82b9 f14f 9a36 7aef 5c3a c57c 6337
000001a0: f9c5 86b9 4025 1bba b76c b2ba b44f dfb9
000001b0: 404c ec38 f292 1e3b 99c7 34be 469a e137
000001c0: 68e9 983a c247 83b8 0b27 8b39 fbb2 2739
000001d0: 7074 0bb9 4f8e 4538 6810 193a 0061 00be
000001e0: 670a d539 1d77 253c d92c f03b 8748 443d
000001f0: 3dfd bc37 a98e 47b9 fb41 1eb9 35d6 08b9
00000200: 2bdf 1338 aaa4 28b9 b541 0d3a ac76 b43b
00000210: 41b6 e23b c1f8 323a b45b 2a39 77ec 2b38
00000220: e4f1 4db9 a580 c53b 33e2 613b 2215 363d
00000230: b44f 0db8 00da bfb7 4dbb 3b39 b114 3eb9
00000240: 6dd8 653a 7b7c 8a38 aaf4 11bd 0827 823b
00000250: 8998 fe3a fac6 7e3e 68f6 08b8 fe80 9db7
00000260: 719b 0b38 f7e1 fb37 7462 f1b7 2ebf adba
00000270: 33b8 21bb 4ec3 16bd b5a6 a83b 8447 6fbe
00000280: 01b8 8f3b e259 1db7 4239 1f3e f891 28b6
00000290: df1b 51bc 2818 c237 7b3f 72bb 9e23 b238
000002a0: 040a a6bc bbdd abbd a45b 04b8 52c5 e9b9
000002b0: 351e 01bb f809 42bd 6a42 a9b8 0736 4c3c
000002c0: 91b8 f3b7 ba7d 75bc b018 d0b9 439c 4dbc
000002d0: f0bb 803b fd23 b2b6 808c 5137 36ec 2abe
000002e0: 0599 f4be 9c7f 13bb 20fd 43b8 f0e8 14b8
000002f0: 3f02 e636 563c c8b8 9e48 483a 0b4c dc38
00000300: 6533 82bd dd20 83bb c6d0 4aba d07e d938
00000310: 3435 b3be 3918 d337 49e8 27bb f68a e337
00000320: 1cdb 8bbd 3ed7 d73d 531e 9cbe 235b 363c
00000330: 1c46 41be ca4f 993c 2f10 b0b8 4ef2 0bb8
00000340: 406b 7eb7 a54a 6835 e8e9 bab8 e7cb 24b9
00000350: dd40 963b 945c 2a3b 4070 6eb7 1a56 f0b7
00000360: d457 173a 9430 ac3b 953c 9a3c 62b2 523c
00000370: 7eb1 13b9 e26b 453d 53dc 173b e39d 8038
00000380: f605 a63c 2bee 1338 6ae1 593c 558f ed38
00000390: 3ce8 9dbc cbba 14b7 6465 47b8 9e0a 073d
000003a0: f6ad 9e3d ab8d 4937 4750 973c 08ba 953c
000003b0: fa74 2dbd fc63 9a3c 4925 373a efdf a0b9
000003c0: 05e9 503c 534b 17b7 eca8 4f38 b66f 82b9
000003d0: 8377 52b9 550a b3b8 f6d4 beb8 3247 f53d
000003e0: 342a bbbd 0996 c638 bf3c 7a37 7ceb 8f3e
000003f0: c80e abbc 8123 33b9 82a7 f5b7 1cff 9d38

fc1.2.bias f4 [64]
0.09689218 0.30597183 0.0121913515 -0.2705645 -0.017636795 0.036133155 0.07492648 0.07215104
-0.10432904 0.046720706 0.06687258 0.11377515 -0.14837676 0.15757066 -0.50576234 -0.02649136
-0.017939594 0.022260394 0.08650075 -0.04639991 0.3464994 0.34966657 0.20361076 0.113040164
-0.03342043 -0.5418878 0.23152511 -0.37038347 0.11551896 0.060156986 0.19092922 0.19229627
0.011467872 -0.12480339 -0.11447418 0.38475394 0.6110337 0.2289543 -0.1420903 0.1597919
0.01931359 0.08622236 -0.2232835 -0.92104286 0.077965744 0.15708457 -0.06245813 0.19966468
0.055753734 0.10533713 -0.26262742 0.29114443 0.051765632 -0.49818096 0.27598453 -0.20868333
-0.4149145 0.20580564 0.04412176 -0.026323004 -0.42550176 -0.6911749 -0.069225 -0.39066684
00000000: 686f c63d 57a8 9c3e 3cbe 473c 6e87 8abe
00000010: 0a7b 90bc 5c00 143d 0e73 993d edc3 933d
00000020: 77aa d5bd 365e 3f3d 7ef4 883d f202 e93d
00000030: 14f0 17be 345a 213e a479 01bf 6904 d9bc
00000040: 0ef6 92bc 6e5b b63c 4e27 b13d d50d 3ebd
00000050: 5f68 b13e 7f07 b33e 577f 503e 9a81 e73d
00000060: dce3 08bd 29b9 0abf eb14 6d3e e7a2 bdbe
00000070: 3495 ec3d 2c67 763d f382 433e 50e9 443e
00000080: bee3 3b3c eb98 ffbd 7071 eabd 78fe c43e
00000090: b46c 1c3f ff72 6a3e 1f80 11be 7da0 233e
000000a0: 8937 9e3c 5995 b03d 6ea4 64be 77c9 6bbf
000000b0: 81ac 9f3d c7da 203e 19d4 7fbd e674 4c3e
000000c0: 075e 643d feba d73d 1a77 86be e210 953e
000000d0: 3308 543d 9311 ffbe d84d 8d3e 15b1 55be
000000e0: ac6f d4be b7be 523e 05b9 343d 57a3 d7bc
000000f0: 5edb d9be d7f0 30bf d6c5 8dbd 7c05 c8be

fc1.3.weight f4 [64, 500]
-1.8643594 0.00047711973 0.05071006 0.018678088 0.0010884048 0.07777012 -0.0098051205 0.044759918
-0.5509426 -0.021663778 0.060272187 0.008968932 0.006007325 -0.013202214 -0.004516497 -0.84793323
0.47371572 0.00974608 0.028028388 0.00022898465 0.013615385 -0.16982383 0.05503695 -0.043424677
-0.03816862 -0.16045542 0.01220457 0.007636111 -0.011012661 0.0036225521 0.005633681 -0.009966879
-0.19565143 -0.09560334 -0.0025654216 -0.0061574206 0.035991784 0.0129847685 -0.14424902 -0.047810625
0.009132214 0.044836424 -0.00077721156 -0.000116579584 0.005904155 0.00026212021 0.008005595 -0.0013464893
0.004673485 0.297836 0.0007865346 0.004669272 -0.046835423 -0.0056444113 -0.01945583 0.017214648
0.026460893 0.038117677 -0.00011745141 0.015671056 -0.07345944 0.007806388 -0.0039144414 -0.0038166868
0.0017099251 0.010956493 -0.010335665 0.22231455 0.007250788 0.022197137 0.33834732 0.049356196
0.047292575 0.011336003 -0.011890908 -7.928598e-05 -0.0044248435 -0.02091409 0.016385907 -0.00434027
0.0053237122 0.0010198487 -0.0017529781 -0.0070319623 0.003005036 0.017119335 0.029037451 -0.00034857076
-0.00010808411 0.94252217 0.05013543 0.0011062075 -0.048413604 -0.19146071 0.0022706792 0.02590068
0.007440263 0.001979519 -0.0042127166 0.0011487193 0.0038128565 0.009706432 0.031132275 0.0031460475
0.0041675405 0.00857557 0.05380573 0.0006303828 0.010746601 0.041805368 -0.11835794 0.0040625525
0.01864483 0.00014403941 0.00641737 0.0033197098 0.0024469956 0.00862447 0.017233018 -0.099673554
0.00068939326 0.045143783 0.047976937 0.10400925 -0.00013861657 -0.0005762121 -0.00044315183 -0.00015848203
-0.0003581834 0.0019743072 0.01722151 0.039179757 0.0033349707 0.0007219703 0.002087909 -3.0289699e-05
0.00032550035 0.001668055 0.055932544 0.0759984 0.00023287066 0.0009236269 0.014029858 -0.0003346588
-0.00028451398 -0.00017317962 0.051108405 0.040552333 0.006195619 0.53505325 8.9560235e-06 0.00012794856
-0.00032959983 -2.7234084e-06 0.00048751858 0.020176627 -0.0029859953 -0.01710201 -0.00022242992 -0.23589735
0.012488762 0.004203011 0.23216783 0.0014049927 -0.011923387 0.002008727 0.0269245 0.0055309176
-0.011529998 -0.057207666 -4.116021e-06 0.0040748445 -0.001686186 -0.04117008 0.002245711 0.07017335
0.00018956844 -0.0053242343 -0.0017432714 -0.00069298164 0.02344881 -0.00018546997 -0.00016654524 -0.05793369
-0.2822651 -0.0017944756 0.0025152245 0.0065998915 0.0008656906 0.008087006 0.019904763 0.054539267
-0.027401695 -0.0015497082 -0.006106292 0.0021997832 -0.34322774 -0.00031932988 -0.010287418 -0.00017378738
-0.028830828 0.11478693 -0.18394612 0.011366019 -0.1190769 0.042872716 0.0010468668 0.0010524703
5.53842e-05 -8.451762e-06 0.00031023935 0.002246936 0.007864534 -0.00039644892 0.00046603393 -0.00030138882
0.010136075 0.006841724 0.0067444467 0.05202182 -0.00037080547 0.022295156 0.026783058 0.010909234
0.019485947 -0.00033198524 0.009180585 0.012324627 0.0031931256 -0.0003244086 -0.00018231344 0.15339306
0.094985604 -5.354427e-05 0.03111735 0.041236404 -0.012369681 0.03368331 0.012261826 0.001340322
0.032853752 4.2749245e-05 0.00042327162 0.0004343467 0.008758145 -0.00014549728 -0.00032961764 0.10760375
-0.03680613 4.2787666e-05 0.0034391398 0.36605313 -0.004142726 0.002052321 -7.411396e-05 -0.00036615648
00000000: 54a3 eebf ed25 fa39 5ab5 4f3d ca02 993c
00000010: cea8 8e3a f145 9f3d a8a5 20bc 2d56 373d
00000020: 930a 0dbf 3c78 b1bc f8df 763d 6df2 123c
00000030: 18d9 c43b 194e 58bc 1fff 93bb 2712 59bf
00000040: de8a f23e 06ae 1f3c ca9b e53c 991b 7039
00000050: 1013 5f3c 4ce6 2dbe 6d6e 613d 13de 31bd
00000060: b356 1cbd 6d4e 24be adf5 473c 5838 fa3b
00000070: 736e 34bc 5768 6d3b be9a b83b 1f4c 23bc
00000080: d958 48be afcb c3bd a220 28bb 30c4 c9bb
00000090: 1f6c 133d 11be 543c 04b6 13be 13d5 43bd
000000a0: 489f 153c 66a6 373d c9bd 4bba 307c f4b8
000000b0: a477 c13b 2e6d 8939 e629 033c af7c b0ba
000000c0: 0924 993b f67d 983e 722f 4e3a b100 993b
000000d0: 80d6 3fbd c1f4 b8bb d561 9fbc bc05 8d3c
000000e0: 84c4 d83c 4821 1c3d 3f50 f6b8 9660 803c
000000f0: e771 96bd bbcc ff3b b744 80bb 6121 7abb
00000100: 911f e03a dd82 333c ec56 29bc 6da6 633e
00000110: 0598 ed3b c5d6 b53c dc3b ad3e b929 4a3d
00000120: dcb5 413d a5ba 393c 15d2 42bc 5646 a6b8
00000130: 47fe 90bb 0754 abbc bd3b 863c d338 8ebb
00000140: 8972 ae3b 72ac 853a 2fc4 e5ba 606c e6bb
00000150: 23f0 443b d93d 8c3c f3df ed3c 60c0 b6b9
00000160: 37ab e2b8 2249 713f cf5a 4d3d 2afe 903a
00000170: 584d 46bd 470e 44be adcf 143b aa2d d43c
00000180: 73cd f33b d1ba 013b d40a 8abb a090 963a
00000190: 1ee1 793b ba07 1f3c 1d09 ff3c eb2d 4e3b
000001a0: dd8f 883b 8c80 0c3c 6663 5c3d 4640 253a
000001b0: 8312 303c 1b3c 2b3d a665 f2bd 291f 853b
000001c0: 0bbd 983c 4909 1739 cd48 d23b 7d8f 593b
000001d0: c65d 203b a64d 0d3c 422c 8d3c a621 ccbd
000001e0: 66b8 343a b0e8 383d 7783 443d cd02 d53d
000001f0: 9a59 11b9 f10c 17ba d556 e8b9 322e 26b9
00000200: 90ca bbb9 6163 013b 2014 8d3c f47a 203d
00000210: 868f 5a3b 9b42 3d3a 4dd5 083b a216 feb7
00000220: eba7 aa39 a3a2 da3a 8619 653d 0da5 9b3d
00000230: be2e 7439 8d1f 723a 7ddd 653c 2575 afb9
00000240: d22a 95b9 8d97 35b9 0c57 513d 341a 263d
00000250: 9e04 cb3b 40f9 083f d441 1637 ee29 0639
00000260: 24ce acb9 cdc3 36b6 a399 ff39 7449 a53c
00000270: b0b0 43bb 8419 8cbc 143c 69b9 138f 71be
00000280: aa9d 4c3c 69b9 893b 67bd 6d3e bb27 b83a
00000290: 4f5a 43bc d9a4 033b c590 dc3c b33c b53b
000002a0: 51e8 3cbc 9652 6abd 5a1c 8ab6 4686 853b
000002b0: 0303 ddba f5a1 28bd c72c 133b 0cb7 8f3d
000002c0: e4c6 4639 ea76 aebb 7b7e e4ba 36a9 35ba
000002d0: b817 c03c b77a 42b9 a6a2 2eb9 e04b 6dbd
000002e0: 0d85 90be 9c34 ebba 77d6 243b e743 d83b
000002f0: 83ef 623a 5d7f 043c 500f a33c 9164 5f3d
00000300: 8579 e0bc 941f cbba 4a17 c8bb 3d2a 103b
00000310: 8cbb afbe bb6b a7b9 8f8c 28bc b23a 36b9
00000320: a12e ecbc 6915 eb3d 5f5c 3cbe 8a38 3a3c
00000330: 97de f3bd 4d9b 2f3d 0537 893a 0bf3 893a
00000340: 554c 6838 0bcc 0db7 9fa7 a239 5541 133b
00000350: 3fda 003c 79da cfb9 0456 f439 b903 9eb9
00000360: c811 263c 8a30 e03b 8500 dd3b d514 553d
00000370: ab68 c2b9 55a4 b63c 2568 db3c a5bc 323c
00000380: fea0 9f3c 4e0e aeb9 2a6a 163c 3bed 493c
00000390: c243 513b 6315 aab9 642b 3fb9 1213 1d3e
000003a0: d087 c23d b994 60b8 d0e9 fe3c 81e7 283d
000003b0: 34aa 4abc 83f7 093d d3e5 483c bead af3a
000003c0: a891 063d a74d 3338 8eea dd39 07b9 e339
000003d0: 537e 0f3c a190 18b9 88d0 acb9 5b5f dc3d
000003e0: 06c2 16bd e876 3338 3163 613b 516b bb3e
000003f0: b4bf 87bb 3c80 063b a16d 9bb8 b1f8 bfb9

fc1.3.bias f4 [64]
0.11642794 0.006699221 -0.014998603 0.117523104 0.25205916 0.2388796 0.106750324 0.14806995
0.21403722 -0.06823667 0.058461346 0.12270386 0.094561845 0.14042217 0.22999552 -0.24282813
-0.13841365 -0.12359744 0.103875875 -0.35453868 0.17711547 -0.36046615 0.010108754 0.30667228
0.21765545 -0.17417449 -0.19263875 -0.023078758 0.041031856 0.25440225 0.10059599 -0.30872375
0.014848367 0.2529957 0.21849404 -0.18553142 0.16865087 0.0780542 0.20724331 -0.3556873
-0.3734267 0.33343047 0.10318555 0.23447648 0.012012933 0.21077739 -0.04228672 -0.1792875
0.10534831 0.07129532 0.13875976 -0.17125261 0.24807979 -0.3553994 0.058019374 0.0020217688
0.03445194 -0.56686485 0.31977105 0.09015864 -0.36645594 -0.3703836 0.036389243 -0.13262758
00000000: c671 ee3d 2485 db3b b3bc 75bc f4af f03d
00000010: e60d 813e db9c 743e ea9f da3d a69f 173e
00000020: 932c 5b3e abbf 8bbd 2a75 6f3d 294c fb3d
00000030: a4a9 c13d d4ca 0f3e f283 6b3e f0a7 78be
00000040: 4fbc 0dbe a820 fdbd e0bc d43d 1886 b5be
00000050: c25d 353e 058f b8be 309f 253c 2604 9d3e
00000060: 12e1 5e3e cc5a 32be 1843 45be aa0f bdbc
00000070: 0511 283d 0341 823e 4505 ce3d 0a11 9ebe
00000080: 9146 733c a788 813e e7bc 5f3e f3fb 3dbe
00000090: d0b2 2c3e e1da 9f3d 9737 543e a51c b6be
000000a0: c931 bfbe 66b7 aa3e f252 d33d 9a1a 703e
000000b0: e5d1 443c 07d6 573e d734 2dbd 2497 37be
000000c0: dbc0 d73d 4803 923d 0a17 0e3e d85c 2fbe
000000d0: a108 7e3e e9f6 b5be b9a5 6d3d a77f 043b
000000e0: 7a1d 0d3d 0e1e 11bf 08b9 a33e 18a5 b83d
000000f0: 1da0 bbbe eba2 bdbe e30c 153d 86cf 07be

fc1.4.weight f4 [64, 500]
-1.9216644 -8.605846e-05 0.020411473 0.0009909475 -8.0705795e-05 0.015084902 -0.0008081277 0.01786344
-0.43528014 -0.0025728408 0.02536019 0.0005451913 0.00070198526 0.006595139 -0.0017676966 -0.53338325
0.41896638 0.0040490744 0.0021295808 -3.3527704e-05 0.004680872 -0.07887272 0.0138474265 -0.02545115
-0.020635312 -0.10703205 0.0015963789 0.00035497837 -0.008148213 0.010675379 0.0005946517 -0.017948186
-0.17386876 -0.08250699 -0.00015701662 -0.0030603525 0.010900168 0.00095425925 -0.10517153 -0.020745028
0.0009303516 0.026401032 -0.0012348613 -0.0069408263 0.0022604738 -4.0295654e-05 0.00060341496 0.0013908574
0.0007307747 0.20636015 1.288789e-05 0.0016126543 -0.03028817 -0.026298324 -0.033919744 0.007262554
0.0062797912 0.009380981 0.0002897607 0.0032881831 -0.072900675 0.0018147075 -0.001982546 -0.0023427324
2.1915563e-05 -0.0018640928 -0.00040334061 0.116837345 0.0019246103 0.01885731 0.32627198 0.008820221
0.010567732 0.0031696167 -0.0067862957 2.5810034e-05 -8.737851e-05 -0.0027302997 0.0015252137 -0.000735742
0.00012549845 0.0015235511 -1.3894118e-06 0.0014345739 1.791067e-05 0.015183444 0.018274115 -0.00011828585
-8.8476394e-05 0.9049596 0.032516383 -0.00012443514 -0.026715778 -0.071017615 -2.388533e-05 0.012242603
0.00042742238 -7.204139e-07 -0.00096137094 -0.00040407022 0.0003899405 0.00095988845 0.008884375 0.0003331095
0.00052974763 0.0007858338 0.0149441045 1.5921198e-05 0.0013115916 0.015273256 -0.06363039 5.3417432e-05
0.004728529 -5.0200924e-05 0.0012239052 0.0006223429 0.00049790175 0.0016166051 0.0011385437 -0.058697905
0.0005155993 0.019059345 0.026956484 0.08832491 6.423798e-05 2.7827846e-05 0.0004423536 -0.00013950237
-3.9892955e-05 0.00030724195 0.0045346543 0.0137301 0.0030981502 0.00036894728 0.0006679283 3.975494e-06
-0.00015719287 0.0034654823 0.016884437 0.067239046 -3.8114114e-05 -0.00010498389 0.0017975356 -0.00015214997
6.170578e-05 6.1243576e-05 0.0116583705 0.01790312 0.00366032 0.39994654 3.2454257e-06 -1.011958e-05
3.6015742e-06 7.54066e-05 -8.439063e-05 0.0045324843 -0.00019531936 -0.0042587426 0.0002657357 -0.11016026
0.00916627 0.0011758585 0.19976099 -7.5148964e-05 -0.004077373 0.00013194466 0.003387947 0.00021616131
-0.007394457 -0.040191595 -6.5967065e-06 6.082762e-05 4.7891233e-05 -0.0120109 0.00022126587 0.04226631
-9.672877e-05 -0.0021173963 -0.00039538482 -0.0023210463 0.005804256 5.361373e-06 3.5490535e-05 -0.044569395
-0.19328171 -0.00060003955 -6.294534e-05 0.00048043483 -6.1971165e-05 0.001854644 0.010546856 0.019575445
-0.021592326 -0.0002673602 -2.31603e-05 -0.00018861129 -0.16720435 6.2246494e-05 -0.0009233421 -1.61212e-05
-0.0047371956 0.09808491 -0.10407178 0.007849581 -0.07647829 0.026125714 0.00063510245 -8.154482e-05
-1.6978589e-05 -1.006222e-06 9.970087e-06 0.0005957802 0.007350991 0.001416882 -3.7821137e-05 -9.20074e-05
0.0020692188 0.008126768 0.010054111 0.025409402 1.1415417e-05 0.029570544 0.010392382 0.0015977704
0.01726134 -6.155063e-05 0.014537972 0.0012478556 -0.004102124 -8.946253e-05 -6.8057154e-05 0.085907325
0.081823215 5.1267565e-05 0.03169925 0.029318662 -0.010327787 0.029179467 0.0029323497 0.0012220115
0.019945137 -2.4368488e-05 -2.3293864e-05 4.6332394e-07 0.0020913035 -9.673495e-05 -0.00011559185 0.080897994
-0.033638228 -2.0056268e-05 9.8159806e-05 0.2946237 -0.0028467358 0.002533681 -9.3043935e-05 -8.6799584e-05
00000000: 19f9 f5bf 497a b4b8 f635 a73c aee2 813a
00000010: 9840 a9b8 aa26 773c 88d8 53ba 5956 923c
00000020: 0add debe 1b9d 28bb 2cc0 cf3c 2beb 0e3a
00000030: 6f05 383a 091c d83b 0eb2 e7ba ce8b 08bf
00000040: c382 d63e 19ae 843b 7090 0b3b 19a0 0cb8
00000050: 0062 993b 0588 a1bd 51e0 623c ee7e d0bc
00000060: 630b a9bc 9f33 dbbd 963d d13a 641c ba39
00000070: 1580 05bc c9e7 2e3c 66e2 1b3a 1308 93bc
00000080: a70a 32be 6df9 a8bd d4a4 24b9 3290 48bb
00000090: 9e96 323c 4127 7a3a 2c64 d7bd 7af1 a9bc
000000a0: d7e2 733a fa46 d83c 12db a1ba df6f e3bb
000000b0: 7524 143b 2103 29b8 7e2e 1e3a 6e4d b63a
000000c0: 7691 3f3a 1350 533e 1139 5837 b35f d33a
000000d0: e51e f8bc 956f d7bc 6eef 0abd b8fa ed3b
000000e0: b5c6 cd3b b0b2 193c 06eb 9739 8f7e 573b
000000f0: f34c 95bd 7bdb ed3a 9aed 01bb 8788 19bb
00000100: 50d7 b737 9354 f4ba 7677 d3b9 6b48 ef3d
00000110: 3543 fc3a a57a 9a3c 1f0d a73e b082 103c
00000120: 4824 2d3c 58b9 4f3b 935f debb a082 d837
00000130: fb3e b7b8 d4ee 32bb aee9 c73a cfde 40ba
00000140: 3c98 0339 e4b1 c73a d37b bab5 5008 bc3a
00000150: df3e 9637 fbc3 783c 99b3 953c 3b10 f8b8
00000160: 678c b9b8 6fab 673f e62f 053d ce7a 02b9
00000170: 0cdb dabc af71 91bd 5b5d c8b7 3395 483c
00000180: a917 e039 7762 41b5 8304 7cba 63d9 d3b9
00000190: ee70 cc39 06a1 7b3a c58f 113c 33a5 ae39
000001a0: c3de 0a3a 6a00 4e3a 1ed8 743c 838e 8537
000001b0: b6e9 ab3a ae3c 7a3c a650 82bd 880c 6038
000001c0: c7f1 9a3b d58e 52b8 726b a03a ba24 233a
000001d0: 9f85 023a 44e4 d33a 303b 953a 376d 70bd
000001e0: 4929 073a 5822 9c3c d8d3 dc3c b1e3 b43d
000001f0: 81b7 8638 d86f e937 b2eb e739 6247 12b9
00000200: bc52 27b8 5115 a139 7097 943b 37f4 603c
00000210: 560a 4b3b 446f c139 e917 2f3a 3c65 8536
00000220: 24d4 24b9 251d 633b 3b51 8a3c a0b4 893d
00000230: b8dc 1fb8 cc2a dcb8 499b eb3a 728a 1fb9
00000240: 0a68 8138 e56f 8038 c002 3f3c 90a9 923c
00000250: fbe1 6f3b cbc5 cc3e fdcb 5936 44c7 29b7
00000260: 93b2 7136 9c23 9e38 e0fa b0b8 3c85 943b
00000270: a4ce 4cb9 ec8c 8bbb 7152 8b39 b49b e1bd
00000280: 1f2e 163c 441f 9a3a 258e 4c3e 4b99 9db8
00000290: 7c9b 85bb a05a 0a39 5208 5e3b 5ca9 6239
000002a0: 334d f2bb f19f 24bd 4759 ddb6 2921 7f38
000002b0: d2de 4838 5ec9 44bc 9b03 6839 701f 2d3d
000002c0: ddda cab8 04c4 0abb a74b cfb9 b21c 18bb
000002d0: a131 be3b d8e5 b336 acdb 1438 668e 36bd
000002e0: a4eb 45be f94b 1dba 8601 84b8 dfe2 fb39
000002f0: 84f6 81b8 8717 f33a b8cc 2c3c af5c a03c
00000300: 64e2 b0bc 7b2c 8cb9 5e48 c2b7 f5c5 45b9
00000310: 9e37 2bbe 558a 8238 700c 72ba 033c 87b7
00000320: 7a3a 9bbb bee0 c83d 9623 d5bd 879b 003c
00000330: a6a0 9cbd 9805 d63c 017d 263a 0b03 abb8
00000340: 3e6d 8eb7 860d 87b5 3345 2737 222e 1c3a
00000350: 95e0 f03b acb6 b93a 23a2 1eb8 19f4 c0b8
00000360: bb9b 073b 2326 053c ffb9 243c 6127 d03c
00000370: d884 3f37 ed3d f23c cf44 2a3c 476c d13a
00000380: a767 8d3c be14 81b8 ad30 6e3c 168f a33a
00000390: 1c6b 86bb d49d bbb8 e8b9 8eb8 2ef0 af3d
000003a0: ee92 a73d 2108 5738 13d7 013d b12d f03c
000003b0: e135 29bc c709 ef3c aa2c 403b e72b a03a
000003c0: fc63 a33c ee6a ccb7 3167 c3b7 c2be f834
000003d0: 400e 093b 2ede cab8 e769 f2b8 d9ad a53d
000003e0: 3dc8 09bd 823e a8b7 25db cd38 ebd8 963e
000003f0: 4d90 3abb 1d0c 263b 9520 c3b8 2c08 b6b8

fc1.4.bias f4 [64]
0.32131073 -0.040632565 0.23584628 -0.17394987 0.05548158 0.13725659 0.30530137 0.13130297
0.46300277 0.24988014 0.14965941 0.15232642 0.24994673 0.1460263 0.13773 0.010203
0.25733152 -0.33556488 0.1547418 -0.032635342 -0.5012513 0.28203976 0.22967681 0.12684259
-0.16327669 -0.30593675 0.38194415 -0.061941247 0.27092424 0.23614968 0.10091102 -0.27464533
0.23947857 -0.16967545 -0.13683663 -0.5226143 -0.2493315 0.2982157 -0.22018719 -0.53457147
0.50291055 0.2670129 -0.19730563 -0.48137587 0.18556184 -0.19485721 0.27036315 -0.58663565
0.20793265 0.27366963 -0.25367025 -0.53824556 -0.41162297 -0.10012448 -0.290167 -0.043544017
-0.43681404 0.4331508 -0.14909887 -0.2544224 -0.77959996 -0.033065446 -0.009405722 -0.6555616
00000000: d782 a43e 556e 26bd b081 713e ea1f 32be
00000010: a740 633d fe8c 0c3e 7650 9c3e 4974 063e
00000020: b30e ed3e 94e0 7f3e 5140 193e 75fb 1b3e
00000030: 09f2 7f3e eb87 153e 1809 0d3e 7c2a 273c
00000040: f5c0 833e 29cf abbe a274 1e3e a3ac 05bd
00000050: 0152 00bf 8467 903e 6630 6b3e 06e3 013e
00000060: 0132 27be bea3 9cbe 2f8e c33e 1bb6 7dbd
00000070: 95b6 8a3e 39d1 713e 70aa ce3d 509e 8cbe
00000080: df39 753e 67bf 2dbe e71e 0cbe 0dca 05bf
00000090: c250 7fbe baaf 983e c078 61be add9 08bf
000000a0: bfbe 003f eab5 883e 7d0a 4abe e676 f6be
000000b0: ec03 3e3e a688 47be 0a6d 8a3e c12d 16bf
000000c0: 4cec 543e 6d1e 8c3e 11e1 81be 76ca 09bf
000000d0: 3fc0 d2be 100e cdbd c590 94be 365b 32bd
000000e0: 17a6 dfbe f1c5 dd3e 60ad 18be a743 82be
000000f0: dd93 47bf a26f 07bd 751a 1abc e3d2 27bf

fc1.5.weight f4 [64, 500]
-1.1508436 6.902875e-05 0.0042335945 -3.6634116e-05 -1.9907022e-06 -3.1951688e-05 -2.51486e-05 0.0005220259
-0.08400111 0.00010571654 0.0009788492 8.7415165e-06 -9.89456e-06 0.00070902257 1.993555e-05 -0.27076322
0.09788797 -1.9239853e-05 0.00026012684 -3.540938e-06 -0.00014301858 -0.013899811 0.0001046159 8.53635e-05
6.4489086e-06 -0.01114294 4.0698458e-05 4.2198055e-05 3.950521e-05 0.0018003472 2.7220901e-06 -0.0038141557
-0.051314928 -0.026149355 4.277964e-05 2.3662742e-05 0.00034004878 0.00015314405 -0.017022172 0.00013412845
-2.7815076e-05 0.0012912938 -2.6580312e-06 2.4624118e-05 -0.00010871377 -7.6232226e-07 -8.748171e-06 -2.7819829e-07
-1.0370524e-05 0.04743186 -2.8199867e-05 -2.1471803e-06 -0.00074445544 -0.0039643887 -0.0023481606 2.1719532e-05
-0.00012441048 -0.00011812824 3.4914843e-05 -2.5918283e-05 -0.014194497 -4.3933193e-05 0.00043010272 0.00012090164
4.0316772e-07 2.9761419e-05 -4.8693702e-05 0.009797304 -9.389853e-05 -0.00015325622 0.0825989 0.00043833264
0.00029477174 -6.6716115e-05 -0.00021640208 2.4396384e-06 -2.1401187e-05 -1.4992796e-05 -7.3809774e-06 6.75773e-05
-2.061455e-05 -8.227736e-05 -6.051807e-06 -2.9896786e-05 -1.4490475e-05 -0.00015494235 8.945528e-05 6.335794e-05
-3.2571203e-05 0.2069834 0.0031695121 1.6272294e-05 -0.0007645358 -0.007817362 -4.885018e-06 -0.0006881505
5.26735e-06 3.6628203e-06 -6.5019294e-06 -2.6900347e-05 -7.487187e-06 4.8338996e-05 -0.00010954767 -2.7206186e-06
1.3730213e-05 -1.504122e-05 0.00034990866 -5.0056506e-06 -6.0947095e-06 -8.721665e-05 -0.0019145466 2.3039015e-06
-0.000104207065 1.1079032e-06 -9.652464e-06 -3.9901835e-05 -4.325684e-05 4.301351e-05 -3.1133713e-05 -0.0024637375
7.4173106e-05 -0.00013336641 0.002029577 0.041317403 -2.1292395e-05 -2.3516739e-05 -3.954569e-05 1.8190654e-05
-2.96378e-05 2.3641904e-05 -5.7369605e-05 0.00010671175 -0.0001897025 8.1831255e-05 6.971665e-05 -8.81985e-06
8.256207e-05 0.00015446448 0.0003905877 0.017811297 -4.1373632e-06 5.0918425e-06 -3.463473e-05 5.814119e-05
8.6629174e-05 -5.0709814e-06 0.002020535 2.2390555e-05 -6.224607e-05 0.14801948 -7.403023e-06 8.205128e-06
-2.3080875e-05 1.1593176e-05 -2.209919e-06 -1.1632126e-05 -1.4173105e-05 9.0614536e-05 -0.00010813404 -0.001800575
-9.740295e-05 2.3767845e-05 0.100139506 -2.834551e-06 -1.5185274e-05 3.3314394e-05 0.0004923776 1.4183131e-05
3.053742e-05 -0.00038110872 -6.089862e-06 -1.1193421e-06 -3.6596874e-05 -5.8509133e-05 7.381271e-06 0.0011252823
1.717097e-05 -3.949127e-05 -8.107929e-06 -4.124209e-06 -6.9418e-05 -1.0875721e-05 1.6529953e-05 -0.001037481
-0.013689982 -7.42663e-06 1.0813674e-05 3.2060754e-05 -1.3229208e-05 2.3819954e-05 5.6567574e-06 0.00063099124
-0.0003461485 -1.1568875e-06 -5.8678347e-06 5.378518e-05 -0.11592737 -4.266708e-06 -4.9885377e-05 -2.0123636e-05
3.5049154e-05 0.039410997 -0.063041106 -0.00014057569 -0.03095937 0.0012996526 7.980326e-06 2.5042675e-05
-5.6539097e-06 8.105142e-06 3.6336667e-05 4.4834964e-05 -0.00013683534 -8.347371e-06 -1.5313453e-05 -2.7653174e-05
-8.331118e-05 -5.9570416e-06 -8.4826985e-05 0.0018548445 -7.655617e-06 0.002731977 -0.0001126634 -3.6685872e-06
0.00016448446 -2.4571042e-05 -0.00022176448 4.4084813e-06 -4.9789364e-06 -1.7022388e-05 4.5611465e-05 0.008208735
0.016765164 1.3072856e-08 0.0027672446 0.0042264666 1.7744469e-05 0.0008936238 -7.3894276e-05 -1.0037936e-05
0.00027332027 -1.5067436e-06 9.18686e-06 7.046465e-05 5.4305307e-05 2.5308196e-05 -7.3920087e-06 0.011242716
-0.00025911408 -6.0061034e-06 8.535599e-06 0.035716884 5.951821e-05 6.2790954e-05 8.03861e-06 -2.2390434e-06
00000000: d84e 93bf 87c3 9038 f7b9 8a3b 95a7 19b8
00000010: 0198 05b6 dd03 06b8 35f6 d2b7 91d8 083a
00000020: c608 acbd 23b4 dd38 bb4c 803a 87a8 1237
00000030: d000 26b7 b3dd 393a 453b a737 7aa1 8abe
00000040: 7d79 c83d 4565 a1b7 a261 8839 daa0 6db6
00000050: 42f7 15b9 08bc 63bc 3c65 db38 2e05 b338
00000060: b463 d836 e190 36bc a3b3 2a38 d1fd 3038
00000070: 65b2 2538 a1f9 eb3a 27ad 3636 eaf6 79bb
00000080: 9a2f 52bd 2c37 d6bc 4a6e 3338 5a7f c637
00000090: 9348 b239 4b95 2039 1572 8bbc d5a4 0c39
000000a0: 6c54 e9b7 a140 a93a a160 32b6 e48f ce37
000000b0: 43fd e3b8 63a2 4cb5 1cc5 12b7 485b 95b4
000000c0: 10fd 2db7 e947 423d c18e ecb7 4718 10b6
000000d0: 8f27 43ba b4e7 81bb 99e3 19bb 5732 b637
000000e0: 2f74 02b9 9ebb f7b8 8771 1238 176b d9b7
000000f0: 0990 68bc e844 38b8 697f e139 938c fd38
00000100: f372 d834 29a8 f937 773c 4cb8 df84 203c
00000110: 64eb c4b8 67b3 20b9 9d29 a93d 03d0 e539
00000120: 988b 9a39 f1e9 8bb8 fee9 62b9 abb8 2336
00000130: b386 b3b7 9289 7bb7 1daa f7b6 49b8 8d38
00000140: 69ed acb7 528c acb8 a010 cbb6 dcca fab7
00000150: 1e1c 73b7 0578 22b9 f099 bb38 09df 8438
00000160: 109d 08b8 75f3 533e 97b7 4f3b 7c80 8837
00000170: 216b 48ba 6514 00bc fce9 a3b6 0065 34ba
00000180: 31be b036 c6ce 7536 262b dab6 0ea8 e1b7
00000190: 723a fbb6 9abf 4a38 f5bc e5b8 df93 36b6
000001a0: d15a 6637 8c59 7cb7 f273 b739 36f6 a7b6
000001b0: 2881 ccb6 15e8 b6b8 86f1 faba ba9c 1a36
000001c0: be89 dab8 44b3 9435 04f1 21b7 455c 27b8
000001d0: ae6e 35b8 6869 3438 9295 02b8 a876 21bb
000001e0: 628d 9b38 46d8 0bb9 a702 053b 703c 293d
000001f0: 129d b2b7 d045 c5b7 dcdd 25b8 2298 9837
00000200: b19e f8b7 9a52 c637 25a0 70b8 6fca df38
00000210: e1ea 46b9 d29c ab38 d734 9238 f8f8 13b7
00000220: 2c25 ad38 bef7 2139 cbc7 cc39 ffe8 913c
00000230: aed3 8ab6 98da aa36 c244 11b8 a1dc 7338
00000240: afac b538 6627 aab6 f46a 043b 5ad3 bb37
00000250: 1b8a 82b8 6b92 173e 7c67 f8b6 c2a8 0937
00000260: cd9d c1b7 5080 4237 1f4e 14b6 9a27 43b7
00000270: 06c9 6db7 4f08 be38 05c6 e2b8 4501 ecba
00000280: d044 ccb8 0f61 c737 f115 cd3d 3739 3eb6
00000290: 41c4 7eb7 0fbb 0b38 e712 013a 15f4 6d37
000002a0: 4e15 0038 8ccf c7b9 8457 ccb6 4d3c 96b5
000002b0: 987f 19b8 b467 75b8 a3ac f736 357e 933a
000002c0: 610a 9037 6ea3 25b8 4a07 08b7 b062 8ab6
000002d0: 8194 91b8 de76 36b7 cea9 8a37 16fc 87ba
000002e0: f24b 60bc 4432 f9b6 606c 3537 f978 0638
000002f0: 04f3 5db7 f6d0 c737 2dcf bd36 1b69 253a
00000300: 447b b5b9 5a46 9bb5 51e4 c4b6 6697 6138
00000310: 546b edbd be2a 8fb6 043c 51b8 2ecf a8b7
00000320: be01 1338 6d6d 213d b21b 81bd 8067 13b9
00000330: 819e fdbc 1b59 aa3a 3de3 0537 bc12 d237
00000340: b7b6 bdb6 52fb 0737 3368 1838 2d0d 3c38
00000350: 757b 0fb9 af0b 0cb7 6475 80b7 bdf8 e7b7
00000360: 59b7 aeb8 99e2 c7b6 24e5 b1b8 411e f33a
00000370: a070 00b7 f80a 333b b445 ecb8 d931 76b6
00000380: 7679 2c39 e91d ceb7 7389 68b9 91ec 9336
00000390: bd10 a7b6 4dcb 8eb7 f04e 3f38 ee7d 063c
000003a0: 1957 893c 0797 6032 a95a 353b 2c7e 8a3b
000003b0: f5d9 9437 1442 6a3a b0f7 9ab8 9b68 28b7
000003c0: 6d4c 8f39 513b cab5 4321 1a37 6cc6 9338
000003d0: e1c5 6338 f04c d437 df08 f8b6 5e33 383c
000003e0: b4d9 87b9 0988 c9b6 1e34 0f37 de4b 123d
000003f0: 31a3 7938 a3ae 8338 91dd 0637 7942 16b6

fc1.5.bias f4 [64]
0.23002596 0.15478317 0.123594776 0.27354917 0.20880148 0.22372621 0.2427446 0.21896085
0.1283624 0.12132974 0.18365297 0.30689138 -0.40509212 0.10877767 -0.70935625 0.12359295
0.11017134 -0.40564123 0.19154593 -0.5784932 -0.408321 0.19955586 0.115174696 -0.5064565
0.2287939 0.003045531 -0.4594819 -0.2469153 0.21184488 0.1807594 0.25084934 -0.7300578
0.12576027 0.3309115 -0.53145474 -0.27851716 -0.2934512 0.20542935 0.31726268 -0.14905874
-0.9548687 0.26281402 0.15396513 -0.17899825 0.17990327 -0.5978803 0.11835029 -0.26140594
0.20642163 0.20029993 0.3483855 -0.1199495 -0.1058805 -0.5482749 -0.043891013 -0.12189783
-0.4865795 -0.14732905 -0.16466306 0.26508835 0.5594868 -0.4863259 0.33035955 -0.17235191
00000000: ed8b 6b3e 7b7f 1e3e 421f fd3d a30e 8c3e
00000010: 0ed0 553e 7c18 653e 0a92 783e 4637 603e
00000020: 6f71 033e ba7b f83d 860f 3c3e de20 9d3e
00000030: 3c68 cfbe d4c6 de3d 5f98 35bf 4d1e fd3d
00000040: 83a1 e13d 35b0 cfbe 9e24 443e 2118 14bf
00000050: 730f d1be 5f58 4c3e b6e0 eb3d 22a7 01bf
00000060: f348 6a3e 8897 473b 3641 ebbe 5dd7 7cbe
00000070: dded 583e fe18 393e 536f 803e 11e5 3abf
00000080: 4dc7 003e 3b6d a93e 6b0d 08bf cd99 8ebe
00000090: 3c3f 96be 125c 523e 4170 a23e dba2 18be
000000a0: 4672 74bf 8f8f 863e 09a9 1d3e 514b 37be
000000b0: 9038 383e af0e 19bf a361 f23d 00d7 85be
000000c0: 3160 533e 6d1b 4d3e 965f b23e 15a8 f5bd
000000d0: e0d7 d8bd be5b 0cbf 10c7 33bd 92a5 f9bd
000000e0: f320 f9be 6ddd 16be 6f9d 28be a9b9 873e
000000f0: 873a 0f3f b5ff f8be e324 a93e 057d 30be
