saved_pretrained/pubmed_7.pt (torch, 904063 bytes, 16 tensors)

fc1.0.weight f4 [64, 500]
0	0x3d01663a	0.03159163
1	0x3e8738f8	0.2641065
2	0xbea0502e	-0.31311172
3	0xbf1b8734	-0.6075318
4	0x3f2c9fa1	0.67431074
5	0x3ddc85e1	0.10767723
6	0xbf07a9c6	-0.5299343
7	0xbe6314b7	-0.22175871
8	0xbec9c4a1	-0.39407828
9	0x3d53f909	0.05175117
10	0xbe61d2e7	-0.22053109
11	0xbf36dff9	-0.71435505
12	0xbb94edf3	-0.0045449673
13	0xbe1cc9fa	-0.15311423
14	0xbe89c90d	-0.26911202
15	0xbe9ef69d	-0.31047526
16	0x4071c83d	3.7778466
17	0x3ec385e4	0.38188088
18	0xbecab4d6	-0.39591092
19	0xbe3dcda7	-0.18535481
20	0x3f06307d	0.5241774
21	0xbf315431	-0.6926909
22	0xbed4a903	-0.41535196
23	0xbf1f82d7	-0.6230902
24	0xbe8e8c4a	-0.27841407
25	0xbf6d9e2e	-0.9281949
26	0x3bcf8f1f	0.0063342
27	0xbd96576c	-0.07340893
28	0x3dd86572	0.10566224
29	0x3da1cc4e	0.07900296
30	0x3e30be36	0.1726006
31	0xbe21ba59	-0.15793742
32	0x3e4e254a	0.20131412
33	0x3c9bd62e	0.019023027
34	0x3c64cc01	0.013964654
35	0x3e39ebad	0.1815631
36	0x3dc325cc	0.095286936
37	0xbde807e3	-0.11329629
38	0x3e004d6d	0.12529536
39	0x3d225f71	0.0396418
40	0xbd4e6f00	-0.050398827
41	0xbee849d5	-0.4536883
42	0xbdc554a8	-0.096352875
43	0xbdc7a0b6	-0.0974745
44	0x3f5024d4	0.81306195
45	0xbe98240b	-0.29715
46	0xbc2a30d2	-0.010387616
47	0x3e0a6257	0.13514076
48	0xbf2696ac	-0.6507366
49	0x3ed1afcd	0.40954438
50	0x3ce45e97	0.027877135
51	0xbc28417a	-0.010269517
52	0x3db76c2a	0.089561775
53	0x3d937c12	0.07201399
54	0xbde32987	-0.11091905
55	0xbe012784	-0.1261273
56	0xbeb9c9d6	-0.362868
57	0x3e83b62a	0.25724918
58	0x3d71f082	0.059067257
59	0x3ecce993	0.40021953
60	0x3ea0fa70	0.3144107
61	0xbea07e0f	-0.31346175
62	0xbdb39e21	-0.08770395
63	0x3ddaab16	0.10677163
64	0x3e3c7af2	0.18406275
65	0xbe8521ce	-0.26002353
66	0xbeca50e4	-0.3951484
67	0x3e2855bb	0.16438954
68	0x3ed5f147	0.41785643
69	0x3f322169	0.6958223
70	0xbf306834	-0.68909
71	0xbe832814	-0.25616515
72	0xbe1fd89c	-0.15609974
73	0x3ec06378	0.3757589
74	0xbe678304	-0.22608572
75	0x3ca67bcb	0.020322701
76	0xbf0c0494	-0.54694486
77	0xbe2674c8	-0.16255486
78	0x3eb2cb0a	0.34920532
79	0xbda05cbd	-0.078301884
80	0x3eca65fe	0.3953094
81	0x3e409cc1	0.18809797
82	0x3ed6842a	0.41897708
83	0xbf01aa99	-0.50650936
84	0x3e53e4c5	0.20692737
85	0xbd85ac18	-0.06526965
86	0xbe1a94d8	-0.15095842
87	0x3f3734c6	0.715649
88	0x3b63c3fc	0.0034754267
89	0x3e5c983e	0.21542451
90	0xbc73094e	-0.014833761
91	0x3d4dbc28	0.050228268
92	0x3d98c865	0.07460097
93	0xbdcf0019	-0.101074405
94	0xbe590561	-0.21193458
95	0x3ecab8df	0.3959417
96	0x3e4c7742	0.19967368
97	0xbd8eeda0	-0.06978917
98	0xbe8560b8	-0.26050353
99	0xbd3843cb	-0.044986527
100	0x3e3802a1	0.17969753
101	0x3db40326	0.08789663
102	0x3ec22fc7	0.37927076
103	0xbe21f49e	-0.1581597
104	0xbf07142d	-0.5276516
105	0x3f14eb63	0.5817167
106	0xbecd3356	-0.4007823
107	0x3e0f4fb3	0.13995247
108	0xbf18d7ba	-0.5970417
109	0x3a01f62d	0.00049576425
110	0x3f34994e	0.70546424
111	0xbe7ab8b9	-0.24484529
112	0xbf368241	-0.712925
113	0xbf0104c8	-0.5039792
114	0x3e236a42	0.15958503
115	0x3c7e23ac	0.0155114345
116	0xbf171e57	-0.5903067
117	0xbeb0ad0d	-0.34507027
118	0x3e09da00	0.13462067
119	0xbe4c9c8d	-0.19981594
120	0x3e2544ec	0.16139573
121	0xbd77ac1a	-0.060466863
122	0xbe7d6136	-0.24744114
123	0x3ecb9dd1	0.39768842
124	0x3c96eab0	0.018422455
125	0x3d4c1d41	0.049832586
126	0x3eb6af05	0.35680404
127	0xbe39c7b8	-0.18142593
128	0xbddc1b4e	-0.107473955
129	0x3ec57450	0.38565302
130	0xbeeb5225	-0.4596111
131	0x3ebf5537	0.373697
132	0x3ee59574	0.44840586
133	0xbe52cdf2	-0.20586374
134	0x3cca5a33	0.024701213
135	0x3ecc95a4	0.39957917
136	0x3d189bc9	0.037257943
137	0x3eda7719	0.4266899
138	0xbec5b42f	-0.38614032
139	0xc02aed2a	-2.6707253
140	0x3e82dcf8	0.2555921
141	0x3e7ddbd1	0.24790885
142	0x3ec3a671	0.38212922
143	0x3d90d716	0.070722744
144	0x3e925831	0.2858291
145	0xbea44901	-0.32086948
146	0x3e64b298	0.22333753
147	0x3dd19a8d	0.10234556
148	0xbe164c6e	-0.14677593
149	0xbe0d3003	-0.13787846
150	0xbda6648d	-0.08124647
151	0xbf368752	-0.7130023
152	0x3ee1a7aa	0.4407323
153	0xbf2a18db	-0.66444176
154	0x3d105cea	0.03524486
155	0x3d76286a	0.060097136
156	0xbe897088	-0.26843667
157	0x3c4b8631	0.01242213
158	0x3de8b3ba	0.11362405
159	0xbe8c226c	-0.27370012
160	0x3e9295c9	0.28629902
161	0xbf00e1ce	-0.5034455
162	0xbed031b6	-0.40662926
163	0xbef9d270	-0.48793364
164	0x3ea0e98c	0.31428182
165	0xbd874cc1	-0.066064365
166	0x3d573156	0.052537285
167	0x3f23db55	0.6400655
168	0xbea58e36	-0.3233506
169	0xbd42fecf	-0.047606286
170	0xbe930b24	-0.28719437
171	0x3e699746	0.22811612
172	0x3d678799	0.0565258
173	0xbd719dd4	-0.058988407
174	0xbf08c18d	-0.53420335
175	0x3e7f77f9	0.2494811
176	0x3c800ed7	0.015632076
177	0xbd98374f	-0.07432424
178	0xbe3d16de	-0.18465754
179	0xbbad71ee	-0.0052931225
180	0xbf1761c4	-0.59133554
181	0x3e22e95e	0.15909335
182	0x3eb76452	0.35818726
183	0xbd831a30	-0.06401479
184	0xbf9fc06b	-1.2480596
185	0x3eada941	0.33918193
186	0x3f87c16a	1.06059
187	0xbd35aa8b	-0.044352096
188	0x3dd77f2a	0.105223015
189	0x3e9bf0b0	0.30457067
190	0x3ec2ea80	0.38069534
191	0x3da1724b	0.07883128
192	0x3cda507a	0.026649702
193	0xbf03b248	-0.5144391
194	0x3e978342	0.2959233
195	0xbd361348	-0.04445198
196	0x3e9dab0a	0.30794555
197	0xbeee4927	-0.46540186
198	0x3e1683d8	0.14698732
199	0xbeedf24f	-0.4647393
200	0xbee6ba90	-0.4506421
201	0x3f1d16d3	0.6136295
202	0x3e15ce02	0.14629367
203	0x3e255ac1	0.16147901
204	0xbdbd4a8c	-0.09242734
205	0xbe29a9d3	-0.16568689
206	0x3e21d89d	0.15805288
207	0x3e94f15a	0.29090387
208	0xbc676b29	-0.01412467
209	0xbecc5eb9	-0.39916018
210	0xbbf0eeef	-0.007352702
211	0x3ed7f2f4	0.42177546
212	0x3efb1b73	0.4904438
213	0x3f17c13c	0.5927923
214	0xbe9c4aa4	-0.30525696
215	0x3ea3fa8e	0.32027096
216	0x3e2da4b6	0.16957363
217	0x3e51ca41	0.2048731
218	0x3df941e6	0.12170772
219	0x3c87d4f5	0.016581038
220	0x3d7aad4e	0.061200432
221	0xbe82be0c	-0.2553562
222	0xbeae819d	-0.34083262
223	0xbe52939a	-0.20564118
224	0x3d25a890	0.040443957
225	0x3ef4e142	0.47828108
226	0x3e86ee33	0.26353607
227	0xbac64641	-0.0015127138
228	0xbe002df4	-0.1251753
229	0x3ee397f8	0.4445188
230	0xbf12916f	-0.57253164
231	0xbdfb7cff	-0.122797005
232	0xbd32be6d	-0.043638635
233	0xbe04c2d0	-0.1296494
234	0x3eaba714	0.33525908
235	0x3d8c6c92	0.06856646
236	0x3e369ede	0.1783404
237	0x3ea242f0	0.31691694
238	0x3e617bdf	0.2201991
239	0x3fdc8a00	1.7229614
240	0xbeacf574	-0.33781016
241	0xbde6d12e	-0.112703666
242	0xbe55e231	-0.20887066
243	0x3e747544	0.23872858
244	0x3ec94028	0.3930676
245	0x3e78cbff	0.24296568
246	0x3e041a37	0.12900625
247	0x3e6cfa49	0.23142351
248	0xbe46d495	-0.19417031
249	0x3e4fe665	0.20302732
250	0xbf06186f	-0.5238103
251	0x3e554170	0.20825744
252	0xbdcec4a0	-0.10096097
253	0x3f2e85db	0.68173
254	0x3e337dec	0.17528504
255	0xbe94feba	-0.2910059

fc1.0.bias f4 [64]
0	0x3cb5054c	0.022097252
1	0x3bc941d1	0.006141879
2	0x3ddb9952	0.10722603
3	0x3a53036e	0.00080495223
4	0xbc1b6a87	-0.009485847
5	0x3bfac381	0.0076527004
6	0x3b879ece	0.004138804
7	0xbcc1c56f	-0.023653714
8	0x3d60eb46	0.054911874
9	0xbc89bf65	-0.016814897
10	0xbbabb223	-0.0052397414
11	0x3c6e2730	0.01453571
12	0x3d8ef5bc	0.06980464
13	0x3dcbaccb	0.09945067
14	0xbca324f4	-0.019915082
15	0x3a96563b	0.001146979
16	0x3db3bc06	0.08776097
17	0xbd20fdb7	-0.03930446
18	0xbc3150b4	-0.010822464
19	0xbcafa951	-0.021443041
20	0x3d4c5a40	0.049890757
21	0x3ca59d78	0.020216689
22	0x3df0cec8	0.117581904
23	0x3b33666a	0.0027374276
24	0x3c6a2a21	0.014292271
25	0x3ca02c31	0.019552322
26	0x3ca810b1	0.020515772
27	0x3cc8d308	0.02451469
28	0x3ce2da67	0.027692033
29	0xbc840357	-0.016114874
30	0x3d47e3aa	0.0488011
31	0x3d26850f	0.04065424
32	0x3b8a4439	0.0042195586
33	0x3d0a2c32	0.033733554
34	0xbc62ca4b	-0.013842176
35	0xbd328825	-0.04358687
36	0x3ceb4c1e	0.028722819
37	0x384d62ee	4.8967944e-05
38	0x3c82ea35	0.01598082
39	0x3c8a502b	0.01688393
40	0x3cd07997	0.025448604
41	0xbcd9f07f	-0.026603935
42	0x3cd570ae	0.026054706
43	0xbb54d75d	-0.0032477
44	0x3daccd44	0.08437589
45	0x3cbf98e7	0.02338834
46	0x3b5e9465	0.0033962962
47	0x398eaa9d	0.00027211467
48	0xbbac5d5f	-0.005260154
49	0xbc33e9a0	-0.0109809935
50	0xbb3d1dfc	-0.0028856983
51	0x3dd6d16b	0.10489162
52	0xb9880d0d	-0.00025949665
53	0x3cce37f1	0.02517316
54	0xbc0d3ff9	-0.008621209
55	0x3ad0bbf7	0.0015925159
56	0x3da727bf	0.08161878
57	0xbbd687ac	-0.006546935
58	0x3dda6136	0.10663073
59	0xbd421178	-0.04737994
60	0xbd0515b1	-0.03249139
61	0x3c9ee77d	0.019397492
62	0x3b6d99f5	0.0036255096
63	0xbbefaa4b	-0.0073140017

fc1.1.weight f4 [64, 500]
0	0xbf1d6f17	-0.61497635
1	0x3ce2d4f5	0.027689436
2	0x3d5d1db9	0.053983424
3	0x3c332b6e	0.010935647
4	0x3b562bea	0.0032679983
5	0xbdfbb223	-0.12289836
6	0xbbd1a1f0	-0.0063974783
7	0x3d048b68	0.03235951
8	0xbe1db69c	-0.15401691
9	0x3d32d4ca	0.043659963
10	0x3d7fc3d5	0.06244262
11	0xbc98147e	-0.018564459
12	0x3b87d79c	0.0041455757
13	0xbd98c129	-0.074587174
14	0xbc413274	-0.011791814
15	0xbf0a90dc	-0.5412729
16	0x3f721223	0.94558924
17	0xbd29eda4	-0.041486397
18	0xbc6be566	-0.014397955
19	0x3ba7f6b7	0.0051258462
20	0x3cbb5448	0.022867337
21	0xbdb3f99c	-0.087878436
22	0xbcc05fb8	-0.023483142
23	0xbd676d4e	-0.056500725
24	0x3bacc138	0.005272057
25	0xbde7a3c4	-0.11310533
26	0x3c80aff9	0.01570891
27	0x3a679ed5	0.00088356185
28	0x3bee57e6	0.007273662
29	0xbbffa103	-0.0078011765
30	0x3ca401ad	0.02002033
31	0xbd03080a	-0.03199009
32	0xbd0664bc	-0.03281091
33	0xbdcbb4af	-0.09946572
34	0x3b036c83	0.0020053692
35	0xbcf564a3	-0.029955214
36	0xbc613dda	-0.013747657
37	0xbb8ce0a3	-0.0042992397
38	0xbd9f4ddc	-0.07778522
39	0xbc2f27c6	-0.010690635
40	0x3bb2be3b	0.005454806
41	0xbcb38521	-0.021914067
42	0xbb630586	-0.0034640743
43	0xbce08e52	-0.027411614
44	0x3d200b13	0.03907306
45	0x3ac8649f	0.0015288776
46	0x3cd481ff	0.025940893
47	0x3bdea68e	0.006794757
48	0xbcc365b6	-0.02385221
49	0x3dc4c158	0.0960719
50	0x3b605d52	0.003423531
51	0x3b35530d	0.002766791
52	0x3d9e74dc	0.07737133
53	0xbe28005d	-0.16406389
54	0xbca94b8e	-0.02066591
55	0xbe042b7d	-0.12907214
56	0x3b9c772b	0.004774948
57	0x3c3dcecd	0.01158495
58	0x3ce3a57f	0.027788876
59	0xbd13e4c8	-0.036106855
60	0xbd93f446	-0.07224326
61	0xbc3b553b	-0.011433895
62	0xbd9b787a	-0.075913385
63	0xbc21c0f7	-0.009872667
64	0x3b82df90	0.003993936
65	0xbc6f82cc	-0.014618587
66	0x3ba095c7	0.0049006674
67	0x3daada5e	0.083424315
68	0x3d54041e	0.05176174
69	0x3dd2542d	0.102699615
70	0x3e83d24f	0.2574639
71	0xbcdf8cfc	-0.027288906
72	0xbc3093d3	-0.010777432
73	0x3d6cf809	0.057853732
74	0xbd1cc041	-0.038269285
75	0x3b817023	0.0039501353
76	0xbaedabfd	-0.0018132922
77	0x3b860cc3	0.004090877
78	0x3c02b907	0.007978684
79	0x3bbe2233	0.0058024167
80	0xbcf5d782	-0.030009989
81	0x3c4dda50	0.012564257
82	0x3a82de31	0.0009984431
83	0xbd4ab6c6	-0.049490713
84	0xbc38d91f	-0.011282234
85	0x3e337ab3	0.17527275
86	0xbd43526d	-0.04768603
87	0x3cd92012	0.02650455
88	0x3ba4ea76	0.0050328327
89	0x3e85497c	0.26032627
90	0x3d476559	0.048680637
91	0xbda46c99	-0.08028526
92	0x39fdadaa	0.0004838531
93	0xbcc7cdaf	-0.02439007
94	0xbc4c01f0	-0.012451634
95	0xbd3281c7	-0.043580797
96	0x3c0d7fd3	0.008636433
97	0x3bb2f230	0.005461
98	0xbc5eda21	-0.013601811
99	0x3b8fcdb8	0.0043885373
100	0xbbc94457	-0.00614218
101	0x3d2b84d7	0.041874733
102	0x3ddcc2b2	0.10779323
103	0x3bdd3d7d	0.0067517147
104	0xbcb64815	-0.022251168
105	0x3b843a86	0.004035297
106	0xbc4c0356	-0.012451967
107	0x3ba0d76f	0.004908494
108	0xbd078f6a	-0.033095755
109	0x3c0da007	0.0086441105
110	0xbce65ead	-0.028121317
111	0xbd1b4bf1	-0.03791422
112	0xbba6a982	-0.005086125
113	0x3b8745d4	0.004128197
114	0xbc1a066a	-0.009400943
115	0x3bceb4c1	0.0063081686
116	0x3ca149d1	0.019688519
117	0x3c40c9fa	0.011766905
118	0x3d092b93	0.03348882
119	0xbc2d1eaf	-0.010566398
120	0x3c9dc8e5	0.019260833
121	0xbd36e49c	-0.044651613
122	0xbc3e2dbf	-0.011607586
123	0x3ecf6c3b	0.4051226
124	0x3ada505d	0.001665603
125	0x3b973988	0.0046150126
126	0x3bb845fc	0.005623577
127	0x3b141245	0.0022593897
128	0x3aa472a6	0.0012546375
129	0x3c8e672a	0.017383177
130	0x3c393dd5	0.011306246
131	0xbc160120	-0.009155542
132	0x3ce46eff	0.027884958
133	0x3c60bde1	0.013717146
134	0x3c5cba1d	0.013472107
135	0x3ad345d0	0.0016118828
136	0x3c421dca	0.011847923
137	0x3e173047	0.1476451
138	0xbda9dc3f	-0.08293962
139	0xbefab42b	-0.48965582
140	0x3b9f0488	0.004852835
141	0xbc25c804	-0.010118488
142	0xbca3af7d	-0.01998114
143	0x3ccb0141	0.024780871
144	0x3d590a58	0.05298838
145	0x3b721641	0.0036939534
146	0xbc8b1113	-0.016975915
147	0xbc30c896	-0.010790011
148	0x3d4ab74e	0.04949122
149	0x3e7ab57e	0.24483296
150	0x3ab7c878	0.0014021536
151	0x3b72ee47	0.0037068294
152	0x3bd6aaa2	0.0065511027
153	0x3c090240	0.008362353
154	0x3b88166c	0.0041530635
155	0xbd0e599e	-0.034753434
156	0x3b6fb12f	0.0036574116
157	0x3b86665f	0.004101559
158	0x3d0f84e1	0.035038833
159	0xbd96e2b3	-0.07367458
160	0x3dfe1edf	0.12408232
161	0x3c987b2f	0.018613426
162	0x3dfcccac	0.123437256
163	0x3baf4de8	0.0053498633
164	0xbc22517f	-0.0099071255
165	0x3b9a5cf1	0.0047107865
166	0xbd86ce54	-0.06582323
167	0x3b7885a5	0.0037921455
168	0xbd44b899	-0.04802761
169	0x3d02dff5	0.031951863
170	0x3af37fce	0.0018577517
171	0x3c124900	0.008928537
172	0x3bbd163c	0.005770473
173	0xbc3c02db	-0.01147529
174	0xbb2ca070	-0.0026340745
175	0x3dc1d0c6	0.094636485
176	0x3c21d7c5	0.009878104
177	0x3bc4cccb	0.0060058585
178	0x3ba62037	0.0050697583
179	0x3c3ef3d7	0.011654816
180	0x3acec417	0.0015774992
181	0x3a958218	0.0011406569
182	0x3b8da842	0.0043230364
183	0xbca26b4d	-0.019826556
184	0xbd5851e0	-0.052812457
185	0xbc118595	-0.008881946
186	0x3b96197b	0.004580674
187	0x3c2b3260	0.010449022
188	0x3b8de889	0.004330699
189	0x3bdc79b6	0.0067283763
190	0xbb19ff00	-0.002349794
191	0xbd20b512	-0.039235182
192	0x3d2495b5	0.040181834
193	0xbc192690	-0.009347573
194	0x3b9e0409	0.0048222584
195	0xbb45b241	-0.0030166062
196	0xbf20971c	-0.62730575
197	0x3b4829e8	0.0030542556
198	0x3b38c53c	0.0028193733
199	0x3b8d8618	0.0043189637
200	0xbb5a1f8b	-0.0033282961
201	0x3e97e9a6	0.29670447
202	0xbe3ba4f5	-0.18324645
203	0x3d09326d	0.033495355
204	0xbe0c68b0	-0.1371181
205	0x3c652c8e	0.013987673
206	0x3bde10fa	0.006776926
207	0x3b956b78	0.0045599304
208	0x3af51580	0.0018698424
209	0x3b5c1dbe	0.0033587064
210	0x3c00f68d	0.007871282
211	0x3d20afe6	0.03923025
212	0x3e4b5e74	0.1986025
213	0x3db976df	0.09055876
214	0x3b7b00f0	0.003830012
215	0x3b224355	0.0024759371
216	0x3bd52f7c	0.0065059047
217	0x3d4a446e	0.049381666
218	0x3e0efed0	0.13964391
219	0x3e02df00	0.1278038
220	0x3b4d55c2	0.0031331633
221	0x3e5882cd	0.21143647
222	0xbc37411a	-0.011184955
223	0x3be107e5	0.006867396
224	0x3e1dcea2	0.15410855
225	0x3bdc0290	0.0067141727
226	0x3e11ff0f	0.14257453
227	0xbba81ab1	-0.005130135
228	0x3c0a66c2	0.008447351
229	0x3b728a57	0.0037008727
230	0x3c5259cd	0.012838793
231	0x3d4fad99	0.050702665
232	0x3d7d967f	0.061911102
233	0xbc3383d4	-0.010956723
234	0xbd402d22	-0.046918042
235	0x3f098a81	0.53726965
236	0x3c86081b	0.016361287
237	0x3d78c3b5	0.060733516
238	0x3c604925	0.013689314
239	0x3cd7dc71	0.026350232
240	0xbbcb401c	-0.006202711
241	0x3b04d0cc	0.0020266054
242	0x3b8adde7	0.0042378786
243	0x3cbee322	0.023301665
244	0x3daad251	0.08340896
245	0x3c4ebef4	0.012618769
246	0x3c1ac5b2	0.009446548
247	0xbde16c3b	-0.110069714
248	0xbc5807e6	-0.013185477
249	0x3b99d79d	0.0046948926
250	0x3b7b7856	0.0038371286
251	0x3e7a0dd8	0.24419343
252	0xbbc1d446	-0.0059151975
253	0x3d5ac237	0.053407874
254	0x3b9e9d91	0.0048405607
255	0x3a797695	0.0009516266

fc1.1.bias f4 [64]
0	0x3dcd663f	0.100292675
1	0x3ea2ef1c	0.3182305
2	0x3e0d165b	0.13778059
3	0xc001ce6a	-2.0282235
4	0x3e50fd17	0.20409046
5	0x3e99ee88	0.30064797
6	0x3e1cb750	0.15304303
7	0xbfbc7ee5	-1.4726225
8	0x3d588a2e	0.052866153
9	0xbe0cf363	-0.1376472
10	0x3ecc35c5	0.39884773
11	0x3e9df131	0.30848077
12	0x3e9120f0	0.28345442
13	0x3dfb3a7f	0.122670166
14	0xbe517df5	-0.20458205
15	0x3e1d1a7a	0.15342131
16	0x3de12416	0.10993211
17	0x3ec7469b	0.38921055
18	0xbfea2212	-1.8291647
19	0x3f0cd63d	0.550144
20	0x3eaf3c09	0.3422549
21	0xbfcd9595	-1.6061274
22	0x3e40e509	0.1883737
23	0x3e2787e4	0.16360432
24	0x3db1b830	0.08677709
25	0xbf7ed495	-0.99543124
26	0x3d941139	0.072298475
27	0x3dc462f7	0.095891885
28	0x3dc898c1	0.097947605
29	0xbf7fcf63	-0.9992582
30	0x3e8bb095	0.2728316
31	0x3e26112a	0.16217485
32	0xbc82468a	-0.015902776
33	0x3ea9bd50	0.33152246
34	0xbf1300aa	-0.5742289
35	0xbf2a2955	-0.6646932
36	0x3eb2c695	0.3491713
37	0x3e9018ed	0.28144017
38	0x3d47765c	0.04869686
39	0xbf8e24f7	-1.1105031
40	0x3e9b715a	0.30359918
41	0x3eb34e66	0.3502075
42	0x3ddc6331	0.10761107
43	0x3e0ccfcf	0.13751148
44	0x3e1dcef1	0.15410973
45	0xbda53dfa	-0.08068462
46	0x3eb25889	0.34833172
47	0x3ea9f7e2	0.33196932
48	0xbf672ae5	-0.90299827
49	0x3e9b626c	0.30348527
50	0xbe092cb8	-0.13395965
51	0x3e66ac76	0.22526726
52	0xbf7fa5f3	-0.99862593
53	0x3ea12157	0.3147075
54	0x3e0afa43	0.1357203
55	0x3e225c49	0.15855516
56	0x3ee005d0	0.43754435
57	0x3eb22b50	0.3479867
58	0x3e1127f8	0.14175403
59	0xbe69f137	-0.22845922
60	0xbe98df12	-0.2985769
61	0x3d749528	0.05971256
62	0xbf3c99f7	-0.7367243
63	0xbe95d060	-0.2926054

fc1.2.weight f4 [64, 500]
0	0xbf73630e	-0.9507302
1	0x3e5e055a	0.21681729
2	0x3daaaa61	0.083332784
3	0xbcb0f9ad	-0.02160343
4	0x3d0c08ab	0.034187954
5	0xbec0b7f8	-0.37640357
6	0xbd635a94	-0.055506304
7	0x3dea2926	0.1143363
8	0xbecbfe3f	-0.39842412
9	0x3e431574	0.19051152
10	0x3d863a11	0.06554044
11	0xbe46f4ed	-0.1942937
12	0x3de920e3	0.11383226
13	0xbdb3def7	-0.087827615
14	0xbdbff5f9	-0.093730874
15	0xbf21950b	-0.63118047
16	0x40338c6c	2.8054457
17	0xbe2ec164	-0.1706596
18	0xbe47123e	-0.19440553
19	0xbdaa5502	-0.08316995
20	0x3e43aaf0	0.19108176
21	0xbeae9a51	-0.3410211
22	0xbdd0e7ff	-0.102005
23	0xbf101512	-0.5628215
24	0xbd6f08e9	-0.058358107
25	0xbf3b1743	-0.7308237
26	0x3e83c543	0.25736436
27	0xbc1f11c8	-0.009708829
28	0xbc849f4d	-0.016189242
29	0x3ad6987a	0.0016372346
30	0x3e9bbd98	0.30418086
31	0xbd509257	-0.05092081
32	0xbdb8085f	-0.08985972
33	0xbde2d70b	-0.110761724
34	0x3d3db050	0.046310723
35	0xbe72abd7	-0.23698364
36	0x3cf1e478	0.029527888
37	0x3d6fb145	0.058518667
38	0x3d33fdec	0.04394333
39	0xbd8f3752	-0.069929734
40	0x3a60a61f	0.0008569676
41	0xbde6c8d3	-0.11268773
42	0xbe26529f	-0.16242455
43	0xbd23dc81	-0.04000521
44	0x3e872e7f	0.2640266
45	0x3d7c5280	0.061602116
46	0x3e35520d	0.17707081
47	0x3e5a3b20	0.21311617
48	0xbe2ad29d	-0.16681905
49	0x3e2f9165	0.17145307
50	0x3bbc8e68	0.005754281
51	0x3b0fa298	0.0021916982
52	0x3ecb5682	0.39714438
53	0xbf1e7165	-0.61891776
54	0xbdf8cb46	-0.12148146
55	0xbf02b8b6	-0.51063097
56	0xbd8e4484	-0.06946662
57	0x3d7b6210	0.061372817
58	0x3ea27da1	0.31736472
59	0xbe4a94c9	-0.1978332
60	0xbd1fa476	-0.0389752
61	0x3bbdc63c	0.0057914536
62	0xbe7504d9	-0.2392763
63	0xbdc2c386	-0.095099494
64	0xbd6b683b	-0.05747245
65	0xbc65538f	-0.013996973
66	0xbd2eecce	-0.042706303
67	0x3e8eccf7	0.2789075
68	0x3eec8921	0.4619837
69	0x3f789715	0.9710553
70	0x3eec8fbe	0.46203417
71	0xbddd7627	-0.108135514
72	0xbd23a6a5	-0.039953846
73	0x3ef0a211	0.46998647
74	0xbd830a55	-0.06398455
75	0xbdcee7d5	-0.10102812
76	0xbe40ecf6	-0.18840393
77	0xbda7c55c	-0.0819194
78	0x3dd6cf14	0.10488716
79	0x3b43280a	0.0029778504
80	0x3db14681	0.08656026
81	0x3e51317a	0.2042903
82	0xbceea582	-0.029131655
83	0xbe9bccc8	-0.30429673
84	0x3d8162aa	0.06317647
85	0x3f352585	0.70760375
86	0xbf069ab6	-0.5257982
87	0x3eb4854d	0.3525795
88	0xbde7f80d	-0.11326609
89	0x3f3a703d	0.7282751
90	0x3e8fc7d1	0.28082135
91	0xbe4a6731	-0.19765927
92	0xbe2494d9	-0.16072406
93	0xbd4315c3	-0.047628175
94	0xbcd280d5	-0.025696198
95	0x3ddb8d39	0.107202955
96	0x3e7e38c9	0.2482635
97	0xbbcc25bd	-0.0062300847
98	0xbd84abd6	-0.064780876
99	0x3d2dc7b2	0.042426772
100	0x3d3f9ca4	0.046780244
101	0x3ea2aa29	0.31770447
102	0x3ea6f79d	0.3261079
103	0x3d10c71e	0.035346143
104	0xbe7949cb	-0.24344556
105	0x3d9e5a4f	0.07732069
106	0xbdaa7785	-0.08323578
107	0x3c935e19	0.017989205
108	0xbeddb790	-0.4330411
109	0x3d03b161	0.032151584
110	0x3e5ee9c8	0.21768868
111	0xbd4eff3f	-0.05053639
112	0xbe2597df	-0.16171215
113	0x3a5234ae	0.0008018714
114	0xbd1e2441	-0.038608793
115	0x3d4d83fc	0.0501747
116	0x3e25251c	0.16127437
117	0x3a5b17e5	0.00083577476
118	0x3ece4fdd	0.40295306
119	0xbe0d50de	-0.1380038
120	0x3dfad291	0.122471936
121	0xbec4fe5c	-0.3847531
122	0xbe8b3b46	-0.2719366
123	0x3f4e2f11	0.8054057
124	0x3d596b1b	0.05308066
125	0x3d625d4e	0.055264764
126	0x3d94f537	0.072733335
127	0xbea35db0	-0.31907415
128	0x3dafcb9d	0.08583758
129	0x3e908df5	0.28233305
130	0xbd768921	-0.06018937
131	0x3dc60311	0.096685536
132	0x3d4d61f7	0.050142255
133	0x3af490a3	0.0018658828
134	0x3d8dd907	0.0692616
135	0x3dac7c95	0.084222
136	0x3e4a3ca0	0.19749689
137	0x3ecb6fe2	0.39733797
138	0xbea38dd4	-0.31944144
139	0xbff3449b	-1.9005312
140	0x3d198646	0.03748157
141	0xbdf7aa85	-0.12093071
142	0x3ba883e6	0.0051426766
143	0x3e2f020d	0.17090626
144	0x3e8f3819	0.27972487
145	0xbcc1edcb	-0.023672959
146	0x3e1a49fe	0.15067288
147	0xbe0aa1f3	-0.13538341
148	0x3ebd812f	0.37012622
149	0x3dd1a0a5	0.10235719
150	0x3d55a522	0.052159436
151	0xbd89a065	-0.06720046
152	0x3de0ccc4	0.10976556
153	0xbe06648f	-0.13124298
154	0xbd1d9a0a	-0.03847698
155	0xbdc95aea	-0.098317936
156	0x3ab07017	0.001346114
157	0xbd3bb4c6	-0.045826696
158	0x3e1b153f	0.15144823
159	0xbec567a7	-0.38555643
160	0x3f198aba	0.59977305
161	0x3d82051d	0.063486315
162	0x3b031e3e	0.002000704
163	0xbdccf85c	-0.10008308
164	0xbe244ac4	-0.16044146
165	0x3c3ce020	0.011528045
166	0xbecde05b	-0.40210232
167	0x3ec13fb6	0.3774392
168	0xbe2e5f16	-0.1702846
169	0x3e3ca445	0.18422039
170	0xbd96f0f4	-0.07370177
171	0x3ded82c8	0.1159721
172	0xbd46bae3	-0.048518073
173	0xbd280e5f	-0.04102933
174	0xbcbaa25b	-0.022782495
175	0x3f06d3c7	0.52666897
176	0x3dc594d3	0.096475266
177	0xbdcd3458	-0.100197494
178	0x3ba5e36d	0.0050625117
179	0x3dc64ea4	0.09682968
180	0xbd6fab44	-0.05851294
181	0x3d979a5f	0.07402491
182	0x3d8e1a0c	0.06938562
183	0xbb9ce271	-0.004787736
184	0xbea79aaa	-0.32735187
185	0xbe02d406	-0.12776193
186	0x3d6f00d1	0.058350388
187	0x3dca5c91	0.09880937
188	0xbd2f97f2	-0.042869516
189	0x3e57f517	0.21089588
190	0x3e272d59	0.16325893
191	0xbd270432	-0.040775485
192	0x3e8a12fe	0.26967615
193	0xbd95b0d5	-0.07309119
194	0xbc375b3c	-0.011191186
195	0x3e521e97	0.20519482
196	0xbee63887	-0.44965002
197	0xbaf526bf	-0.0018703564
198	0x3c875d0c	0.01652386
199	0xbd931130	-0.07181013
200	0xbe185ec8	-0.14879906
201	0x3f43741a	0.7634903
202	0xbd514142	-0.051087625
203	0x3df809fb	0.121112786
204	0xbc90672e	-0.017627325
205	0xbd61f18d	-0.055162
206	0x3e955631	0.2916732
207	0xb9e18a44	-0.0004301836
208	0x3cacb47d	0.021082157
209	0x3cece23c	0.02891647
210	0x3e33d34a	0.17561069
211	0x3f1b5d3f	0.6068916
212	0x3f200120	0.62501717
213	0x3f263eca	0.6493956
214	0xbd9ea162	-0.07745625
215	0x3d022440	0.031772852
216	0x3e0cf6db	0.13766043
217	0x3ecc703f	0.39929387
218	0x3f14acde	0.58076274
219	0x3eb9188b	0.36151537
220	0x3d14ff7d	0.036376465
221	0x3e6508f0	0.2236669
222	0xbe222894	-0.15835792
223	0xbcffa96f	-0.031208722
224	0x3eee6a82	0.46565634
225	0x3dfd06bd	0.12354801
226	0x3f082f89	0.5319753
227	0xbd82a141	-0.06378413
228	0x3dce3bf8	0.10070032
229	0x3df1245c	0.11774513
230	0x3e55ce3b	0.20879452
231	0x3e927fac	0.2861303
232	0x3e87b8a3	0.26508054
233	0x3bcbcca4	0.0062194634
234	0xbe1a90c9	-0.15094294
235	0x3fd968de	1.6985128
236	0x3dfa6639	0.12226529
237	0x3ebed479	0.3727148
238	0x3e269550	0.16267896
239	0x3f4bf17c	0.7966535
240	0xbcccf4b9	-0.025019037
241	0x3dc72d59	0.09725446
242	0xbd27f0cf	-0.041001137
243	0x3ea72bf4	0.3265072
244	0x3f105275	0.5637582
245	0x3e13398f	0.14377426
246	0x3dc29ab6	0.09502165
247	0xbe8e4307	-0.27785513
248	0x3e09751b	0.13423578
249	0x3d3636eb	0.044485968
250	0x3d344d05	0.044018764
251	0x3f31d3ee	0.69464004
252	0x3cb37b23	0.021909302
253	0x3f2d2dcd	0.6764801
254	0xbd8a87f7	-0.067642145
255	0xbcdb24bd	-0.026750917

fc1.2.bias f4 [64]
0	0x3d7b52c8	0.061358243
1	0x3cd44745	0.02591289
2	0x3eac1e02	0.33616644
3	0x3cc7c515	0.024385968
4	0x3c912030	0.017715544
5	0x3dd8e576	0.10590641
6	0xbcc0db58	-0.023542091
7	0xbe8282f1	-0.25490525
8	0x3e7d088c	0.24710292
9	0x3df97a97	0.12181585
10	0xbca4fb77	-0.020139439
11	0xbd440caf	-0.04786366
12	0x3e4121f4	0.18860608
13	0x3ea5a386	0.3235132
14	0x3e2f8193	0.17139272
15	0xb999d78a	-0.00029343023
16	0x3dfab691	0.12241853
17	0x3d80c79a	0.06288071
18	0xbe8ce5ea	-0.2751916
19	0x3e5e2495	0.21693642
20	0x3d5db50b	0.054127734
21	0x3b072ed5	0.002062728
22	0x3e972426	0.29519767
23	0x3d2b476b	0.041816156
24	0xbc0ed575	-0.008717884
25	0xbeb3ab62	-0.35091692
26	0x3d99b523	0.07505252
27	0xbdba3122	-0.090914026
28	0xbe12d1ca	-0.1433784
29	0x3c5f6b27	0.013636387
30	0x3e1d0626	0.15334377
31	0x3df53206	0.11972432
32	0x3bae0e56	0.0053117676
33	0x3d7457d6	0.05965408
34	0xbddabc24	-0.10680416
35	0x3e6f9c8b	0.2339956
36	0xbd93762c	-0.07200274
37	0x3d11688b	0.03550009
38	0x3bac4246	0.005256924
39	0xbebb50f7	-0.3658521
40	0x3d585146	0.052811883
41	0x3cb2ea8b	0.021840354
42	0xbc52bce8	-0.012862422
43	0x3cb68010	0.022277862
44	0x3e5aae07	0.21355449
45	0xbeeed269	-0.46644905
46	0x3cb580ca	0.022156138
47	0x3c716098	0.014732502
48	0xba66b587	-0.00088008534
49	0x3d07cd70	0.033154905
50	0xbef6aa1f	-0.48176667
51	0x3ea3c141	0.3198338
52	0xbd549636	-0.051901065
53	0x3d6e4a91	0.05817658
54	0x3cad3465	0.021143148
55	0x3cf8a675	0.03035281
56	0x3e901a17	0.28144905
57	0x3d1c8e72	0.038221784
58	0x3ea801b4	0.328138
59	0xbc256e8a	-0.010097155
60	0xbad954e1	-0.0016581082
61	0x3d8ea6e7	0.06965428
62	0xbd898198	-0.06714171
63	0xbd2b1bab	-0.041774433

fc1.3.weight f4 [64, 500]
0	0xbf836413	-1.0264915
1	0x3e382734	0.17983705
2	0x3e05d2a4	0.13068634
3	0x3d53df5b	0.05172668
4	0x3d8b8531	0.068125136
5	0xbf08d65b	-0.5345208
6	0xbcf286a8	-0.029605225
7	0x3de6aafe	0.11263083
8	0xbef4b81d	-0.47796717
9	0x3eea7304	0.45790875
10	0x3e91974b	0.2843574
11	0xbe00b0c5	-0.12567432
12	0x3e00b8c9	0.1257049
13	0xbc3bcc1d	-0.011462239
14	0x3d05bfc0	0.03265357
15	0xbf0931d2	-0.53591645
16	0x40030cf5	2.0476658
17	0xbe63fdbc	-0.2226476
18	0xbd7fbc0e	-0.062435202
19	0xbd7a5e2c	-0.061124966
20	0x3e4639b2	0.19357947
21	0xbe6ca494	-0.23109657
22	0xbc55f7e4	-0.01305959
23	0xbf167e5a	-0.5878655
24	0xbc9f0ef4	-0.01941631
25	0xbef1d18e	-0.4723019
26	0x3e85b63e	0.26115602
27	0x3d58253c	0.052769884
28	0x3e20635a	0.156629
29	0x3ba93489	0.0051637334
30	0x3e6a5009	0.22882093
31	0x3e3f9ea0	0.18712854
32	0xbe223dd5	-0.158439
33	0xbe055e73	-0.13024311
34	0x3dbba6c9	0.09162671
35	0xbd215367	-0.03938618
36	0x3d6d1017	0.057876673
37	0x3dc0143f	0.09378862
38	0xbca7575f	-0.020427404
39	0xbe0e20e2	-0.13879731
40	0x3dedf960	0.1161983
41	0x3dda4902	0.106584564
42	0xbdbb9105	-0.0915852
43	0xbdf54b23	-0.11977222
44	0x3e7f0751	0.24905135
45	0x3d3f3861	0.046684626
46	0x3e10ee9a	0.1415352
47	0x3e230479	0.15919675
48	0xbe5035b2	-0.20332983
49	0x3eb6ec03	0.35726938
50	0x3d73cce8	0.059521586
51	0x3e0a1052	0.13482788
52	0x3f033143	0.5124704
53	0xbef19b31	-0.47188714
54	0xbd39b3e5	-0.045337576
55	0xbef00c11	-0.46884206
56	0xbc81ed3f	-0.015860198
57	0x3ba5541a	0.005045426
58	0x3eae7721	0.34075263
59	0xbdd13b65	-0.10216407
60	0xbd8a908e	-0.06765853
61	0x3d44fae2	0.048090823
62	0xbb70e69a	-0.0036758543
63	0xbc924417	-0.017854733
64	0xbe1a6fb5	-0.15081675
65	0x3dc17ca5	0.09447602
66	0xbcf31164	-0.029671378
67	0x3e0a1b85	0.1348706
68	0x3e9ce083	0.3064004
69	0x3f5dff91	0.8671809
70	0x3f2f1d1f	0.6840381
71	0xbde94d0d	-0.113916494
72	0xbdaeaf15	-0.08529488
73	0x3e9e3aef	0.30904338
74	0xbd9f6ae0	-0.07784057
75	0xbd45f014	-0.04832466
76	0xbe4d395e	-0.20041415
77	0xbcfcf45b	-0.030878237
78	0x3d97d081	0.07412816
79	0x3e30e4a0	0.17274714
80	0x3d05cdc3	0.032666933
81	0x3dd8cf3e	0.10586403
82	0xbdbe6206	-0.0929604
83	0xbe8096f0	-0.25115156
84	0x3caa9130	0.020821184
85	0x3f241e33	0.6410858
86	0xbea62871	-0.3245273
87	0x3e70aed4	0.23504192
88	0xbb495c95	-0.003072535
89	0x3eb840ca	0.3598693
90	0x3c9a3fbf	0.018829225
91	0xbe84b488	-0.25918984
92	0xbda786d2	-0.08180012
93	0xbdf8957f	-0.12137889
94	0xba0d3b63	-0.00053875725
95	0x3d8daf10	0.06918156
96	0x3e8a96d7	0.27068207
97	0xbc801661	-0.015635671
98	0xbdc20133	-0.09472885
99	0x3da62a7b	0.08113571
100	0xbd0b1693	-0.033957075
101	0x3e9ffc33	0.312471
102	0x3ebaf0d3	0.3651186
103	0x3a960a48	0.0011447156
104	0xbe718b8c	-0.23588389
105	0x3d2ddbed	0.042446066
106	0x3cea7c01	0.028623583
107	0x3decac17	0.11556261
108	0xbeed672a	-0.4636777
109	0x3d258530	0.04041022
110	0x3e18b0aa	0.14911142
111	0xbea6f74b	-0.32610545
112	0xbc86ad03	-0.01643992
113	0x3d137b49	0.036006246
114	0xbddae53b	-0.106882535
115	0x3e17c252	0.14820221
116	0x3dc7263d	0.0972409
117	0xbbb85fa9	-0.005626638
118	0x3ee6119f	0.4493532
119	0xbddd98cc	-0.10820159
120	0x3e0981a2	0.13428357
121	0xbe9722c1	-0.29518703
122	0xbe0be94e	-0.13663217
123	0x3f7d6ab3	0.98990935
124	0x3da92764	0.08259466
125	0x3dd80d1f	0.10549378
126	0x3e2acba4	0.16679245
127	0xbdf02f45	-0.11727766
128	0xbc4551fe	-0.012043474
129	0x3dd48b25	0.10378102
130	0x3e233b9b	0.15940706
131	0x3d997b3e	0.0749421
132	0x3e475ec3	0.19469742
133	0x3da37de0	0.07982993
134	0x3dd5b111	0.10434163
135	0x3d3e9cea	0.046536364
136	0x3e132792	0.14370564
137	0x3eaa3b02	0.33248144
138	0x3db92503	0.090402626
139	0xbf51a6c9	-0.8189512
140	0x3bc5d7a0	0.0060376674
141	0xbe51f0a0	-0.20501947
142	0xbe056b69	-0.13029255
143	0x3d9bbc42	0.07604267
144	0x3e01f7e6	0.12692222
145	0xbd38d699	-0.04512653
146	0x3e4f10c2	0.20221236
147	0x3e0a0bbc	0.13481039
148	0x3ebfb9d1	0.37446454
149	0x3ee8afb3	0.45446548
150	0x3d1f7646	0.038931154
151	0xbcaf91be	-0.0214318
152	0x3ddd5f2b	0.108091675
153	0xbdb2ee7b	-0.08736893
154	0xbd28b49a	-0.04118786
155	0x3b831135	0.003999854
156	0xbce9a88b	-0.02852275
157	0x3d4b9db9	0.049710963
158	0x3df67a37	0.120350294
159	0xbe941086	-0.28918856
160	0x3f261031	0.64868456
161	0x3e4fecd3	0.20305185
162	0x3e8038d1	0.25043347
163	0xbd212d67	-0.03934994
164	0xbd77829d	-0.060427297
165	0x3db0181d	0.08598349
166	0xbeb3eade	-0.35140127
167	0x3e934001	0.2875977
168	0xbd80d6f7	-0.06291001
169	0x3e32f70c	0.17477053
170	0xbd968971	-0.073504336
171	0x3dbbfb06	0.09178738
172	0x3c392b82	0.011301877
173	0x391894a3	0.00014551221
174	0x3d434267	0.047670748
175	0x3f03a020	0.51416206
176	0x3db9bb4d	0.09068928
177	0xbdc422c2	-0.09576942
178	0x3d4c3057	0.049850788
179	0x3e3d3403	0.18476872
180	0x3d579957	0.05263647
181	0x3d87a966	0.06624107
182	0x3d71bfd4	0.059020832
183	0x3d37f9c9	0.044915948
184	0xbec1401f	-0.37744233
185	0xbd8096d6	-0.0627877
186	0x3c09a5aa	0.008401314
187	0x3dbad4cb	0.09122618
188	0x3d6c2973	0.057656717
189	0x3e36f5c2	0.17867187
190	0x3e370a7e	0.17875096
191	0x3cd86a97	0.026418013
192	0x3e83c041	0.25732616
193	0xbd8a66d8	-0.06757897
194	0xbd18e0ca	-0.03732375
195	0x3ccc4dd0	0.024939448
196	0xbf2073da	-0.62676775
197	0xbc193cc1	-0.009352864
198	0x3daed34a	0.08536394
199	0xbd19fe0c	-0.037595794
200	0xbdff8ff8	-0.12478632
201	0x3f1687de	0.58801067
202	0x3e22bb83	0.15891843
203	0x3b99bb8a	0.004691546
204	0xbe513706	-0.20431146
205	0xbd0b7e53	-0.03405602
206	0x3e87e324	0.26540482
207	0x3d098563	0.033574473
208	0x3cb3cd50	0.021948487
209	0x3d357e8f	0.04431015
210	0x3e245b97	0.16050564
211	0x3e9204e4	0.28519356
212	0x3f698df2	0.91232216
213	0x3eb1a20b	0.3469394
214	0xbd953265	-0.072850026
215	0xbd1e82be	-0.038698904
216	0x3e0dd6f1	0.13851525
217	0x3eb8f159	0.36121634
218	0x3f10e22f	0.5659513
219	0x3edd4788	0.43218637
220	0xbd217f1b	-0.039427858
221	0x3ea3be73	0.3198124
222	0x3cb0c6d1	0.021579178
223	0x3aa71028	0.0012745904
224	0x3f11899e	0.5685061
225	0x3d76a696	0.060217462
226	0x3f1c4c96	0.6105436
227	0xbd256949	-0.04038361
228	0x3e7962b5	0.2435406
229	0x3d81fdd9	0.06347246
230	0x3dd48e2f	0.10378682
231	0x3f004b72	0.5011512
232	0x3e2f7436	0.17134175
233	0xbd9920f5	-0.07476989
234	0xbe7798d8	-0.24179399
235	0x3fd36903	1.6516422
236	0x3ea02b97	0.31283256
237	0x3ee9d7a9	0.45672348
238	0x3dad6aa7	0.08467608
239	0x3f176d00	0.59150696
240	0x3d636b63	0.055522334
241	0x3d89e1fd	0.06732557
242	0x3d14e261	0.036348704
243	0x3e938f8b	0.28820452
244	0x3eec4c3b	0.4615191
245	0x3d93fcb8	0.07225937
246	0x3dbae031	0.09124792
247	0xbedb7fe5	-0.42871013
248	0x3eb2d5fb	0.3492888
249	0x3d48595c	0.048913345
250	0xbb6cbf5b	-0.00361248
251	0x3f21a334	0.63139653
252	0x3d9ccb63	0.076559804
253	0x3ef11efd	0.47093955
254	0xbc425a8a	-0.0118624065
255	0x3da1990c	0.078905195

fc1.3.bias f4 [64]
0	0x3e1e9687	0.15487109
1	0xbd275a40	-0.040857553
2	0x3d9b0be4	0.07570627
3	0x3c9dcb4e	0.019261982
4	0x3cd1d0e5	0.025612304
5	0xbd18309a	-0.037155725
6	0x3cf46584	0.029833563
7	0x3ca2d9c6	0.019879233
8	0x3dd7c055	0.10534731
9	0xbd958e98	-0.07302588
10	0xbd105b2b	-0.035243195
11	0xba297b60	-0.00064652227
12	0xbafb445c	-0.0019170153
13	0x3d8bc02d	0.06823764
14	0x3c75fe1d	0.015014199
15	0x3cc695aa	0.024241287
16	0x3dd53ca0	0.10411954
17	0xbae360b5	-0.0017347547
18	0x3ccfcc51	0.02536598
19	0xbce03eff	-0.027373789
20	0x3db32a73	0.08748331
21	0x3c8e6b1b	0.017385056
22	0x3d2e9ced	0.042630125
23	0x3d5d049f	0.053959485
24	0x3e1777cf	0.14791797
25	0xbc84422e	-0.016144838
26	0x3e0068d2	0.12539986
27	0x3dcf7707	0.101301245
28	0x3dc044a2	0.09388091
29	0xbc9bec6c	-0.019033633
30	0x3cb86996	0.022511285
31	0x3dce83e7	0.10083752
32	0xbb821129	-0.003969331
33	0xbcf1013f	-0.02941954
34	0xba5b816e	-0.00083734735
35	0x3d81862b	0.06324419
36	0xbdb36c0b	-0.08760842
37	0xbc8538a3	-0.016262358
38	0xbc89d5f0	-0.016825646
39	0xbbf86f2e	-0.007581613
40	0x3dab1684	0.08353904
41	0xbda672ef	-0.081273906
42	0x3e0677a4	0.13131577
43	0x3d4657a8	0.04842344
44	0x3d365da1	0.044522885
45	0xbba78be6	-0.0051131127
46	0xbca9ca96	-0.020726483
47	0xbd5de6c3	-0.05417515
48	0xbd095fdc	-0.033538684
49	0xbd9cf554	-0.0766398
50	0xbcbdd600	-0.023173332
51	0x3d812bd4	0.06307188
52	0xbd09de7b	-0.03365944
53	0x3d016424	0.031589642
54	0x3b9a0303	0.004700066
55	0x3d9a8bf5	0.07546226
56	0x3cac0c2b	0.021001896
57	0xbcc02fd9	-0.023460316
58	0x3d800b80	0.062521935
59	0x3b6ea6c0	0.0036415309
60	0xbc7a83c6	-0.015290206
61	0x3e188c2e	0.14897224
62	0x3920a849	0.0001532148
63	0xbb508bde	-0.0031821649

fc1.4.weight f4 [64, 500]
0	0xbf833e94	-1.0253472
1	0x3db22d8b	0.08700093
2	0x3cade07b	0.021225205
3	0xbce7e391	-0.028306754
4	0x3c07e6c8	0.008294769
5	0xbed7fbf0	-0.421844
6	0xbcb3de9d	-0.021956736
7	0x3d50f562	0.051015265
8	0xbebca099	-0.36841276
9	0x3e5223a3	0.20521407
10	0x3d76fac9	0.06029776
11	0xbe1c992c	-0.15292805
12	0x3d2303e8	0.039798647
13	0xbddac2d8	-0.10681695
14	0xbd2a90a0	-0.04164183
15	0xbf02e429	-0.51129395
16	0x4009c8d1	2.1528819
17	0xbe26e171	-0.16296937
18	0xbe085421	-0.13313343
19	0xbd55aeea	-0.052168764
20	0x3dca28a8	0.09871036
21	0xbe601e81	-0.21886636
22	0xbd9478bc	-0.07249591
23	0xbecf4bfa	-0.40487653
24	0xbd188cd5	-0.037243683
25	0xbef8e95c	-0.4861554
26	0x3e0c81bf	0.13721369
27	0xba568043	-0.00081825646
28	0x3d273bc4	0.04082848
29	0xbd142b77	-0.036174264
30	0x3dec864f	0.11549055
31	0xbc5c1ca1	-0.01343456
32	0xbe22558d	-0.15852948
33	0xbdfb368c	-0.12266263
34	0x3ca57297	0.020196242
35	0xbdd61757	-0.104536705
36	0xbcb6473c	-0.022250764
37	0x3c9fffb3	0.019531107
38	0xbcfe43d0	-0.031038195
39	0xbdbb2159	-0.0913722
40	0xbbb667f2	-0.0055665905
41	0xbca4b05b	-0.020103624
42	0xbdff4156	-0.12463634
43	0xbdcb21ab	-0.09918531
44	0x3e168302	0.14698413
45	0x3bed20dd	0.0072365836
46	0x3d829616	0.06376283
47	0x3db28c92	0.08718218
48	0xbe1ced7f	-0.15324973
49	0x3e353b1e	0.17698333
50	0x3ba7feaa	0.005126794
51	0x3ceb9ada	0.028760362
52	0x3e4f62ea	0.20252576
53	0xbf0857e7	-0.5325913
54	0xbd63d478	-0.055622548
55	0xbedcfcd2	-0.43161637
56	0xbdab1be4	-0.08354929
57	0xbd25d28f	-0.040484007
58	0x3e3e2d3a	0.1857194
59	0xbe1c610d	-0.15271397
60	0xbdc8b947	-0.09800964
61	0xbcc44e61	-0.023963155
62	0xbe4e9356	-0.20173392
63	0xbd757638	-0.059927195
64	0xbd879913	-0.066209935
65	0xbc684fc0	-0.01417917
66	0xbcf10f39	-0.029426204
67	0x3e171d61	0.14757301
68	0x3e576e28	0.21038115
69	0x3f1dbb35	0.6161378
70	0x3efe1372	0.4962421
71	0xbe01c18c	-0.12671489
72	0xbdbcf0f9	-0.092256494
73	0x3e7a66eb	0.24453323
74	0xbdc6edbf	-0.09713315
75	0xbd7838bb	-0.060600977
76	0xbdf9163d	-0.12162445
77	0xbd21399f	-0.039361592
78	0x3a6d8266	0.00090602634
79	0x3d464a2a	0.048410572
80	0x3c0878d0	0.008329585
81	0x3d9a3eec	0.07531533
82	0xbd5d0628	-0.05396095
83	0xbe9279bb	-0.28608498
84	0xbbd29861	-0.0064268564
85	0x3ee18440	0.4404621
86	0xbec769ae	-0.38947815
87	0x3e17d5c3	0.14827637
88	0xbd36b41f	-0.04460537
89	0x3f00b5ee	0.502776
90	0x3dbc24ce	0.091867074
91	0xbe408708	-0.1880151
92	0xbde4b43a	-0.11167188
93	0xbe135ab7	-0.14390074
94	0xbd10a4e5	-0.035313506
95	0x3d044123	0.03228868
96	0x3e0153a3	0.12629561
97	0xbd1bc18e	-0.038026385
98	0xbdbf7468	-0.093483746
99	0x3cf72954	0.030171074
100	0xbd0b85c4	-0.034063116
101	0x3e196c85	0.14982803
102	0x3e588a11	0.21146418
103	0xbd0f1b0e	-0.03493791
104	0xbe39ed43	-0.18156914
105	0x3b107e9c	0.0022048121
106	0xbd906795	-0.07051007
107	0x3ca93d5c	0.020659141
108	0xbec03e04	-0.37547314
109	0xbcae91a3	-0.02130968
110	0x3dc389e1	0.09547783
111	0xbe214139	-0.15747537
112	0xbd949f42	-0.072569385
113	0x3ac336c0	0.0014893636
114	0xbda9307f	-0.08261203
115	0x3d32eaff	0.04368114
116	0x3d6cfe3d	0.057859648
117	0xbcd80a6d	-0.026372159
118	0x3e625476	0.22102532
119	0xbe219775	-0.15780433
120	0x3d77fa0b	0.060541194
121	0xbe96c326	-0.2944576
122	0xbe647dbe	-0.22313592
123	0x3f49fd73	0.7890236
124	0x3c9685cc	0.018374346
125	0x3d3e61e5	0.04648008
126	0x3da6c2eb	0.081426464
127	0xbe09a7af	-0.13442872
128	0xbc32fecd	-0.010925007
129	0x3db3ad0c	0.087732404
130	0xbcc7d29f	-0.024392424
131	0xbc0d4f7d	-0.0086249085
132	0x3d826572	0.063670054
133	0x3c7a4b86	0.015276795
134	0x3cf79157	0.03022067
135	0x3be840ad	0.007087788
136	0x3d88ba37	0.06676143
137	0x3e6f6dcc	0.23381728
138	0xbdcb4171	-0.09924591
139	0xbfa061c1	-1.2529832
140	0xbc3ef335	-0.011654665
141	0xbe0edea0	-0.13952112
142	0xbda8df7d	-0.08245752
143	0x3ceed39a	0.029153634
144	0x3dce2441	0.10065509
145	0xbd261574	-0.040547803
146	0x3db49c1d	0.08818839
147	0xbc479e35	-0.012183716
148	0x3e688bf7	0.22709642
149	0x3e53b3ba	0.20674029
150	0x3b073bc3	0.0020634986
151	0xbd232951	-0.039834324
152	0x3cc4fa1c	0.024045043
153	0xbd85543a	-0.065102056
154	0xbd3271ce	-0.043565564
155	0xbd7d7acb	-0.061884683
156	0xbd1ab101	-0.03776646
157	0xbcb658ae	-0.022259083
158	0x3da0918d	0.078402616
159	0xbe92862e	-0.28617996
160	0x3ed56d2c	0.41684854
161	0x3d81354b	0.06308993
162	0x3d516877	0.051125016
163	0xbdaac8c4	-0.08339074
164	0xbe14109c	-0.14459461
165	0xbb992a7a	-0.004674253
166	0xbeac6f1c	-0.3367852
167	0x3e47cb7b	0.19511215
168	0xbdd43768	-0.103621304
169	0x3d918a5a	0.071064666
170	0xbd3ae2ae	-0.045626335
171	0x3d8393de	0.06424688
172	0xbcafdc93	-0.021467483
173	0xbd388561	-0.045049075
174	0xbcb8fcde	-0.022581514
175	0x3eb41d62	0.35178667
176	0x3d09aa17	0.033609476
177	0xbdb93f4d	-0.09045277
178	0xb9898a42	-0.00026233686
179	0x3d5e1a59	0.054224346
180	0xbd06c103	-0.032898914
181	0x3c4e5493	0.012593406
182	0x3bcd6e78	0.0062692724
183	0xbd79e535	-0.061009604
184	0xbe897360	-0.26845837
185	0xbdac4202	-0.084110275
186	0xbb23a79d	-0.0024971731
187	0x3b92db2d	0.004481694
188	0xbc9cc3a5	-0.01913626
189	0x3df636a9	0.12022144
190	0x3de024a3	0.10944488
191	0xbd879c11	-0.06621564
192	0x3e0a0534	0.13478547
193	0xbd9e914b	-0.07742556
194	0xbd06b088	-0.032883197
195	0x3d1bb3cf	0.038013276
196	0xbf040723	-0.5157339
197	0xbc6bd029	-0.014392891
198	0x3c500fbd	0.012699065
199	0xbd3e212a	-0.046418346
200	0xbd79c68e	-0.060980372
201	0x3f08441f	0.53228945
202	0xbbdda003	-0.0067634596
203	0x3cb7c84e	0.02243438
204	0xbe179f80	-0.14806938
205	0xbd1cfa0c	-0.0383244
206	0x3e2da15d	0.16956086
207	0xbc958caf	-0.01825556
208	0xbb4cf4f4	-0.0031273933
209	0x3bb3214f	0.005466617
210	0x3d8983a6	0.06714563
211	0x3e7af3bd	0.24507041
212	0x3f0079e9	0.5018602
213	0x3ea2aea7	0.31773874
214	0xbd34ea8b	-0.04416899
215	0xbcb6df0f	-0.02232316
216	0x3d1a8c72	0.037731595
217	0x3e820447	0.25393888
218	0x3ed0f482	0.40811545
219	0x3e863e14	0.26219237
220	0xbcca8828	-0.024723127
221	0x3e80c063	0.2514678
222	0xbdabfda1	-0.08397985
223	0xbd89aa0b	-0.06721886
224	0x3ebf3474	0.37344706
225	0x3c814019	0.015777634
226	0x3ed322c9	0.41237476
227	0xbd8d5404	-0.0690079
228	0x3daf3cd0	0.08556521
229	0x3d123467	0.035694506
230	0x3d883e35	0.0665249
231	0x3eb10918	0.3457725
232	0x3e039cc6	0.12852773
233	0xbcf352ca	-0.029702563
234	0xbe1bf5d6	-0.15230498
235	0x3f9efd46	1.2421043
236	0x3e54e72e	0.20791313
237	0x3e9efc83	0.31052026
238	0x3d035c30	0.03207034
239	0x3eed4d27	0.46347925
240	0xbd2aead3	-0.041727852
241	0x3c47338f	0.012158289
242	0xbc034c89	-0.008013853
243	0x3e1c70ab	0.15277354
244	0x3eb11064	0.34582818
245	0x3d46e3a2	0.04855693
246	0x3d5034d6	0.05083164
247	0xbebbc2e4	-0.36672127
248	0x3e1891ef	0.14899419
249	0x3c942e32	0.018088434
250	0xbc533700	-0.012891531
251	0x3f046305	0.5171359
252	0x3cb46e29	0.022025185
253	0x3eb6f9d6	0.35737485
254	0xbd402c0b	-0.046917003
255	0x3b70519b	0.0036669734

fc1.4.bias f4 [64]
0	0x3cd02cdd	0.025412017
1	0xbdb897b0	-0.09013307
2	0x3d8624d1	0.06549991
3	0x3d4867db	0.04892717
4	0xbd29bd68	-0.041440398
5	0xbc98341f	-0.01857954
6	0x3e068f5b	0.13140623
7	0xbcbf3979	-0.023342835
8	0x3cf24d9a	0.029578019
9	0xbd547097	-0.051865187
10	0x3be4e86e	0.0069857156
11	0xbc8676fc	-0.016414158
12	0xbb99fb47	-0.004699144
13	0x3dc091e7	0.09402829
14	0xbd172961	-0.036904696
15	0x3d4a5ac2	0.04940296
16	0x3d03568c	0.03206496
17	0x3e04c781	0.1296673
18	0x3d099e93	0.033598494
19	0x3cc3d846	0.023906838
20	0x3dc91cc7	0.09819942
21	0xbcf61d26	-0.030043196
22	0x3d91ee8f	0.071255796
23	0x3d59c8e7	0.05317011
24	0x3c8385eb	0.016055068
25	0x3d523556	0.051320396
26	0x3c86236d	0.016374314
27	0xbcc1261c	-0.023577742
28	0xbd6ace0e	-0.057325415
29	0xbb5dcdad	-0.0033844516
30	0x3cfd0b93	0.030889308
31	0xbb38771d	-0.002814717
32	0xba8a363c	-0.0010544728
33	0xbde2c3ca	-0.110725
34	0x3a8b7e67	0.0010642529
35	0x3d518917	0.05115613
36	0xba0b6f56	-0.00053190195
37	0xbd251b80	-0.04030943
38	0x3c66e139	0.014091783
39	0x3d4cca4d	0.049997617
40	0xbce0bef3	-0.027434802
41	0xbbe5ca19	-0.0070126173
42	0x3a164ec2	0.0005733782
43	0x3cd238bc	0.025661819
44	0x3dba608b	0.09100445
45	0x3e1fbfde	0.15600535
46	0xbd3ab99b	-0.045587163
47	0xbdcd7d55	-0.10033671
48	0x3d4115d7	0.04713997
49	0xbdb61788	-0.08891207
50	0xbdbaaf7a	-0.09115501
51	0x3d4287f3	0.047492933
52	0x39838c03	0.00025090584
53	0x3ca5a374	0.020219542
54	0x3da593b2	0.08084811
55	0x3d9656f9	0.073408075
56	0x3c05dd8d	0.008170498
57	0xbd08d026	-0.03340163
58	0x3cc35b62	0.023847286
59	0xbcd9369d	-0.0265153
60	0xbc5d79cf	-0.013517811
61	0x3c8d5412	0.017252002
62	0x3c8caf1c	0.017173342
63	0x3d06bcd1	0.032894913

fc1.5.weight f4 [64, 500]
0	0xbf20b42f	-0.6277494
1	0x3c3d7637	0.011563829
2	0x3dd1a759	0.10236997
3	0x3cb752e6	0.022378396
4	0xba2bad8e	-0.0006548994
5	0xbda200ec	-0.07910332
6	0xbb02948e	-0.0019924971
7	0x3d9d5411	0.0768205
8	0xbdc56116	-0.09637658
9	0x3dabb3c7	0.08383899
10	0x3d9dbb78	0.077017725
11	0xbaa98a37	-0.0012934868
12	0x3c654793	0.013994115
13	0x3d05373b	0.032523375
14	0x3c670adf	0.014101713
15	0xbebcfb4d	-0.36910477
16	0x3f3369aa	0.70083106
17	0xbc1da0da	-0.0096208695
18	0x3d1e757b	0.038686257
19	0xb4cdebe5	-3.835586e-07
20	0x3d259eaa	0.040434517
21	0xbce8ec48	-0.02843298
22	0x3cd92f00	0.02651167
23	0xbceb763f	-0.028742908
24	0x3a07a0e0	0.00051738136
25	0xbd246755	-0.040137608
26	0x3b865a0e	0.004100091
27	0x3b54247c	0.003237038
28	0x3bc46028	0.005992908
29	0x3dacd595	0.08439175
30	0x3a3929da	0.00070634263
31	0x3c63480e	0.01387216
32	0x3d1aa916	0.03775891
33	0x3bbc6346	0.005749139
34	0xbb678ccc	-0.0035331724
35	0x3a31f94b	0.00067891617
36	0x3d10af1a	0.03532324
37	0x3d376763	0.04477633
38	0x3ce94e64	0.028479762
39	0xbb265d42	-0.0025385176
40	0x3b81ca39	0.0039608744
41	0x3d4c55e8	0.049886614
42	0x3c0f4147	0.008743591
43	0x3c2d75b0	0.010587141
44	0x3d08cb21	0.033396844
45	0xbb86db4f	-0.004115499
46	0x3cc023e9	0.023454623
47	0x3d0ab2ae	0.03386181
48	0x3bbbe0be	0.0057335785
49	0x3e63f3e4	0.22261006
50	0xbadc4e26	-0.0016807958
51	0x3afc98ac	0.0019271574
52	0x3dbc8095	0.092042126
53	0xbd1c6663	-0.03818358
54	0x3cad32ab	0.021142324
55	0xbd726f50	-0.059188187
56	0x3ceea872	0.029133055
57	0x3d0f0c19	0.034923647
58	0xba9eaf34	-0.0012106658
59	0xbb4529c7	-0.0030084716
60	0xbb293f6a	-0.0025825151
61	0x3cb5134a	0.022103924
62	0x3a7fbefa	0.0009755936
63	0x3a4a65c7	0.00077208545
64	0x3a6cef77	0.00090383686
65	0x3c3f49ff	0.011675357
66	0xb7889f45	-1.6286629e-05
67	0x3e0b7fcf	0.13622974
68	0x3d6c19b0	0.057641685
69	0x3d4c1734	0.049826816
70	0x3eab4663	0.33452138
71	0x3d47c768	0.048774153
72	0x3d12a602	0.03580285
73	0x3d0844ea	0.033268847
74	0x3c65ecc1	0.014033497
75	0xb9c57f56	-0.0003766964
76	0xba065985	-0.0005125034
77	0xb9382b6f	-0.00017563788
78	0x3c840ed6	0.016120356
79	0x3bf869c7	0.007580969
80	0x3caad3aa	0.020852882
81	0x3d25716f	0.04039138
82	0x3a711f31	0.00091980683
83	0x3b14ee8c	0.0022725193
84	0x3c35e070	0.011100873
85	0x3db586cc	0.08863601
86	0x38d09452	9.94584e-05
87	0x37dce4b9	2.6332551e-05
88	0xb9996d2e	-0.0002926378
89	0x3e90b130	0.28260183
90	0x3da155ea	0.07877715
91	0xbc3a6edb	-0.011378969
92	0x3a9fb405	0.0012184387
93	0x3c879e2d	0.016554916
94	0x3ba58b34	0.0050519947
95	0x3d0f8684	0.035040393
96	0x3a33ad68	0.00068541477
97	0x3b07760b	0.0020669724
98	0x3bf001a9	0.0073244167
99	0xba252229	-0.0006299341
100	0x3c46a0fd	0.012123344
101	0x3c1d3cc1	0.009597004
102	0x3d8d121b	0.06888219
103	0x3bc0bfcd	0.0058822394
104	0xbba8a69b	-0.005146814
105	0x3c8b49bd	0.017002935
106	0x3d2004d2	0.039067097
107	0xbafa3fd7	-0.0019092512
108	0xbc545a54	-0.012960989
109	0x3d086a84	0.033304706
110	0x3c9eed2a	0.019400198
111	0xbc82da47	-0.015973223
112	0x3d1a3069	0.037643824
113	0x3984f3ce	0.0002535865
114	0x3c96a2f1	0.018388243
115	0x3cb6da02	0.022320751
116	0x3ce574e8	0.028009847
117	0x3c1be59e	0.009515194
118	0x3ce36fdc	0.0277633
119	0x3c98072f	0.018558113
120	0x3c00ae7b	0.007854099
121	0x39d4cab8	0.00040586828
122	0x3d0bb480	0.034107685
123	0x3ecd1b6e	0.4005999
124	0xbb87af2f	-0.0041407566
125	0xbae42bbe	-0.0017408056
126	0xbb09d8a6	-0.0021033674
127	0xba49b4f3	-0.0007694505
128	0xbbaeef66	-0.005338597
129	0x3b80dfef	0.003932945
130	0x3cccf02f	0.025016872
131	0x3d47f3b2	0.04881639
132	0x3cae1a1b	0.021252682
133	0x3b733fb5	0.003711683
134	0x3c27e9fa	0.010248655
135	0xbb228eba	-0.002480431
136	0x3ba86e48	0.0051400997
137	0x3d9e01e0	0.077152014
138	0x3c8cd662	0.01719207
139	0xbe50ce72	-0.20391253
140	0xbac3231b	-0.0014887782
141	0xbb9d571c	-0.004801644
142	0x3ac27666	0.0014836311
143	0x3a5ea6a5	0.000849346
144	0x3b99765c	0.004683299
145	0xbb16178c	-0.0022902219
146	0x3db5269e	0.08845256
147	0x3cfb64f0	0.03068778
148	0x3cea04cd	0.028566742
149	0x3ebc2b89	0.36751965
150	0xbb5fcf0b	-0.0034150507
151	0xba364ceb	-0.00069542107
152	0xbb8f8b32	-0.004380607
153	0x39f3c071	0.00046491952
154	0x3a3426eb	0.00068722543
155	0x3c85e9cb	0.016346833
156	0x3a843e96	0.0010089453
157	0x3ac11607	0.0014731296
158	0x3c808fe9	0.015693622
159	0xbcdf83eb	-0.027284583
160	0x3da56b65	0.080771245
161	0xbb1bc29e	-0.0023767124
162	0x3ea7abc5	0.32748237
163	0x39b40118	0.0003433309
164	0xba9cec50	-0.0011972282
165	0x3b7a8a6e	0.0038229483
166	0xbc292fb6	-0.010326317
167	0xbc0a637b	-0.00844657
168	0xbb6b9b30	-0.0035950653
169	0x3ddf6378	0.10907644
170	0xb8b74547	-8.739024e-05
171	0xbb992061	-0.0046730493
172	0x391de726	0.00015058796
173	0x3c1207a2	0.008912953
174	0x3c3b49be	0.011431156
175	0x3daeb1bb	0.08529993
176	0xbb433f48	-0.0029792357
177	0x3abe01ee	0.0014496425
178	0x394c14db	0.00019462725
179	0x3ca518db	0.020153454
180	0x3d50dd44	0.050992265
181	0xbb79210a	-0.0038014078
182	0xba87d38c	-0.0010362728
183	0x3bff3f99	0.007789564
184	0xbcb49a6e	-0.022046294
185	0x3b6e79bf	0.0036388484
186	0x3ac4c65a	0.0015012727
187	0x3b9ffa45	0.0048821294
188	0xbadfd17e	-0.0017075983
189	0x3adcacea	0.00168362
190	0x3bf01352	0.007326522
191	0x3cd6a25b	0.026200464
192	0x3da51100	0.08059883
193	0x3bc21c41	0.0059237783
194	0x39fed5e0	0.00048606005
195	0x3c3ff87e	0.01171696
196	0xbf052396	-0.52007425
197	0xbb0e05a0	-0.0021670833
198	0xbace4ef5	-0.0015740084
199	0xbad9dd2b	-0.0016621699
200	0xbb4c4d8d	-0.0031174154
201	0x3ea2598a	0.31708938
202	0xbcf5c981	-0.030003311
203	0x3c67079b	0.014100934
204	0xbd78fb11	-0.06078631
205	0x3d54e624	0.05197729
206	0xbbcd13bd	-0.0062584565
207	0x3b68b0cb	0.0035505767
208	0xbb390d49	-0.0028236678
209	0xbb2036a2	-0.0024446626
210	0xb995766c	-0.00028507726
211	0xbbcb9b90	-0.006213613
212	0x3db2a8a2	0.087235704
213	0x3c9d31b2	0.019188736
214	0x39f122d0	0.0004599304
215	0xbb2e68c1	-0.002661273
216	0x3d1e6500	0.03867054
217	0x3c799c76	0.015235057
218	0x3d9e55cf	0.077312104
219	0x3e12eabe	0.1434736
220	0x3af0fde9	0.0018386218
221	0x3dfa2890	0.12214768
222	0x3c970573	0.018435216
223	0x3c1937b2	0.009351658
224	0x3dc62985	0.09675888
225	0xbb0e9cbb	-0.00217609
226	0x3d92975c	0.07157776
227	0x3c3fba8e	0.011702193
228	0x3c1a8032	0.009429978
229	0xbb98a92b	-0.0046588383
230	0x3a7c5d38	0.0009626928
231	0x3df72c67	0.12069016
232	0x3e10f800	0.14157104
233	0x3ba65df2	0.005077117
234	0x3c6ed888	0.014577992
235	0x3ea73e9b	0.32664952
236	0x3d205a7d	0.039148796
237	0x3d98c467	0.07459336
238	0x3ce155d3	0.027506744
239	0xbc079c6b	-0.008277039
240	0x3d4035e0	0.04692638
241	0xbb43c673	-0.0029872924
242	0xbad7f100	-0.0016475022
243	0xbb161013	-0.0022897765
244	0x3c54415a	0.012955034
245	0xbbb2ec66	-0.00546031
246	0xbb75176a	-0.003739799
247	0xbb79a43c	-0.0038092276
248	0x3cc767a6	0.024341416
249	0xba1f3a07	-0.00060740154
250	0x3b23243d	0.0024893426
251	0x3e81d9a0	0.25361347
252	0x3bbfdb66	0.0058550118
253	0x3b78d5fe	0.0037969346
254	0x3a10aa5a	0.00055185484
255	0xbb3af72d	-0.0028528676
