saved_pretrained/pubmed_5.pt (torch, 904063 bytes, 16 tensors)

fc1.0.weight f4 [64, 500]
00000000: 0ebb 91be a8e4 c13e f9aa 183e 6971 0e3e
00000010: 89a8 28be 1d49 3fbc 7ed7 a1be da53 a73d
00000020: 0814 85be 00d6 eabc caa3 a03e 8a9f 1ebf
00000030: fd97 e23e c2fb fcbe 85cc 1ebd 6129 9abe
00000040: 0009 2c40 1fad b03e 8619 843e ca00 243e
00000050: 8b11 8abe e90e 05bc e85b 89be 9d61 50be
00000060: cfe0 39bf 0594 83bf c24c 0b3f cee8 8bbe
00000070: bee9 413e fda6 963e d6cd a6be 602b 393d
00000080: b144 593e b39e edbc 61ac 5e3f 05c2 01bd
00000090: 9586 edbe ebcb e0bd 1fa7 8b3e a777 16be
000000a0: 5fe3 b4be f751 07be e878 4bba af65 69be
000000b0: 921e 4c3f b6e0 f23e 39cc d63a 3220 793d
000000c0: d4f6 4dbe 2a0d 8e3e 4f84 8abd d8cd bfbe
000000d0: 15e7 b53d aa98 3b3d 9212 b63d f662 0abf
000000e0: 7af5 e8bd 029c c9be b407 8f3e ae13 de3c
000000f0: 0774 3b3e b7d6 62be 598b 3c3e 29b8 db3e
00000100: ae43 9c3e fded 6fbe af2d 53bc c5e8 983e
00000110: f24f 133f 2135 cf3e 42aa ddbe 5b11 1bbe
00000120: 59b3 d7be 7233 a7be ed74 06be f714 08be
00000130: 0d6c 9fbe d9c2 e8be d32d af3e 18d9 cb3d
00000140: c1b0 163e ccf4 8c3c e990 d3bd 3158 4bbe
00000150: bffa 9abc 8a80 853d 5e00 04bf a654 0a3f
00000160: d92e 7cbd 98e2 223f 7bec 27be 1fa6 6a3e
00000170: 96fd b9be 8a9b 1d3e 31b1 e8bd aaa9 333d
00000180: 41b4 803c 1f55 da3d b852 a2be 22e7 a53d
00000190: 3944 99bc c4e5 30be e73e 003e cba7 3dbe
000001a0: aa3e 8ebe d9ba 183f 4af2 82be 8d9b 6ebc
000001b0: a019 7abe e5bf a63d fe23 c63e 8725 dc3e
000001c0: e5cf 95be 6db9 6bbe 44df 5cbc 828d 2fbd
000001d0: 9d16 b6be 4d5c 323e 1bdb 473e 5be9 aabe
000001e0: 2827 9c3e 6629 f2bd 9dac 073d be7d 543e
000001f0: dd44 293e 74d9 7ebd 5254 913e 7fab a2be
00000200: 996f 28be 741f 00bd cc34 143d 9ffa fabd
00000210: ce94 013f 5e05 3f3d 665b 06bf cfdd 45bd
00000220: d254 fc3e 8319 0c3f 3b8a 7bbd 657e f7bf
00000230: c693 84bd e43c 483e 82c3 e33d a58a 693e
00000240: 4536 99be e00b a4bc 74fa 573e 93e5 193e
00000250: afbd 07be 98d1 58be ac92 15bf 0453 08bf
00000260: 0971 d5be 28a1 02bf f9fe 50bd c073 7bbe
00000270: 747a a9be c843 53be 3822 76bc 24e3 d5bd
00000280: a974 e63e b02c c2bd a802 0bbf 1242 34bf
00000290: b367 8c3e 8ee1 843d 5a04 503d 2e8c 2b3f
000002a0: a6e5 e2be 8a03 26be 4656 f5be 5745 083f
000002b0: 429c c4bd 2b19 22bd c95b ba3d 8246 bf3d
000002c0: f309 3abf 2f0a c23d ab01 c93e 69ef 603e
000002d0: bf4f cebe 7680 c93e 4f84 d43e 27b5 32be
000002e0: aa70 abbf a96b 15bf c904 393f e148 c03e
000002f0: dd91 93bd 60ab 2dbe 38b5 933e 77c9 abbd
00000300: 64f2 8e3d 205a 96be 41e8 073e 3e98 373e
00000310: 2efe 373e 7d4f 32be 7581 3bbe c05c b23d
00000320: cea3 dbbe b369 3a3f bd94 3a3e 4026 2bbc
00000330: aa26 ffbd 937e 66be 6256 a7be 1720 813e
00000340: 6a4d 06bd a34a f73d 4275 b6bd 8293 f0bd
00000350: add8 d83e 6539 b03d 9d73 b2be 10e8 033f
00000360: 4033 2b3e 5e62 653e 1dcb 44be cb0c e1be
00000370: eaf0 853e 942d 8b3d fdc5 543e 0261 803e
00000380: b9de ac3e 1b2b 203e feda 5c3f 4758 b13e
00000390: 4b22 bfbd 2c3f c03c 1634 33be 2210 37be
000003a0: f984 b5ba fe21 5f3e 0fb2 c33d 1f7d 993e
000003b0: 2dbe b3be b719 873e e3ca 1ebe 1857 843f
000003c0: 0a45 1fbf 2987 013e 5d33 aabd 17f1 003e
000003d0: aaa8 ab3e 73d5 d1b6 45d9 053e 199f 37be
000003e0: 054b 0d3e 968b d5be 252e ef3d c9db 2d3e
000003f0: f158 ce3e 8652 953e 6544 09be 1b22 083d
-0.28463024 0.37869763 0.14908971 0.1391045 -0.16470541 -0.011675146 -0.3160972 0.0817029
-0.25991845 -0.028666496 0.3137496 -0.6196219 0.44256583 -0.49410826 -0.038769264 -0.30109695
2.6880493 0.3450708 0.25800723 0.16015926 -0.2696651 -0.008121231 -0.2682793 -0.20349737
-0.72608656 -1.0279547 0.54414 -0.27326053 0.18936822 0.29424277 -0.32578915 0.04520738
0.2121761 -0.029006338 0.8698178 -0.031679172 -0.4639174 -0.10976394 0.2727594 -0.14694081
-0.3532972 -0.13214861 -0.0007761852 -0.22792695 0.79734147 0.47437066 0.0016387767 0.06082172
-0.20113689 0.27744418 -0.06763517 -0.37461734 0.08881966 0.04579989 0.08890261 -0.5405725
-0.11374946 -0.39376837 0.27935565 0.027108993 0.1830598 -0.2215222 0.18412532 0.4291394
0.30520386 -0.23430629 -0.01288931 0.2986509 0.5754386 0.40470222 -0.4329396 -0.1514334
-0.4212902 -0.32656437 -0.13130541 -0.13289247 -0.31137124 -0.45461157 0.3421465 0.09953517
0.14715864 0.017206572 -0.10330374 -0.19857861 -0.018918393 0.065186575 -0.5156306 0.54035413
-0.061568115 0.63627005 -0.16398804 0.22914933 -0.36326283 0.15391365 -0.113619216 0.043862976
0.015710952 0.10660767 -0.31703734 0.08100726 -0.018709289 -0.17275149 0.12523995 -0.18521039
-0.27782184 0.59660107 -0.25575477 -0.014563453 -0.24423838 0.0814207 0.38699335 0.4299738
-0.29260173 -0.23019953 -0.013480965 -0.04285956 -0.35564128 0.17418022 0.19517176 -0.3338116
0.30498624 -0.118243024 0.0331236 0.20751092 0.16530176 -0.0622191 0.28384644 -0.31771466
-0.16448821 -0.031279996 0.036183164 -0.122548334 0.5061768 0.046635978 -0.5248321 -0.048307236
0.49283463 0.5472643 -0.061411124 -1.9335448 -0.06473498 0.19554478 0.111212745 0.22806795
-0.29924217 -0.020025194 0.21091634 0.15028982 -0.13255952 -0.21173704 -0.5842693 -0.5325167
-0.416878 -0.51027155 -0.05102441 -0.24555874 -0.33101237 -0.20631325 -0.015022807 -0.10443714
0.4501088 -0.0948118 -0.5430093 -0.70413315 0.27422866 0.06488334 0.0507854 0.6701077
-0.44315833 -0.16212288 -0.47917384 0.53230804 -0.09600116 -0.039574783 0.09099538 0.0933962
-0.7267143 0.094745986 0.39259085 0.21966328 -0.40295216 0.3935582 0.41507193 -0.17451917
-1.3393757 -0.583674 0.72272927 0.37555602 -0.072055556 -0.16959906 0.28849196 -0.08388036
0.06979826 -0.29365635 0.13272192 0.1792917 0.17968056 -0.17413135 -0.18311103 0.08709097
-0.4289841 0.72817534 0.18220802 -0.010446131 -0.124585465 -0.22509222 -0.32683092 0.25219795
-0.03278867 0.12074783 -0.08909084 -0.11746885 0.4235281 0.08604697 -0.3485383 0.51525974
0.16718769 0.22400805 -0.19218107 -0.43955073 0.26160365 0.06795803 0.20778652 0.2507401
0.33763674 0.15641443 0.86271656 0.34637663 -0.09332713 0.023467623 -0.17500338 -0.17877248
-0.0013848833 0.2179031 0.09555446 0.29978272 -0.3510603 0.26386806 -0.15507083 1.0339079
-0.6221472 0.12649216 -0.08310578 0.12591968 0.33527118 -6.253534e-06 0.13071163 -0.17931785
0.13798149 -0.41708058 0.11678723 0.16978373 0.40302232 0.29164523 -0.13404997 0.03323565

fc1.0.bias f4 [64]
00000000: 49d4 1abb 3af4 abbb d72f 70bc ae5d a03c
00000010: e671 38bc 8ae1 7f3d 8c72 923d 0760 85bb
00000020: 9c8d dd3c 82d6 633b 258b 56ba 2486 9d3c
00000030: 2f1d 85bb ed52 8f3d 81d1 c4b9 dfa5 c33d
00000040: 8cca af3c 0a9e 503d 2384 d93d 98d2 263d
00000050: 64bd e33b b069 3fb9 b66d dbbb 617d 2a3c
00000060: 1bab 913c 07f4 20bb 1f1c d83d a391 b73c
00000070: dcae f93c 7e6d ba3c a160 db3d 2def aa3c
00000080: 8ad7 9bbb 5c52 f53c c6d7 85bb 2efb a43c
00000090: 5457 b73d 9b53 d83c 13bd dbbb e485 5e3d
000000a0: 1ab2 cf3d 834e d93d 90cb a73b 15fa c83c
000000b0: 011e 42ba 382e 263d 0ea6 f6ba 05a2 c83c
000000c0: 586b b93c 863c a73b f7ad fe3c 140b d0bb
000000d0: d9ee be3c fdda 9a3b 03e4 f33c 3964 b53c
000000e0: 2e72 3a3b 2e78 59bc 68ff 7d3c 646f ccbb
000000f0: 052a b33c d041 023d a75b f1bb 55ea 3a3d
-0.0023625067 -0.00524762 -0.014659843 0.01957592 -0.011257624 0.06247095 0.07150754 -0.0040702852
0.027045064 0.0034765308 -0.00081841863 0.019229002 -0.004062317 0.06998239 -0.00037540126 0.09553122
0.021458887 0.050931968 0.10620906 0.04072818 0.0069500674 -0.00018254551 -0.006696428 0.010405869
0.017781785 -0.0024559514 0.10552239 0.022408312 0.030478887 0.022757288 0.1071179 0.020866001
-0.004755919 0.029946499 -0.00408456 0.020139303 0.089522034 0.026407054 -0.006705889 0.054326907
0.10141392 0.10610678 0.005120702 0.02453331 -0.00074049836 0.04057142 -0.0018817799 0.02449132
0.022634193 0.0051036505 0.031088812 -0.006348977 0.02330725 0.0047258125 0.02977181 0.022142516
0.0028449404 -0.013273282 0.015502788 -0.0062388647 0.021870622 0.031801045 -0.007365662 0.045633633

fc1.1.weight f4 [64, 500]
00000000: b081 2ebe cb2b c737 5fb8 833a b5c5 9b36
00000010: 98c0 97b2 3fdb b1b7 e643 bbb7 2de5 5838
00000020: 1a0d 16bb 8ddc d6b6 7e1f 33b5 f935 adb7
00000030: 9b1a e135 ce50 84b9 f983 7436 40c8 64bd
00000040: 659d d63d ceeb 2d38 6d4d 01b8 3551 8a37
00000050: 0660 e2b5 3d3d 0038 2c32 40b7 2b5e e7b6
00000060: 4ac1 a936 a294 d7b9 9588 8bb7 046e 6bb6
00000070: e6de e6b5 6ff1 703a 4f61 aeb6 3658 4bb6
00000080: a049 08b9 0a80 bcb9 06ce 31b7 c328 06b7
00000090: bd50 f0b6 e581 99b6 ec7d 24ba bf1a 3cb7
000000a0: ebb2 f2b6 d0b2 73b8 b71c 38b7 86b2 3d36
000000b0: 5a15 c9b6 63c8 2eb6 95b8 5a37 213b 90b5
000000c0: 7652 00b6 3de3 603c c7b4 0a36 2a1a a4b5
000000d0: 8e2f 27b8 a787 81bb 4648 fbb7 29be c6b6
000000e0: f045 a937 cfe4 c7b5 9673 5737 a34f 8db7
000000f0: 6655 2cb9 89fa 1b37 ad6f 2d37 8e22 86b7
00000100: 051f 9536 6248 d3b6 c0f6 da36 af76 ef3a
00000110: fa0e b5b7 4f98 54b8 ab4f ce3c 69b7 3bb9
00000120: d5dd ccb7 c0e9 95b6 1955 c937 4f1a b5b5
00000130: 2097 20b7 7b38 7535 4304 a135 9c9d de36
00000140: 59af a537 12c7 1937 82dd 9b35 4d50 7538
00000150: 61c5 49b7 944f 9c3a 4c06 cbb8 cec2 e037
00000160: a12d bcb6 1f13 243d 1a02 9f3a 6cb3 e237
00000170: 68fd 31b7 540f 7236 d17b bbb6 6e74 1b37
00000180: 1238 6fb7 b922 e3b5 8381 c634 d33e 8e34
00000190: 7e82 5bb6 af0c ce37 fb4c a7b7 cbc7 09b7
000001a0: b64e d9b7 3c77 56b6 d97c 0cb8 e854 bfb6
000001b0: 255b 47b6 cabd 2737 ec89 ddb5 8292 a437
000001c0: 7855 57b5 2a33 5934 89cb 8737 252e a936
000001d0: 5a3f fd36 3143 0037 81d9 a537 c0de f137
000001e0: 4509 ff36 f195 cd37 14b5 03b9 fdc9 ac3c
000001f0: 891d dcb5 f41f 3637 74e2 ff36 9660 a8b7
00000200: 0849 d636 403f e136 0c9e 8c36 9db2 00b6
00000210: 2d10 19b8 7db6 23b7 9879 0137 7a78 3b36
00000220: 7438 43b7 ffa4 433a cfa0 42b8 25da f9bc
00000230: 4bad 1637 a071 4db6 08da bbb7 3daa 5337
00000240: b8b8 4b37 30af 1237 d4e5 a838 9e62 48b6
00000250: 163f 57b7 929d 703d 1d72 4736 e82f 0ab6
00000260: 0806 7ab6 f202 2a37 1282 9837 aff6 8d37
00000270: 6501 ca36 62eb b4b6 bccc 62b7 6f2e 2838
00000280: ce05 3eb7 f661 ea36 0d59 223d b275 5937
00000290: beb6 0db7 090b bab6 c613 94b9 507e fab6
000002a0: 79f1 9bb6 e57d 9d3a 83e3 ebb6 a365 18b7
000002b0: 8ecc bb36 0841 9bb5 afd5 5db7 f150 5fb7
000002c0: 4c08 6a36 7b29 f536 4e99 b5b6 3011 5f37
000002d0: a35e 23b7 604a 1f36 c784 42b6 068c 3536
000002e0: f6c7 3836 22c1 b4b7 290a 8836 4e3b b134
000002f0: 31d7 0237 c96a aeb6 f7fb 2bb7 e309 3fb8
00000300: b43b 0c38 5c5a 85b7 a50b eb36 35eb 3ab4
00000310: 4266 82bd cc0d 3db7 d89e 8236 78ed 4037
00000320: 88ab 8bb7 e302 923c f696 eeba 15d7 6236
00000330: b6d0 bbba 5075 a1b8 3e01 11b7 908d afb6
00000340: 9984 e036 f9be e635 eabf 54b6 86a9 3938
00000350: 3985 d738 d9df 83b8 e168 24b7 14d7 1737
00000360: 154e 29b6 1d23 0137 244b 023a 5287 c63a
00000370: c02e 39b6 5d80 283c 98ac 8c37 2893 2fb7
00000380: ead0 b439 a875 21b6 9186 a8b7 564b 45b7
00000390: 5538 0e36 ec79 ebb6 48f5 2d37 8a7c 1a3b
000003a0: 8bf8 343b bc13 5db6 2774 bab9 730a a83b
000003b0: 3c00 0bb7 941c 6838 7be9 f4b5 1f01 1eb8
000003c0: 2732 19b7 b70f 5a36 4119 4b36 5fb3 9137
000003d0: 758f c437 a15c 02b5 01dd d9b6 7450 3ebb
000003e0: e82f 7537 b9de 0137 be8d 12b6 4643 873b
000003f0: 8c25 96b7 5d64 0b38 6adb 7535 3329 8835
-0.1704166 2.3743041e-05 0.0010049454 4.642376e-06 -1.7666295e-08 -2.1202139e-05 -2.2323755e-05 5.171185e-05
-0.0022895993 -6.4033725e-06 -6.6728524e-07 -2.064834e-05 1.677155e-06 -0.00025237206 3.6435652e-06 -0.055855036
0.104792394 4.1466024e-05 -3.0828105e-05 1.6488697e-05 -1.6866259e-06 3.057461e-05 -1.1455773e-05 -6.895299e-06
5.0590943e-06 -0.00041118736 -1.6633692e-05 -3.5081766e-06 -1.7201207e-06 0.000919125 -5.1969323e-06 -3.0300703e-06
-0.00012997398 -0.0003595355 -1.0597991e-05 -7.996513e-06 -7.1619565e-06 -4.574877e-06 -0.00062748673 -1.12119005e-05
-7.232991e-06 -5.8102247e-05 -1.097394e-05 2.826711e-06 -5.9927524e-06 -2.604466e-06 1.3036789e-05 -1.0746045e-06
-1.9121485e-06 0.013726053 2.0668829e-06 -1.2226567e-06 -3.986019e-05 -0.0039529386 -2.9955187e-05 -5.9229974e-06
2.0178937e-05 -1.4893247e-06 1.2841911e-05 -1.6845594e-05 -0.00016435012 9.297052e-06 1.0337605e-05 -1.5990136e-05
4.444157e-06 -6.2967165e-06 6.5256318e-06 0.0018269623 -2.1583855e-05 -5.0686587e-05 0.025184473 -0.00017902035
-2.4421994e-05 -4.467758e-06 2.4000694e-05 -1.3493208e-06 -9.57193e-06 9.13518e-07 1.1996675e-06 6.6344637e-06
1.9751185e-05 9.16586e-06 1.1612867e-06 5.8487338e-05 -1.20264895e-05 0.0011925572 -9.680967e-05 2.6793594e-05
-5.6081485e-06 0.040057298 0.0012131364 2.702485e-05 -1.0609023e-05 3.6069732e-06 -5.5874484e-06 9.265828e-06
-1.4258565e-05 -1.6922924e-06 3.6974606e-07 2.6495272e-07 -3.27095e-06 2.456302e-05 -1.9943798e-05 -8.212354e-06
-2.5905068e-05 -3.1957888e-06 -3.3494875e-05 -5.702128e-06 -2.9706364e-06 9.998164e-06 -1.6505924e-06 1.9618547e-05
-8.0218115e-07 2.0228313e-07 1.6188033e-05 5.0419644e-06 7.5473627e-06 7.645039e-06 1.9770816e-05 2.8833165e-05
7.6006713e-06 2.4507726e-05 -0.0001256059 0.02109241 -1.6399873e-06 1.0855485e-05 7.625955e-06 -2.0072137e-05
6.386199e-06 6.712886e-06 4.190724e-06 -1.9177453e-06 -3.6493107e-05 -9.758046e-06 7.71731e-06 2.7935298e-06
-1.163605e-05 0.0007463246 -4.640297e-05 -0.030499527 8.981045e-06 -3.061352e-06 -2.2393666e-05 1.2616217e-05
1.2142751e-05 8.743067e-06 8.053673e-05 -2.9859725e-06 -1.2829687e-05 0.05874402 2.9719733e-06 -2.0591488e-06
-3.7256414e-06 1.0133475e-05 1.818038e-05 1.692338e-05 6.0202315e-06 -5.39182e-06 -1.3518318e-05 4.0097566e-05
-1.1326234e-05 6.9851476e-06 0.039635707 1.2961611e-05 -8.446803e-06 -5.5445166e-06 -0.00028243492 -7.4652853e-06
-4.647471e-06 0.0012015669 -7.0300316e-06 -9.08357e-06 5.5968476e-06 -1.1567327e-06 -1.3222379e-05 -1.3310681e-05
3.4873547e-06 7.306398e-06 -5.4120674e-06 1.3295838e-05 -9.737591e-06 2.3736138e-06 -2.898554e-06 2.7052606e-06
2.753453e-06 -2.1547607e-05 4.0542986e-06 3.301197e-07 7.798707e-06 -5.1980355e-06 -1.0251059e-05 -4.5547156e-05
3.3434204e-05 -1.5896912e-05 7.0049014e-06 -1.7408168e-07 -0.063671604 -1.126849e-05 3.8927938e-06 1.1499382e-05
-1.6649967e-05 0.017823642 -0.0018202949 3.3801819e-06 -0.0014329168 -7.6989294e-05 -8.642963e-06 -5.2318865e-06
6.6911566e-06 1.7191916e-06 -3.170217e-06 4.4265318e-05 0.000102768136 -6.288262e-05 -9.799581e-06 9.050378e-06
-2.5228412e-06 7.697175e-06 0.0004970303 0.001514653 -2.759436e-06 0.01028451 1.676967e-05 -1.0465075e-05
0.00034487928 -2.4059354e-06 -2.0089823e-05 -1.17596555e-05 2.1192438e-06 -7.0177393e-06 1.03687125e-05 0.0023572766
0.0027613963 -3.2943053e-06 -0.00035563225 0.005128199 -8.2851e-06 5.5339726e-05 -1.8247368e-06 -3.767118e-05
-9.131188e-06 3.2493679e-06 3.0264057e-06 1.7368873e-05 2.3431823e-05 -4.8563567e-07 -6.492832e-06 -0.0029039653
1.4614292e-05 7.740856e-06 -2.18382e-06 0.0041278927 -1.7898878e-05 3.3233653e-05 9.15889e-07 1.014478e-06

fc1.1.bias f4 [64]
00000000: 9b62 8c3e 3553 a7bf 4013 593d 4ac8 823e
00000010: 3b61 6fbf f48a 823e 9ab0 ee3e 0013 523e
00000020: cab1 843e 3436 513e 1923 93bf f915 b0be
00000030: b0f7 a3bf 87b5 0b3f 1645 5e3e 7cb4 003f
00000040: fa0c af3e 43f2 123f c6c5 e13e a353 183e
00000050: 62ec b9be 0e47 55bf 3cb4 afbf 753d af3e
00000060: 35d6 b1bf 6a38 88bf 2c91 f03e 053c a53e
00000070: 3d01 b43d fb29 203e 4527 143f 2d15 7a3e
00000080: e9a3 87bf 1cfe b73e ff96 633e c79f 843e
00000090: 68ee e03e ddc9 853e ce5d eebe 3677 6e3e
000000a0: 993d 1d3f 2d6a ec3e 4683 133d 22c1 be3d
000000b0: 7f09 ab3e 133c de3e 957f b73e a623 ca3d
000000c0: 4887 c13d e47e a63e b138 7abf 497b 53be
000000d0: 89f6 1d3e 7c78 b6bf 8e3e 1f3e 7f45 4fbe
000000e0: d3df 76bf 67f7 2fbe aef7 573e f647 4b3e
000000f0: eb7e f83d bbdc 89bf d937 5e3e 4051 ac3d
0.2741898 -1.3072268 0.052996874 0.25543433 -0.93507737 0.25496638 0.4661911 0.2051506
0.25916892 0.20430833 -1.1495086 -0.34391764 -1.2809963 0.54573864 0.21706042 0.502754
0.34189588 0.5740091 0.44096202 0.14875655 -0.36313158 -0.83311546 -1.3726878 0.34226575
-1.3893496 -1.0642216 0.46985757 0.32272354 0.08789299 0.15641014 0.5787242 0.2442214
-1.0596896 0.35936058 0.22225569 0.2590315 0.4393189 0.26130572 -0.46555942 0.23287663
0.61422116 0.46174756 0.036013864 0.09314181 0.33405682 0.43405208 0.35839525 0.09870081
0.09449631 0.32518685 -0.97742754 -0.20652498 0.15426077 -1.4255519 0.15551206 -0.20241354
-0.9643528 -0.1718422 0.21090576 0.1985167 0.12133583 -1.0770487 0.21700992 0.08413935

fc1.2.weight f4 [64, 500]
00000000: 0c21 49bf 34bc 203d 12a7 843c 5f98 07bd
00000010: d365 22bb 6ba7 b9bd 423d 29bc cfb5 323d
00000020: 588f 34be a2ff 383d 2ea9 993d 010c 5cbd
00000030: 8a60 043d b6f1 87bd 61f1 28bc 9072 00bf
00000040: 68b3 f03f aa36 a63c 4ad1 68bd 62d9 fdbb
00000050: 0b55 ae3b edc8 b8bd a19c 3abd bcf5 9abd
00000060: cd3f b0bb 2429 7cbe 31d6 ae3d 35ac 1b3c
00000070: aa9d 68bc eb9e 203e c4fe 5c3d 7bdb 013d
00000080: 5f6c 64bd ec75 84bd 96b6 953b ac47 efbc
00000090: e48f b6bc bd67 19bc 553d 5ebd 3d04 c0bb
000000a0: f290 28bc 29fb 4ebc e88c cfbc 0f5e 18bd
000000b0: 2e2d 853d af49 d63b 455a a83c ac8c 7c3d
000000c0: 424e 4abd ef3d 0e3e 9256 8d3b 3fa1 0e3c
000000d0: 64c6 c03d baef 8dbe 0d4a a4bc 78fe 65be
000000e0: 314b ec3b 88a7 a73b 531e 733d b289 a9bd
000000f0: 259c 50bc 18ce 42bd db19 33be 000f 6dbc
00000100: 21de dbbb b0b1 32bc ca50 6cbb 311c 493e
00000110: c5de be3d 2644 b83e 5305 803e 2ca2 5ebd
00000120: 13dd a1bd 99f1 583d e729 54bd 9f41 3bbb
00000130: e37f 9fbc e2fc 76bc b46e e23c 80da e03c
00000140: 7818 b3bb 6324 0f3d 9dc0 a1bc 04fa f5bd
00000150: a37c a6bc be9b 9a3e feb5 64be b87c 753d
00000160: 8e28 2f3b 1bb4 bf3e c8f6 153e 79de 50bd
00000170: 8881 1cbd 62da f4ba c267 32bc e640 dbba
00000180: 5a0d af3c 1ea5 dbbb 0838 80bc 084b b3b9
00000190: 410c a5bc 326d e33d 3d20 283e bc71 203c
000001a0: 1cb4 60bd ae8d 3f3c 4551 f3bb 2e48 513b
000001b0: c078 b9bd c575 723d 657f 4b3d 1889 3ebd
000001c0: dc25 cfbd f58f 07ba c1c8 0dbd c6fe 94bc
000001d0: 527d fe3b 09c6 3f3b 280c 903d 22bf 42bd
000001e0: 21e3 923c 2b88 a0bd 5049 9fbd e183 fe3e
000001f0: 7d8a 4a3a 60cb 593c b543 a83c 3af4 21bd
00000200: e13c 5ebb 267b 8f3c c6c4 66bc d405 b6bc
00000210: bbbf a73d 0689 c0b9 6a06 0dbb 5a25 5fba
00000220: 37e7 9e3c 4bdb 1b3e f1cf 9cbd 737c a2bf
00000230: 0205 b639 2e4c dcbc 825e f43b 00ea a63c
00000240: 8abd 683d e111 97bb d575 9c3d 4aa2 4f3d
00000250: 3c92 ac3d a6fa 723d f79b 1e3a d843 06bc
00000260: f000 523c a02c 13bc 9de0 6fbc 8427 3bbd
00000270: 3b6d 49bc dd9a 91bc f466 663c c04f 56bd
00000280: f067 6c3e bf07 3b3d 7daf b83d 16a6 5bbc
00000290: 7308 27bd 5f61 68ba e417 0fbe 598d 4a3d
000002a0: 6442 15bd 29dd b03d 8ebd 14bb da61 4e3d
000002b0: a831 10bb ff76 d8ba e4cd 65bc 86fd 243e
000002c0: 6173 433b 8194 fbbb c9c1 963c 199f c83c
000002d0: 7216 98bc 3f24 b13a 2c72 b03b f221 11bc
000002e0: 93cf 5bbd 3ee4 2abd 94a1 073b 124e 133d
000002f0: 26e5 60bb d887 ce3c ab61 553d 5ce3 d73b
00000300: c1c0 a73d 9156 d2bc 88c5 baba 3a7b 61bb
00000310: 957e 7ebe 78ab 17ba 2026 a33b 7107 97bb
00000320: 12ba fabb 511d bd3e 0d78 93bd e1ed 66bb
00000330: c199 a9bd 4f4d 8b3c fee5 5c3d a21b 16bb
00000340: c92f 0ebb 934a 43b9 4006 093c c7d1 c23d
00000350: d57e 693e 960f 953d c21a b9bb 3d4b 453b
00000360: 7586 073d 2563 153e 7541 0a3e dd66 3e3e
00000370: 2b0b e4ba 9ce9 183e 09dc cdbb 3e3c 513a
00000380: 0731 1b3e b4e0 963b d0e8 143e 6ba9 1bbc
00000390: 6313 283d 6f06 c53b 7823 503c faae 843e
000003a0: 01a2 d23d 9d9c 9abb 6d49 04be ba07 103f
000003b0: cf4a 6a3c ba9f 393e 48ff 633c 926e 0e3e
000003c0: 756c 593b 4ffd f639 3fbe 283a dd3f 783d
000003d0: e806 073e e36e 1d3c 9df5 9e3c 98ce 0ebe
000003e0: 4756 8e3d 18a1 ac3b 0540 703b eae2 bf3e
000003f0: 8a02 b7bc 245f 4d3e 2460 8fbc 29a9 e4ba
-0.7856605 0.039241984 0.016192947 -0.033104297 -0.002477993 -0.090651356 -0.010329546 0.043630417
-0.17632806 0.045165665 0.075029716 -0.053722385 0.03231863 -0.066378996 -0.0103114555 -0.5017481
1.880475 0.020289738 -0.05684022 -0.0077468613 0.0053201965 -0.090226986 -0.04555953 -0.07566401
-0.0053786994 -0.24625069 0.085369475 0.009501507 -0.014197746 0.15685622 0.0539539 0.031703454
-0.055767413 -0.06467804 0.004568885 -0.02920898 -0.02228541 -0.009363112 -0.05425771 -0.0058598802
-0.010288464 -0.012633123 -0.025335744 -0.037199076 0.06502758 0.0065395455 0.020550856 0.061657593
-0.04939104 0.13890813 0.0043132985 0.008705436 0.0941284 -0.2772196 -0.020054841 -0.22460353
0.007211112 0.005116407 0.05935509 -0.082782164 -0.01273254 -0.047559828 -0.17490332 -0.014468908
-0.0067098294 -0.010906622 -0.0036058896 0.1963966 0.09319834 0.35989493 0.25004062 -0.054353878
-0.07903495 0.05296478 -0.051797774 -0.0028573049 -0.01947016 -0.01507494 0.027640678 0.027447939
-0.0054655634 0.03494681 -0.019745165 -0.12010577 -0.020323103 0.30196947 -0.2233505 0.059933394
0.0026727053 0.37442097 0.14644921 -0.050993416 -0.038209468 -0.0018680806 -0.010888996 -0.0016727715
0.021368671 -0.006703033 -0.015651718 -0.00034197443 -0.020147445 0.11104812 0.16418548 0.009792741
-0.054859266 0.011691494 -0.0074254596 0.0031933892 -0.09056234 0.059194345 0.04968204 -0.04651746
-0.10114643 -0.00051712926 -0.034615282 -0.018187892 0.007766404 0.0029262325 0.070335686 -0.04754556
0.01793057 -0.07838472 -0.07777655 0.4970999 0.0007726325 0.013293117 0.020540098 -0.039539553
-0.0033910798 0.017514776 -0.014085 -0.022219576 0.081908666 -0.00036723184 -0.0021518716 -0.0008512341
0.019397361 0.15220372 -0.07656849 -1.2694229 0.00034717476 -0.026891794 0.0074575553 0.020375252
0.056821384 -0.0046102856 0.07639662 0.05069188 0.084263295 0.05932107 0.0006050462 -0.008194886
0.012817606 -0.008982807 -0.014640954 -0.045691982 -0.012294109 -0.01777404 0.014062632 -0.05232215
0.23086524 0.045661684 0.09017847 -0.013406297 -0.040779542 -0.0008864607 -0.13973957 0.049451206
-0.03644027 0.08635933 -0.0022695991 0.050386287 -0.0022002254 -0.0016514956 -0.014026139 0.16112337
0.002982341 -0.007677615 0.01840295 0.024489926 -0.01856539 0.001351483 0.005384704 -0.008858191
-0.053664755 -0.041721575 0.0020695673 0.035963126 -0.003431627 0.02521126 0.052095097 0.0065883826
0.08191062 -0.025676044 -0.0014249543 -0.0034405724 -0.24852975 -0.00057857437 0.00497891 -0.0046090414
-0.007651576 0.3693643 -0.07200632 -0.0035237002 -0.08281279 0.017004637 0.053930275 -0.0022904654
-0.0021695963 -0.0001862443 0.0083633065 0.09512668 0.22802289 0.072783634 -0.0056489417 0.003010466
0.033087213 0.14588602 0.13501532 0.18593927 -0.0017398348 0.14932865 -0.0062823338 0.0007981694
0.15155421 0.0046044234 0.14541936 -0.009500842 0.041034114 0.00601273 0.012703769 0.25914747
0.10284806 -0.004718377 -0.12918635 0.5626179 0.014300062 0.18127337 0.013915844 0.13909367
0.0033176218 0.00047109506 0.000643704 0.06060778 0.13186228 0.009608957 0.019404227 -0.13945997
0.0695005 0.0052682273 0.0036659252 0.3747781 -0.022340078 0.20055825 -0.017501898 -0.0017445433

fc1.2.bias f4 [64]
00000000: 8dc7 8c3d b356 64bc ed5a 8f3d 352d a23d
00000010: 6af9 d0bf cc38 9ebe ac53 f33d 36a7 6d3d
00000020: 7be8 eb3d 267a f0bd 1ec8 a8be 8eb8 a93e
00000030: 9ded 323d 0305 c13d a6ab d03c ecbc 083e
00000040: a028 fe3d 1489 d63d 7f73 d83d 29e0 58be
00000050: fc81 e6bc 586f a93c 89f4 63bd 7598 7f3b
00000060: 4a73 77bf fd2e 9cbe 8ab9 033e 4fda 093e
00000070: 3875 a2be b22f 72be 5998 193e d013 9d3d
00000080: 85cc 41bf 7b16 0fbd 4574 bf3d 7063 3e3d
00000090: 11b2 da3d e4c4 b03e 113c 54bf d337 acbe
000000a0: 6039 253e 5555 193e 4540 08bd 0485 c43c
000000b0: 66c0 f1b8 598d 1ebf 7f2c b53c 6ef4 1a3d
000000c0: 72a1 67be 2361 c13e 916b e53e f036 9ebe
000000d0: 39d2 39be 7644 1abd 8ca4 62be 6a42 cdbd
000000e0: 84a1 a23f 0dda f23c 700c aabc 8d1a 1b3e
000000f0: b52f a6be 1709 493e 782c a0bd 27d2 4f3d
0.06873999 -0.013936686 0.069997646 0.07918779 -1.6326115 -0.30902708 0.118811935 0.058020793
0.115189515 -0.11742048 -0.32965177 0.33148617 0.043683637 0.09424784 0.025472473 0.13353318
0.12410092 0.10475364 0.10568904 -0.2117926 -0.028138153 0.020682976 -0.05565313 0.0039000784
-0.9666029 -0.305046 0.12863746 0.13462184 -0.31730056 -0.23651007 0.14999522 0.076697946
-0.757027 -0.03493355 0.093483485 0.04648155 0.10678495 0.34525216 -0.82904154 -0.3363634
0.16135168 0.14973958 -0.033264417 0.023989208 -0.000115276125 -0.6193443 0.022115944 0.037830763
-0.2262018 0.37769422 0.4480863 -0.3090129 -0.181466 -0.037662946 -0.22133082 -0.10022433
1.2705541 0.02964499 -0.020757884 0.15146847 -0.32458273 0.19632374 -0.07820982 0.050737526

fc1.3.weight f4 [64, 500]
00000000: a8f9 45bf 7e88 123d 7154 e03d 2e96 f83c
00000010: 5a03 1e3b 686b f3bc 9cab c037 edf7 003e
00000020: 0477 89bd 6b24 fd3d 0a74 693e 70c7 843c
00000030: 0837 103d 7458 813d a441 f53c bbb0 16be
00000040: 12ed b53f 03f9 863c 8d1b 603d 5603 663a
00000050: 5d13 943d 5f87 25bc 605c 4c3d fab2 05bd
00000060: 89a3 6e39 f1fb b7bd a986 b53d 99cd 143d
00000070: 65f5 323d 65e4 0b3e 60b6 3b3d dd22 9b3d
00000080: f13f 0ebd f7a1 54ba cc53 213c 798b cf3a
00000090: 37c8 533d 8614 9c3d 8909 fe3d f178 1a39
000000a0: 8d02 8a3c 430e b93d 768d de3b 6f22 543c
000000b0: 3cf0 a63d a237 253b 4bc4 153d f163 2f3d
000000c0: bf15 0e3c 2213 a83e 5eec b83b 47d2 2c3d
000000d0: 59a4 db3d a1b7 dcbd 82c9 af3d 80da 7cbd
000000e0: b62b 373d dd2d 613d 1022 ad3d a65c 943b
000000f0: 845d 993d cd77 323d 4f63 2f3d 9aab 353a
00000100: 5337 ad3a 7489 223d 2863 e23a 751b 583e
00000110: ca0c 9f3d 59ca be3e bfb2 fa3e 933c 8b3d
00000120: 0188 1f3d a562 d13d ad7d bf3c 01ce 273a
00000130: 9dd7 653b 807f b93a c1f0 2b3d bb92 0c3d
00000140: 213e ee3c 62ea 823d 0ef1 bd3a a712 b5bc
00000150: 8755 2e3c 1dbb 793e 494c 8cbd 90fd 273d
00000160: 3282 803c 2901 e93e a97d 8e3d 9be1 07bc
00000170: 89d1 a63b 3081 913c 4875 233c 02f6 fb3d
00000180: 1265 eb3c 309b 2e3c e0ba 973c 7c1d 243c
00000190: 409e ce3c be55 a13d 3f06 243e 61bc 533c
000001a0: 641d 5e3b 7da7 0e3d 38ef 8b3d c577 2c3c
000001b0: b268 fabc 9c17 8b3d 7e72 db3d ca2c abbb
000001c0: 5bce 353d 548c 333b 10bb ee3b 9169 d93c
000001d0: 614b 293d 2f8d 0f3d 9525 de3d f2e4 0d3d
000001e0: 6537 5a3d c861 1d3d ba20 c03d a2ba 413f
000001f0: 57c3 9c3b 48cf e73c 0a7a 373d 643e deb9
00000200: 4944 053c 3149 033d 3c7a a83d 0b20 833d
00000210: e122 703d 520e 2f3d a38a 223d 31a5 db3a
00000220: 40ae d13c f77d d33d 67da d13d 184f f8be
00000230: 9fbd ad3b 7a45 e3ba ece0 363c 8d7a f33c
00000240: 4c19 363d 9e4b 573b eaef 1f3e 17bb f53d
00000250: 47b7 013e 95cc 013f a109 703b cbfc 933b
00000260: 5139 763c c1cb ce3a bac0 cc3b f184 0e3d
00000270: 95fa a03b 93ae ec3b 53ae 193d 1fee 54bd
00000280: da6b 403e f0c5 7a3d 1039 d43e 1e28 363c
00000290: c370 163c 9bda 933c 12c0 b3bc d3b5 6c3d
000002a0: 983a db3c 58b3 f23d b445 7439 a208 f93c
000002b0: 9f74 023a 82f8 9d3c ad11 943c a090 713e
000002c0: 0645 dd3b 9f64 5a3a d330 ae3c dad8 173d
000002d0: dd42 b93d 4337 233b f967 4f3c 31bd 093c
000002e0: 9da4 acbc e8ce 383c d4c0 963c e077 143d
000002f0: b585 7d3c 4b92 883d 02a9 be3d 0fce 953d
00000300: d98f dc3d d34f 503b 04c5 3439 b589 873c
00000310: d56d 2bbe 2a17 253b 1d20 e63b 0288 9d3b
00000320: 35cc abb8 ccc1 d03e 9e84 b63d 0e3e 3e3d
00000330: c363 a3bb fc87 663d 2c04 913d 3ac3 733c
00000340: e233 513b de32 393b 5f36 9a3c 9d0e 2c3d
00000350: 6db3 c23e 1938 bc3d 1b9b a03a 937d c53b
00000360: f74d 663d 2b03 033e 6887 133e 5aac 503e
00000370: 0f37 5f3b abfe 583e 1410 443d d846 b93c
00000380: 162a 5a3e 4cb7 683c 59d1 583e 60f7 173d
00000390: 3d30 6c3d f2c2 1e3c 6e20 303c 2393 933e
000003a0: 0709 113e ec57 263a 4cd2 9fbc a0bf 2f3f
000003b0: a761 9e3d 7870 603e 7f8c de3c c8d5 0f3e
000003c0: 65ec b93d 9277 ba3b a1e6 a33a ca39 873d
000003d0: 5c09 243e 644e 183c 24f9 253d 1cac 72bd
000003e0: 787b 0e3e 67d5 363c 5481 0d3c ba64 093f
000003f0: 53d4 c33c b72b 003e 789f dc3b 4b06 3e3c
-0.7733407 0.0357747 0.10953606 0.030345049 0.0024110884 -0.029714301 2.2968095e-05 0.12594576
-0.067121536 0.12360462 0.22798172 0.01620838 0.035208732 0.06315699 0.029938526 -0.14715855
1.4212973 0.01647616 0.054713774 0.0008774301 0.07230256 -0.010103076 0.049892783 -0.03264139
0.0002275837 -0.08983601 0.08863575 0.036328886 0.043691058 0.13661344 0.045828223 0.07575009
-0.034728948 -0.0008111293 0.009846639 0.0015834413 0.05170461 0.07621102 0.124041624 0.00014731639
0.01684692 0.09035923 0.006791766 0.012947663 0.0815129 0.0025210162 0.036564153 0.04281992
0.008672177 0.32827097 0.0056434115 0.042192724 0.10724706 -0.10777212 0.085833564 -0.061731815
0.04471942 0.05497538 0.084537625 0.004527646 0.0748854 0.043571282 0.042819317 0.00069301727
0.001321534 0.039681867 0.0017271983 0.21104224 0.07766111 0.37263754 0.48964497 0.06798663
0.038948063 0.10223893 0.023375357 0.00064012414 0.0035071142 0.0014152378 0.041977648 0.03431962
0.02908236 0.06392361 0.0014491396 -0.02210362 0.0106405085 0.24387784 -0.06850488 0.0410133
0.015687082 0.45508698 0.069575615 -0.008293535 0.0050908965 0.017761797 0.0099766925 0.12302782
0.028734718 0.010657117 0.018521726 0.010016795 0.025221944 0.07877682 0.16018008 0.012923331
0.003389203 0.034827698 0.06832737 0.010526602 -0.0305675 0.067916125 0.10715197 -0.005223845
0.04438625 0.0027396875 0.007285483 0.026539596 0.041331653 0.035046753 0.10847012 0.034642167
0.053275485 0.03842333 0.09381242 0.75675404 0.0047840285 0.028297082 0.04479412 -0.00042389624
0.008133956 0.032052223 0.08226439 0.06402596 0.058627013 0.042738266 0.039682996 0.0016757605
0.025595784 0.1032676 0.10246735 -0.48497844 0.0053021456 -0.0017339431 0.011162024 0.029721523
0.04445772 0.0032851468 0.15618864 0.11998575 0.12667571 0.5070279 0.0036626833 0.0045162193
0.015028314 0.0015777276 0.0062485607 0.03479475 0.004912684 0.0072229593 0.037519764 -0.051984902
0.18791142 0.061223924 0.41449785 0.011117963 0.009182158 0.018048575 -0.021942172 0.05779059
0.026761338 0.11850613 0.0002329562 0.030399624 0.00049764843 0.019283537 0.018074835 0.23590326
0.006752613 0.0008331034 0.021263516 0.03707204 0.09045956 0.0024904765 0.012659066 0.008406923
-0.021074587 0.011279799 0.018402494 0.036247134 0.015473773 0.06668528 0.093095794 0.07314693
0.10769624 0.003178586 0.00017239532 0.016545156 -0.16741116 0.0025190809 0.007022871 0.004807473
-8.191952e-05 0.40772855 0.089120135 0.0464459 -0.0049862578 0.05628203 0.07080874 0.014878089
0.0031921794 0.002825908 0.018824754 0.042006124 0.38027516 0.09190387 0.0012253256 0.0060269325
0.056226697 0.12794177 0.14407122 0.20378247 0.0034059917 0.21190898 0.047866896 0.022616789
0.21305117 0.014203858 0.2117361 0.03710115 0.05766319 0.009690033 0.010749919 0.28823194
0.141636 0.0006345499 -0.019509457 0.6865177 0.077334695 0.21917903 0.027166603 0.14046395
0.09078292 0.0056905234 0.0012504646 0.06602819 0.16019195 0.0092960335 0.040520802 -0.059246168
0.13914287 0.0111592775 0.008636791 0.5366932 0.023904955 0.12516676 0.0067328773 0.01159818

fc1.3.bias f4 [64]
00000000: 1c47 b63e 3375 fb3d 873e 6fbe fadb bd3e
00000010: 940d 32be 68bc cd3c 5383 dc3e 7190 b0bd
00000020: e16f b83e 8a96 6abe 75f8 ad3e 2016 31be
00000030: 19ab 22bc c4b8 c93e b365 263e 55a7 eb3e
00000040: 6c56 b03e 1634 743e 464d d23e 68e7 d9bd
00000050: f510 2abc 244d 87bd 5487 9bbc caf2 ae3e
00000060: 3da0 a93d ffa4 39be 116a df3e a0d5 9e3d
00000070: f5f4 53bd 1876 9fbd a8a1 d03d 437f ab3e
00000080: 3fba 50bb afa9 80bd 1aeb 24be 431f b23e
00000090: af2c af3e b051 08be 25b4 833e 8b48 8e3c
000000a0: afc5 ac3e 5be2 ab3e 793f d13a 6045 fa3b
000000b0: fb24 e53e 34f7 67bd 1328 74bb e7bf 153d
000000c0: 6f21 acbd 44e0 29be d10d d8be f515 ff3c
000000d0: 4ff4 cabd 5808 81bb 8acf c9bd 27a8 8e3c
000000e0: 169c efbe 8840 48bc ed1d 353e 0a4d 61be
000000f0: e123 6dbd 6e95 83bd 4911 54be ee88 05be
0.35601127 0.12278213 -0.23363696 0.3708189 -0.17387992 0.025114253 0.43068942 -0.086213
0.36022857 -0.22908989 0.3397862 -0.17293596 -0.009928488 0.39398777 0.16249733 0.46026102
0.34440935 0.23847994 0.4107458 -0.1063984 -0.010380019 -0.0660651 -0.018985428 0.34169608
0.08282516 -0.18129347 0.4363561 0.077555895 -0.05174728 -0.077861965 0.101870835 0.3349553
-0.0031849293 -0.062823646 -0.16105309 0.34789476 0.34213778 -0.13312411 0.25723377 0.017368576
0.3374457 0.33571133 0.0015964351 0.0076376647 0.44754776 -0.056632236 -0.0037255331 0.036559965
-0.084048145 -0.16589457 -0.4219804 0.0311384 -0.099098794 -0.003937762 -0.09854038 0.017414166
-0.46798772 -0.012222417 0.17687197 -0.22002044 -0.057895545 -0.06424986 -0.20709719 -0.13040516

fc1.4.weight f4 [64, 500]
00000000: ed85 5abe e179 0cbe a679 733d 4ac2 1dbf
00000010: 26e1 06bf 0610 babd 6172 78bf 154c b23e
00000020: c258 283e 33a7 4d3f 91c8 53be 5cc0 d0be
00000030: 6b88 2c3f b461 bfbe d3a4 6dbe 2fc7 f5be
00000040: 0554 1340 2a85 573d 961f 24be a0f1 b5be
00000050: 5c82 2a3e 3dee 1bbf be71 14bf a8f6 8bbe
00000060: 2c87 4c3c 53ce 44bf ee88 83be 6241 ad3e
00000070: ee33 aabe e9ee e33d e5dc 393e df2c ca3d
00000080: 50a5 553d f923 d8bd c319 043e 3a0c 35bf
00000090: 0e1a 3a3e 857d a93e b281 e73c fb67 9fbe
000000a0: 49e0 053f 859e 6ebe e3f1 edbe 11f9 61be
000000b0: a2e1 8d3e 5c79 71bd ccdd 333e 97b2 4cbd
000000c0: d932 f43c 9a35 e83d fb3a b33e 7aa1 c53e
000000d0: 476f 473e 5cf5 a0be 4ad9 963e 8a6a 7ebe
000000e0: 403d 26be 3dec 2bbf 6d27 5b3f 7403 1bbf
000000f0: 2049 4e3e 4156 8ebe e4f7 2bbf 2d4b 4fbe
00000100: 8e19 933e 780a 9cbe aad5 82be 0157 303e
00000110: 6d62 8a3e 9be9 9f3f 0f69 133d 40e4 953d
00000120: 85c9 14be 8b40 233f 7cc5 51bd e400 e2be
00000130: b1d1 05bf 82f2 d5be 0db2 8fbe 604d 2d3e
00000140: 654b a83d b51c a33e 2d85 24bf bebf 29bf
00000150: 682d 713d 82a9 d23e 25b7 24bf 4e3d 973e
00000160: 4c32 823d 325b 4bbe 229b 9a3e 158a bcbe
00000170: 84db 4ebe 8142 21be 3fe7 89bc da0d e33e
00000180: 9039 c33e 66ca aabe f298 e53e 4272 48bd
00000190: c724 9dbd ab5b 6a3e 8e48 983c ff77 43be
000001a0: f6d1 763e 1ec4 79bd c29d 31bf f67c 813e
000001b0: 8a79 edbe 8503 8e3d 5b15 f03e 327f cabd
000001c0: 4b34 09bf ae65 043f 7dd8 d1bd 149c f3be
000001d0: eafe be3e 2a80 6d3e ea65 343f 25b0 363d
000001e0: 7ef1 da3c 2d49 8abe 6839 67bd 9028 e13e
000001f0: da8f 603c 3b4f c7bd ad81 333e 4a58 02bf
00000200: 2b0a 36be c471 e53c 6a92 293e 2d88 debe
00000210: 690e 90be 66cd 243e d49a 10be deb4 403e
00000220: 8a09 5c3e a0d0 793e f848 00bf c034 09c0
00000230: 35bf b23e e778 13bf 7c93 b13e 465f 18be
00000240: 2ce1 ccbd c6ce 45be d653 80be bab2 2cbd
00000250: 4bff 123f fc57 833d eeea bc3e ca5d 5ebe
00000260: cf8d e63d 6a2b 28bf 1287 9fbe e777 b03d
00000270: 8f3a 52bd 1843 0abf 9354 8fbe 5154 2e3e
00000280: c8d1 ed3c 58d4 2bbe 8fe2 63be 2b61 6ebe
00000290: aae9 e53c 52c1 46bd 9f84 28be 38be 2c3f
000002a0: cf24 70be eb7f 5e3d eff7 a3be 6fe9 633e
000002b0: 22da b1be fb3d a4be efeb 7c3e cd52 fa3d
000002c0: fbf6 d9be b205 b4be 0283 f13d 1c2f 713d
000002d0: 8eb5 88bd 6cec 0e3f bfc1 1d3f 3e64 8c3e
000002e0: 6b38 0cbf 438a 90be 9766 463e ea14 7dbc
000002f0: fb0e b53d c0ac ae3e c9b9 623e 45a8 013e
00000300: 861e a53e eb72 123e 8291 1e3f dcc0 823e
00000310: 886e 363e 9981 b8be 38a8 2db9 bbc4 22bf
00000320: a1b9 13bf 839e 223f 76ff 5b3e f48d a8be
00000330: 653e b3bd b4fd b7be 80e6 d93e 850f d2be
00000340: 327f 48bd a296 363e 4919 b13e f912 203f
00000350: 5f1a bd3e 5c4f 393f 52c8 393e 8ea9 bf3e
00000360: 9a03 0e3d 12eb ea3e 68b2 3f3e 0210 483e
00000370: 743d d33d af25 593e f483 91bd c937 d8bd
00000380: 64f7 3bbe d0e6 1a3f fe8a 9a3e 8300 b83e
00000390: 5d74 833e 3039 973d 4a46 edbd d4b0 3d3e
000003a0: 40c8 893d 261d 003e 5b7b bd3d c297 9b3e
000003b0: e0c8 a63e b1fd 0e3f e8f8 2ebe bc64 913f
000003c0: c2c3 803b a137 d13b 4aea 1e3d 39d0 053f
000003d0: a717 a93e 9072 bf3e bae9 873e 1781 02be
000003e0: 09a2 603e 3777 3a3e c587 27be f0e8 213f
000003f0: fe0a e2bd bb68 5c3f 4c22 20bf e696 a6be
-0.21340151 -0.13718368 0.059442185 -0.61624587 -0.526873 -0.090850875 -0.9704953 0.3482367
0.16440108 0.8033325 -0.20681979 -0.4077176 0.6739566 -0.3737923 -0.23207407 -0.48003528
2.3020031 0.05261723 -0.16027674 -0.35535908 0.1665129 -0.609104 -0.57986057 -0.2733662
0.012483399 -0.76877326 -0.25690407 0.33838946 -0.33242744 0.11129553 0.18150671 0.0987184
0.052159607 -0.10553736 0.12900452 -0.7072178 0.18174002 0.33103576 0.028260086 -0.31134018
0.52295357 -0.23302658 -0.46473607 -0.22067668 0.27711207 -0.058953628 0.17565078 -0.049975004
0.029809402 0.11338349 0.35005936 0.3859976 0.19476043 -0.31437194 0.29462653 -0.24845329
-0.16234303 -0.67157346 0.85607034 -0.60552144 0.20145082 -0.27800182 -0.67175126 -0.20243521
0.28730434 -0.30476737 -0.25553638 0.1722069 0.27028218 1.2493166 0.035988864 0.07318926
-0.14529999 0.6377036 -0.051213726 -0.44141304 -0.5227309 -0.4178658 -0.2806553 0.16924047
0.08217505 0.3185784 -0.6426571 -0.663082 0.058881193 0.4114495 -0.64341956 0.2953896
0.063572496 -0.19859007 0.30196482 -0.36824098 -0.20200926 -0.15748025 -0.0168339 0.44346505
0.38129854 -0.33357543 0.4484325 -0.04893709 -0.0767303 0.22886531 0.018589284 -0.19088744
0.24103531 -0.060978048 -0.69381344 0.2529065 -0.4638179 0.06934265 0.46891293 -0.09887542
-0.5359542 0.5171765 -0.1024637 -0.47580016 0.3730386 0.23193422 0.7046801 0.04460158
0.02672648 -0.27008954 -0.05645123 0.4397626 0.013706172 -0.09731909 0.17529936 -0.5091597
-0.17777316 0.02800835 0.16559759 -0.4346327 -0.28135994 0.16093978 -0.14121562 0.18818995
0.21488014 0.2439599 -0.5011134 -2.1438446 0.34911504 -0.5760636 0.34682834 -0.14880094
-0.100038856 -0.19317159 -0.25063962 -0.042162634 0.57420796 0.06413266 0.36897987 -0.21715465
0.112575166 -0.65691245 -0.31157738 0.086166196 -0.051325377 -0.54008627 -0.27994213 0.17024352
0.029030696 -0.16780221 -0.22254394 -0.23279254 0.028065521 -0.04852421 -0.16456841 0.6747775
-0.23451541 0.05432121 -0.32025096 0.22257017 -0.34736735 -0.32078537 0.24699377 0.12222824
-0.42571244 -0.35160595 0.11792566 0.058882818 -0.06675254 0.558295 0.6162376 0.2742023
-0.54773587 -0.28230485 0.19375072 -0.015446881 0.08840748 0.34116173 0.22141184 0.12661846
0.3224985 0.1430165 0.6194078 0.25537765 0.17815602 -0.36036375 -0.00016561232 -0.63581437
-0.5770512 0.6352312 0.2148417 -0.32920802 -0.08752135 -0.35935748 0.4255867 -0.41027465
-0.048949428 0.178309 0.34589604 0.6252895 0.36934182 0.7238672 0.18142822 0.37434047
0.034671403 0.4588247 0.187204 0.19537356 0.10314456 0.21205781 -0.07105246 -0.10557515
-0.18356091 0.6050844 0.30184168 0.3593789 0.25674716 0.073839545 -0.11585672 0.18524486
0.06727648 0.12511119 0.09252044 0.3038922 0.3257513 0.5585585 -0.17087138 1.1358867
0.003929586 0.0063848053 0.038797654 0.5227085 0.33025858 0.37392092 0.26545507 -0.12744556
0.21936812 0.1820954 -0.16360386 0.6324606 -0.11037253 0.86097306 -0.6255233 -0.32537

fc1.4.bias f4 [64]
00000000: 20ba 3339 f958 83bb 49a0 4d3c 5959 813a
00000010: 18fb 9e3c a1cd fd3b 3193 86bc 740e a73c
00000020: eff4 e5ba 9b59 da3b 77b3 7fbb 7be3 a73b
00000030: 7cb4 fbba 47e2 e33b bc30 b73c 13ed 9d3a
00000040: d4a7 f0bb 84e8 ef3b 7ac7 be3c 1c8f 9a3c
00000050: f7c3 9b3b aff7 f53a 5b24 22bd a51c 903b
00000060: f952 a43c 7563 953c b7ca f13c 5732 e2bb
00000070: 39a7 5fbc 5f36 8d3c 9873 b03c a5af cebb
00000080: 843d 82bb d4b6 603c 88f3 983c 550a d9bb
00000090: 1d53 9f3c 563d 933c 0060 98b9 702a e63b
000000a0: 2c43 993c 05d5 f83c 1f2f 16ba 69ee 5e3c
000000b0: 64fd 873a f205 a83c dcab 023d 277a 033b
000000c0: 06e9 dc3b 6756 fbbc 71df b53c fd00 a43b
000000d0: fd2c 4cbc ed91 67bb d6c6 58bc f9a7 0d3d
000000e0: 6d6b cfbc 037d 37bc 7307 a83c fd18 6c3c
000000f0: 1fbd 063c f503 283d 9c37 313c 371f 963c
0.00017140107 -0.004008409 0.012550422 0.0009868547 0.01940684 0.00774546 -0.016427608 0.020392634
-0.0017544309 0.006663514 -0.0039016881 0.0051235533 -0.0019203569 0.0069544646 0.022362106 0.0012048803
-0.0073442254 0.007321419 0.023288477 0.018867068 0.0047535854 0.0018765832 -0.039585453 0.004397946
0.020059096 0.018235901 0.029515607 -0.0069029736 -0.013650709 0.01723784 0.021539494 -0.0063075596
-0.0039746184 0.013715465 0.018670812 -0.006623546 0.019448811 0.017973583 -0.00029063225 0.007024102
0.018708788 0.030375013 -0.00057290675 0.013606646 0.0010375199 0.020510647 0.03190218 0.0020061822
0.0067416457 -0.030680848 0.022201272 0.0050050006 -0.012461898 -0.0035334781 -0.013231 0.03458402
-0.02531978 -0.011199239 0.020511365 0.014410255 0.008223801 0.0410194 0.010816481 0.018325431

fc1.5.weight f4 [64, 500]
00000000: 6c72 c5be ca44 1cb8 e352 383c 4677 2139
00000010: 448f 1937 8385 cfbc 7091 61b7 a50a c23b
00000020: f775 f1bc 8cac 993b d722 ea3b bf07 f4b8
00000030: 934d 7f37 0f66 01bb 31da a632 5ce0 07be
00000040: 9726 a73e 8856 a5ba 75d4 a939 7731 9eb6
00000050: 2bde ac3a e55f 43bb cb51 4cba c710 1cba
00000060: eaf6 04b6 0f1c 6cbc 900d ebb7 7d91 54b7
00000070: 43b8 91b7 0e88 873c c5dc 2eb8 57b5 313a
00000080: 3d93 e4bb d0ee a2bb aed3 ad37 802d c9b8
00000090: 8638 c03a eff1 dd3a d24f afba bc09 6138
000000a0: 39b5 8ab7 6687 803b 9fa4 1437 482b ce38
000000b0: 3335 7e3a 8e4b 8037 04eb 0b39 1694 323a
000000c0: b90a b1b9 59f5 ac3d 4d3e 2837 f0cf 4ab7
000000d0: 07b6 aa3b 3754 0cbd b99c acb9 0d0b 39bc
000000e0: c542 b439 00bc b73a d6cc 8ab8 4f0e cbb9
000000f0: c48b b5bb d9b3 4138 9bc5 f9ba 2231 b936
00000100: 3ef2 bf37 dd36 f335 3a2a 97b6 8994 8f3c
00000110: 25a1 e73a 4337 f93a 4b0c cf3d c7aa 13ba
00000120: 1333 5eba df88 793a 2c9a 64ba 18ba 8c36
00000130: 8e20 ce37 7e14 f9b6 b92f f938 4325 1cb8
00000140: c626 6fb9 b149 413a b1c2 d1b6 5b6b 4dbb
00000150: c2be 8db8 c907 0d3c c30d 9bbb 9100 a7b8
00000160: 23e5 4836 9bed b83d 3f63 493c 88a1 83ba
00000170: 7059 c737 59d7 59ba c573 4433 28a0 633b
00000180: 500e 5437 a071 2db7 1999 09b8 de3b 0fb6
00000190: 65e4 beb7 092f 95b8 e69e 983b 8c4a a5b6
000001a0: b597 7ab9 ae0e 2138 0f72 803a e097 af36
000001b0: 9f41 86ba a539 403a 2f0c f139 708a 1eba
000001c0: e4c9 16b9 bb39 2436 e6c9 64b9 78fc 8d39
000001d0: a5d7 aa39 96b5 d1b5 8678 b437 2ce4 9139
000001e0: 4485 0438 8cd5 66ba 2e06 58bb fbe2 043e
000001f0: d93e a637 76ff 4e37 f14d ac37 3d7f 8fb6
00000200: ae46 cc37 920b 37b8 b075 613a f205 6a3a
00000210: f568 873a c7b3 aab7 3517 8738 4c39 6e36
00000220: ccad d7b7 9e42 d93b d9c5 28bb cd5c 04be
00000230: c3f8 3135 5053 0438 ad62 fdb6 e8ce 80b8
00000240: e1bd b0b8 7c7a b536 f549 aa3b 4d19 f13a
00000250: 9187 373a 0a45 453e 4854 8c37 16a2 1237
00000260: eb18 3937 b881 9db5 ede5 40b6 3f69 a4b9
00000270: 9095 5ab6 de89 72b6 cce7 db39 27b9 46bb
00000280: ab64 173b 44bb 06b8 19e1 123e 7763 e4b5
00000290: 6e97 9d37 fde3 a8b7 7de1 13bc 64b7 1938
000002a0: f6a8 beb8 4844 563c df64 3335 a7dd 2137
000002b0: afdf 7135 12cc 6336 2434 0037 9e3e 0e3c
000002c0: 60b7 b7b7 06b3 97b7 d22c beb7 7fbd 25b7
000002d0: 05dd 323b 1437 fab5 8fbe 7ab7 c0b3 0e39
000002e0: 8df1 dcb9 e1c1 4eb6 e3ee c3b6 b062 a5b7
000002f0: 72b4 3537 1ab8 d6b7 86ab 4638 f1db 3ab7
00000300: 2b57 ab3b f146 9636 2b59 8736 6cfd 07b8
00000310: 895f 0bbe 7665 2635 55b2 0737 6960 bf36
00000320: 9eb0 01b7 361a b73d 63c5 0abc 971b c839
00000330: 4e72 79bc cf44 f63a c031 b136 aa55 5bb7
00000340: 671b fc36 b484 5337 1002 c7b7 86b3 39b8
00000350: af9d ed3b da0f 8c39 8a6c 54b6 9e4b 0537
00000360: d6ed 733a 0693 5f39 2f1c c53b 7fc3 c33c
00000370: b3a0 82b5 c871 cb3c 0488 6e39 cb32 9136
00000380: 2797 2c3c 412e b6b6 35e2 883b 9dfa 1538
00000390: 3fa5 7435 f646 1537 5832 c4b7 f601 043d
000003a0: fbe8 943c b3a3 c7b6 356d 8dbb 4ed2 3d3d
000003b0: 5c44 e238 ba33 ed3b 6652 e838 e19e 2238
000003c0: c6fe 9a3a cb0f 0537 c35c f735 2216 74b8
000003d0: dee5 2c39 d9c2 a036 b888 0b36 6d40 a9bc
000003e0: c0fe bcb8 aeb3 2037 4185 43b7 506e 643d
000003f0: 7908 9836 c51b c5b8 3ae1 b2b6 9dba b535
-0.3856386 -3.7257363e-05 0.0112502305 0.0001539859 9.152867e-06 -0.025332218 -1.3444907e-05 0.005921679
-0.029475195 0.0046897586 0.0071452665 -0.000116362695 1.5217246e-05 -0.001974467 1.9424165e-08 -0.1326918
0.3264663 -0.0012614289 0.00032392485 -4.7145254e-06 0.001318877 -0.0029811796 -0.00077941705 -0.0005953428
-1.9813256e-06 -0.014410987 -2.8020499e-05 -1.2670059e-05 -1.737115e-05 0.016544368 -4.169044e-05 0.0006779036
-0.00697556 -0.0049723163 2.0721778e-05 -9.592902e-05 0.0014665283 0.0016933064 -0.0013375229 5.3653246e-05
-1.653527e-05 0.0039223908 8.859816e-06 9.830907e-05 0.00096972584 1.5293972e-05 0.00013343623 0.00068122277
-0.0003376806 0.08445234 1.0028086e-05 -1.20885525e-05 0.0052096876 -0.03426 -0.00032923164 -0.011294139
0.00034382023 0.001401782 -6.6185064e-05 -0.00038729838 -0.005540343 4.6182282e-05 -0.0019056083 5.5191495e-06
2.2881777e-05 1.8120878e-06 -4.5050665e-06 0.017526882 0.0017671926 0.0019013662 0.101097666 -0.0005633053
-0.00084762386 0.00095189916 -0.0008720483 4.1939893e-06 2.4572273e-05 -7.423164e-06 0.00011882134 -3.7228e-05
-0.0002280726 0.00073733466 -6.2513504e-06 -0.0031344506 -6.758935e-05 0.008607813 -0.004731865 -7.963286e-05
2.9935698e-06 0.09029695 0.0122917285 -0.0010042647 2.3764296e-05 -0.00083099824 4.5740098e-08 0.0034732912
1.2639517e-05 -1.0338059e-05 -3.280593e-05 -2.1343508e-06 -2.275612e-05 -7.113635e-05 0.004657614 -4.9260616e-06
-0.00023898373 3.8399063e-05 0.0009799617 5.233087e-06 -0.0010242945 0.00073328085 0.0004597618 -0.00060478505
-0.00014380325 2.4471508e-06 -0.00021818987 0.0002708172 0.00032585594 -1.5624562e-06 2.1513795e-05 0.00027826556
3.1595366e-05 -0.00088056247 -0.0032962668 0.12977211 1.9818008e-05 1.2338036e-05 2.0540292e-05 -4.2765446e-06
2.4351608e-05 -4.3641376e-05 0.00086006057 0.00089272775 0.0010330962 -2.0349295e-05 6.441624e-05 3.5498115e-06
-2.5710928e-05 0.006630256 -0.0025752692 -0.12926026 6.6299634e-07 3.1548843e-05 -7.551475e-06 -6.142055e-05
-8.427702e-05 5.4084794e-06 0.0051968046 0.0018394381 0.0007001097 0.19264618 1.6728547e-05 8.740017e-06
1.1032661e-05 -1.1735165e-06 -2.8744064e-06 -0.00031358932 -3.2571588e-06 -3.614106e-06 0.00041943637 -0.0030322762
0.0023100774 -3.2122494e-05 0.1434368 -1.7016272e-06 1.8786373e-05 -2.0133326e-05 -0.009025929 3.664884e-05
-9.0913774e-05 0.013077803 6.6829483e-07 9.647955e-06 9.0105e-07 3.394442e-06 7.6415345e-06 0.008681921
-2.190069e-05 -1.8083967e-05 -2.2670636e-05 -9.878887e-06 0.0027292382 -1.8642481e-06 -1.4945529e-05 0.00013609137
-0.0004214164 -3.0809244e-06 -5.839263e-06 -1.9715488e-05 1.0830454e-05 -2.5596517e-05 4.7366622e-05 -1.1137673e-05
0.005228897 4.478607e-06 4.033694e-06 -3.2422526e-05 -0.13610663 6.1987464e-07 8.088148e-06 5.703467e-06
-7.730121e-06 0.08940546 -0.008469912 0.0003816753 -0.015225006 0.0018788817 5.2808027e-06 -1.3073362e-05
7.5133753e-06 1.2607477e-05 -2.3723609e-05 -4.427463e-05 0.0072514634 0.0002671469 -3.165364e-06 7.945024e-06
0.00093051547 0.00021321708 0.0060153226 0.02389693 -9.732524e-07 0.024834529 0.00022748118 4.32725e-06
0.010534084 -5.4294073e-06 0.0041773566 3.575777e-05 9.113755e-07 8.897614e-06 -2.3388464e-05 0.032228433
0.0181775 -5.9497193e-06 -0.004315997 0.04634314 0.00010789253 0.0072388323 0.0001107797 3.8771777e-05
0.0011825196 7.931095e-06 1.8429931e-06 -5.8194746e-05 0.0001648883 4.791055e-06 2.0792195e-06 -0.020660603
-9.0119895e-05 9.578578e-06 -1.1653931e-05 0.055769265 4.5309393e-06 -9.3988645e-05 -5.331033e-06 1.3539862e-06

fc1.5.bias f4 [64]
00000000: 4e36 a13a ea66 a7be 3526 923c e749 9abc
00000010: 8d71 a0be 8750 ec3d 7e0c b73e 80b7 0e3e
00000020: ba3c 63bd fa61 2fbe f709 f9bc 47ce 37bf
00000030: db34 b4be 22d6 d23e 01ee be3d 73ff bb3e
00000040: fa8b 153c 71db 5d3e c458 a03e ca99 1e3e
00000050: 6ebf 88bb 848e 603d 1230 d63d 2847 1b3e
00000060: 300d 81bf cc96 563e 1d23 b83e a904 e23e
00000070: 42d8 583e 04ec 203e 8a45 443e 1293 f3bc
00000080: 27f6 b73d 4a30 913e 400e b73b 478f c13c
00000090: c14f af3e 7027 0dbf 7083 dbbe 6b8f 003e
000000a0: d2bf 863e 0a3d 973e 33a7 fcbe 00b4 323e
000000b0: 41e4 fbbd 9998 053d 079d 973d a340 513e
000000c0: bc6d 073e 038a 863e dbfe 00bd 3ca6 b23d
000000d0: 1537 3d3e 0811 b0be 124d e93d 1be5 fbbe
000000e0: 0bcf efbf cc6e 27be bcda 0a3e bb16 0cbc
000000f0: dc39 f13d 3c19 18be 2392 943d 4c02 463b
0.0012299509 -0.32695705 0.017840484 -0.018834068 -0.31336632 0.11538797 0.35751718 0.13937187
-0.055477835 -0.17127219 -0.03040026 -0.7179913 -0.35196576 0.41178995 0.093227394 0.3671833
0.009127611 0.21665742 0.31317723 0.15488353 -0.004173211 0.054823413 0.104583874 0.15163863
-1.008215 0.20955962 0.3596429 0.4414418 0.21176246 0.15715033 0.19167152 -0.029733215
0.08982497 0.28357154 0.0055864155 0.02362789 0.34240535 -0.551383 -0.42873716 0.1255471
0.26318222 0.29538757 -0.49346313 0.17451477 -0.12299395 0.03261623 0.074029975 0.20434813
0.13225454 0.2627717 -0.03149305 0.08723113 0.18478043 -0.34387994 0.11391653 -0.4919823
-1.873506 -0.1635086 0.13560003 -0.008550341 0.11778614 -0.14853376 0.07254436 0.0030213771
